A-基础教程/A2-神经网络基本原理/SourceCode/ch14-DnnBasic/MNIST/w_128_64_MSRA_init.npz (npz, 66516 bytes, 2 tensors)

weights f8 [128, 64]
00000000: dfbe 3039 0ee7 c13f 6173 9a8e 9594 b33f
00000010: c48c 8c32 ba3a 5e3f 4a68 13e1 0d7e d13f
00000020: ba29 c972 0dc3 a6bf 5b92 7304 ab5c c2bf
00000030: ecc9 fd58 f974 d1bf f4e6 5cad 7171 b6bf
00000040: e9fb 9f23 b48b a4bf f908 c53a de9b bbbf
00000050: 4ed5 823d 4403 aabf 566b ee9c d272 ccbf
00000060: cf7a 87ff 19f7 c23f 870f e1b8 9600 dabf
00000070: e442 8bdf 250e c4bf d723 66a2 2236 b33f
00000080: 71a8 d611 a9c4 b3bf 8dcc c595 d57f bdbf
00000090: 619a e3be a5b2 943f dbad e03f c38d c4bf
000000a0: 5227 fb61 2632 ccbf 1a4f cad1 8f75 b5bf
000000b0: e825 5725 32fe cf3f a6bb 97dc 3a35 92bf
000000c0: 1689 912f 8289 c6bf 7224 de7e 6b2d bdbf
000000d0: f597 f88a acd3 90bf bebb 8040 87d6 d43f
000000e0: 997d 0ea9 3bed c03f 0537 715f b131 bfbf
000000f0: a9f4 aaf7 be60 c1bf 768e 1216 64b4 ccbf
00000100: 831a 6213 43e8 bd3f bf46 0042 4690 85bf
00000110: d9ac 01bb 3153 b3bf 041d 80c6 d39f adbf
00000120: b284 91a2 a33c c03f ab6d b313 66e0 c43f
00000130: 3adf a777 4bc0 513f cf94 77d0 5e82 bcbf
00000140: ae13 69ff 4bfe b0bf d3e1 69f0 bc3e cabf
00000150: f993 f8c2 458d cebf 6302 a0d0 75bb cf3f
00000160: 9a4b 10cd 34ca d9bf 2860 51e7 3b08 c6bf
00000170: 81b9 b911 5b05 a0bf 0d58 cf02 4697 b73f
00000180: 292c 54fd 22d6 c53f 1bc1 17f8 9c97 b7bf
00000190: d51a 7580 0cec d3bf 3c8d 3411 35cf a73f
000001a0: da2e 50a9 9fe3 c0bf 6573 631d d0b3 c3bf
000001b0: dc1c 06da e951 b53f cdbe 638e 605d 8bbf
000001c0: 2d98 6251 d780 a6bf 48c8 a2ed 7e3d a5bf
000001d0: 3000 41b0 408b d53f 6532 b8ad 9884 babf
000001e0: 7aef 3e27 c91e be3f 0389 483d 545d bfbf
000001f0: f2f7 8da0 e304 c7bf 7b38 dfce fdc2 793f
00000200: 1a38 dfb0 d6d9 b7bf 846e 0fa3 2fa2 c0bf
00000210: 1cd1 8662 7133 b73f 30d9 b3b3 f62d d8bf
00000220: b477 d2b6 0727 96bf 2622 ebc6 a5e0 ab3f
00000230: 6959 6de6 8080 9abf 98e3 0d3c c14a 9f3f
00000240: 656b a0b2 7477 b4bf c79a 3b64 dc74 bcbf
00000250: 117e 47d5 351c b73f dc68 65ad 8c00 d43f
00000260: 92b9 8353 31d6 733f 3502 7cc2 8acf cabf
00000270: e6d8 b450 8eb2 b1bf b088 9138 b18f d6bf
00000280: baea 1216 3798 c6bf 5356 0676 8ec4 a53f
00000290: e9e1 0086 5809 cabf 9592 d7fb 98b1 d53f
000002a0: 522f 8277 b17e a4bf ff61 b8e9 26d4 cfbf
000002b0: 2e64 13f4 f924 a93f 395c 1af9 730f d43f
000002c0: ce83 6774 4896 9cbf 403e e059 14eb ca3f
000002d0: 07c8 39f7 a76e a2bf 5b31 49a9 3d99 d1bf
000002e0: 2df9 3d8e cc77 a13f 8735 9523 043c c2bf
000002f0: b9bf bb6e 39d2 b73f e07b e77d e953 b73f
00000300: 83ec 6e1a 8935 8dbf ec79 fd80 43ba d2bf
00000310: 5d32 f2cc ab42 c3bf 7944 a619 9816 a7bf
00000320: a724 0034 fb0a bbbf 1eac 1b51 78de 983f
00000330: f5b0 9b2f 4640 a13f 3883 1564 1235 843f
00000340: 0c0b d6db 952d 86bf 4953 124d f155 d33f
00000350: 7cf0 c8dc b0e6 c6bf c976 8ff1 3085 bcbf
00000360: 76a9 3af3 d8d8 a0bf 509b 62cb 9d2f 9bbf
00000370: fae8 7359 853c b93f 2005 39a8 35b3 873f
00000380: e736 3a7e 32c6 be3f 4f8c d751 54a4 d83f
00000390: d573 7b0a d995 b0bf 865c 4eb0 62dd c5bf
000003a0: f800 ac3f c9e2 943f ae26 25bb 93ed b3bf
000003b0: aae4 4573 c30d babf 27dd 63e4 b29f b33f
000003c0: 50c3 04fe a20c ba3f 5811 ac11 5dde b8bf
000003d0: 6df3 ade3 8fb6 78bf 541e 807d 7b1c da3f
000003e0: 69d9 f61a a178 c33f 32cb dbc5 c05d c2bf
000003f0: f80a acad c26d cabf 452d c0e0 cf3a c73f
00000400: 25e4 6efc 1543 c63f da9b bd5b 12f1 c5bf
00000410: 3e05 6cdf 3f7f c93f 883d 6a72 f75f ab3f
00000420: a3a9 d3da 3169 a73f 64b6 b57c 33a8 d23f
00000430: 5502 0d83 a62c 99bf 6200 6766 a071 c7bf
00000440: 53fb c46f 82b9 ca3f 2914 fdef 85d1 cc3f
00000450: 70b8 a2aa 6cb4 d63f c048 c01b ede5 9c3f
00000460: bb65 a6fb 8041 d1bf 8321 0fc0 e341 b23f
00000470: 9d0f bfe2 9852 ccbf 4d48 50e5 13e3 b73f
00000480: 7088 285c e902 d4bf cf6c 1e32 c300 b73f
00000490: a9fa 2327 5fc1 d2bf 8f35 aa22 7640 b5bf
000004a0: ea39 3c4f 2dbc c83f 113d 5ff6 07b0 c5bf
000004b0: 58c7 a48c 60a7 c3bf ed2a 6db1 b756 a1bf
000004c0: f54a e62a 38b6 c5bf ed45 fbc9 6f06 ccbf
000004d0: 26b0 d1fa 1296 da3f b7a1 4e37 dfbf c9bf
000004e0: f197 a131 e751 b33f e123 3bb2 140b a8bf
000004f0: e4e9 d8da f259 bcbf ab68 c119 cfd2 b23f
00000500: 0fca f3c0 a21c cdbf 70bc bfec 66ae c03f
00000510: 03f7 16f6 ea6d 9dbf db7f 0cb4 0733 d23f
00000520: ea48 d4b7 adde a0bf 63a2 db6b ab0a 8fbf
00000530: d5e7 f7f3 386e bfbf 2986 8777 a4a3 b0bf
00000540: 4e5d 9fcd 3ac3 c43f 7c45 ed9e f0b3 cf3f
00000550: 72ef a1bf 34c8 cabf 81ba 7c78 9325 473f
00000560: 205f 1131 ce01 c1bf 364e 1f0b a673 d73f
00000570: 269f 94e2 05fc 89bf 139a 79b2 92c0 a8bf
00000580: 1c46 856d a3fa c63f 9a20 ef04 afef 93bf
00000590: 0e80 b1a1 35dc c73f 3fee 99d8 363a c7bf
000005a0: 0ed1 7c4f cc86 c73f 85ab 2458 1c21 d23f
000005b0: c9c7 3df5 8e49 c4bf 755c b337 7501 c1bf
000005c0: 3678 cf5c 6652 c0bf 8aba d6d8 056e c6bf
000005d0: eb99 877b 70ba b73f 7e57 f965 3538 dabf
000005e0: a2eb 71ce 251c bb3f 71a4 bfa3 ab97 c53f
000005f0: 6efd 084c 9c59 aebf d8a6 d9ac e590 b2bf
00000600: 6676 b9d4 e807 cdbf 740f 625a e9e3 9ebf
00000610: 5845 e7c8 f985 a8bf d4bf 667e 6b0f bcbf
00000620: 557c e7f3 f3e8 b43f c16b f567 4f2e b0bf
00000630: 4215 1928 512b cc3f 163c 0339 cf06 a1bf
00000640: 5185 89f0 fb5a bebf e3ba 22fa 8fee cabf
00000650: f5d1 a13c 7755 bcbf d046 f1b0 abf9 d13f
00000660: 7b12 951d 2354 a33f e039 68f0 121c d23f
00000670: 02ce 583b bef8 bdbf 78c7 cba4 af1e b63f
00000680: 414d b290 ef86 c1bf bebb 246b d605 c7bf
00000690: 36e4 6943 9087 79bf 0c40 4c49 13ad c73f
000006a0: 22b3 9c70 3731 a03f db35 2f67 34a7 bcbf
000006b0: d8d3 088f a16a c23f 3758 6651 b981 b73f
000006c0: 3849 8d54 796c d2bf e083 8e06 e633 a1bf
000006d0: 95f1 4c1d 327c ab3f 5ef7 06bc c24d a1bf
000006e0: c2dc 9052 1050 cd3f 6ea7 927f f47c d63f
000006f0: ca5f 6a27 3f54 c0bf f77e 14fd 6455 bb3f
00000700: 364d 86f3 d5bd 62bf d70d 0a93 b450 b4bf
00000710: 849e 2ef9 8a7e 92bf a859 1561 1538 acbf
00000720: 7ffd 5807 33fa b33f 6c95 f951 9f3e c73f
00000730: 90c2 cba1 7d78 b0bf 6c6a be01 5617 a33f
00000740: 61f3 4821 a4bd c43f f16c f138 51c7 a0bf
00000750: 8c7e a315 9ab3 b9bf e7d9 a86c 5da0 c6bf
00000760: 6b4c affd a0e0 c6bf 5dcc b748 cd03 a13f
00000770: d4dd 885a a223 a03f a732 52f7 ebbf 64bf
00000780: 0372 101a 4865 a6bf 5079 79d4 2ab2 bebf
00000790: c7a6 b8a5 09aa d33f 2a56 154c 914a cf3f
000007a0: 45e9 d68f 94cb 6bbf 9a82 c62f 237f b7bf
000007b0: d0bb ac1d c6f1 c8bf 4369 c3b2 6525 a33f
000007c0: 9458 5ade bd8f b5bf 00c4 7d6c 7ca7 bf3f
000007d0: 7c38 dc88 759b b03f ee5a c69f ffcf b73f
000007e0: 039a 6fc4 6a0a a13f ea66 a8b5 d4bd 743f
000007f0: 8bd3 f4a8 e9ca c1bf 4465 31d2 e040 c1bf
0.1398637561082898 0.07648596507574502 0.0018450563749830432 0.27331873874721124 -0.04445688272660982 -0.14345300404888203 -0.272764527230861 -0.0876685188531175
-0.04012835440516211 -0.1078471082192073 -0.050806171902346806 -0.22225411093389863 0.1481659410191782 -0.40628593496898485 -0.15668176093324526 0.07504478897875742
-0.07721954999456827 -0.11523184687193773 0.02021273591608475 -0.16057625407243745 -0.22028045448524353 -0.08382510063011886 0.2499449426962166 -0.01778118106261286
-0.17607142756157462 -0.11397430274350187 -0.01643247221195306 0.32559377001865275 0.13223977808682433 -0.12185200290806726 -0.13576495259431923 -0.22425509526975745
0.11682528708670685 -0.010529087914651012 -0.07548819366063543 -0.05786001012898548 0.12685056150352164 0.16309810602147698 0.0010834443079356785 -0.11136429395226631
-0.06638026223761415 -0.20503961314149297 -0.23868629474705452 0.24790833174485546 -0.4029666903090231 -0.17212628168886224 -0.03129086104751178 0.09215200012781129
0.1705974328000093 -0.09215718323662651 -0.3112822775332636 0.046502741194013514 -0.13194652335402318 -0.15392495570167877 0.08328115055893498 -0.013361696572672522
-0.04395172947378998 -0.041484800823483214 0.3366243096570569 -0.10358576050948327 0.11765725334310942 -0.12251783844161328 -0.17983670558527326 0.006289473951211484
-0.09316770380175435 -0.12994952642371882 0.09062870650706539 -0.37780540036273447 -0.021633263143136808 0.05444829991535398 -0.025880827011257965 0.03055860451738432
-0.07994775162698671 -0.11115815589037502 0.0902742047978722 0.31253354008880563 0.004842941933232219 -0.2094586801176931 -0.06913079710361422 -0.35252028011576453
-0.17652023866488326 0.042515231997793855 -0.20341021102082316 0.33896469682648817 -0.04002909263462463 -0.24866186534997323 0.049110232395556216 0.31344317747556577
-0.027917034249074928 0.21029905689691653 -0.036000489167136655 -0.27497808009936414 0.03411711918214375 -0.14245654809421301 0.09305151895000464 0.09112414668878399
-0.014262267226391017 -0.2926186332387306 -0.15047214038021908 -0.04509425461868317 -0.10563631076378731 0.024286155653424506 0.03369349795488744 0.00986685150081855
-0.010829134723058263 0.3021205189373189 -0.17891512661470077 -0.11140733621092659 -0.032904414835985316 -0.02654882959236754 0.098579725588852 0.011572283931971017
0.12021174985622061 0.3850298690069324 -0.06478649621881456 -0.17081864937492613 0.020396370421622984 -0.07784388846371357 -0.10177251400263523 0.07665556026391994
0.10175532056451897 -0.09714299851845476 -0.006033479755271337 0.4079884267416436 0.15211881462682733 -0.14348611508429482 -0.20647462349014467 0.181482300511883
0.17392229867780987 -0.17141942481541045 0.19919584664607187 0.05346654197375772 0.04572444721437143 0.2915161817425995 -0.024584390400607187 -0.18315510749926306
0.20878630120747718 0.22514414041703049 0.35476223624835423 0.028220848864358272 -0.2696230371016914 0.07131789626067157 -0.22127066680525057 0.09330868099667207
-0.3126777076705656 0.08985538457493479 -0.2930524713737364 -0.08301485391912976 0.19324270600232235 -0.16943454294094143 -0.15354544513098278 -0.033864727409840124
-0.16962339491563908 -0.21894643175487208 0.4154097985654083 -0.20116796684784585 0.0754684921426756 -0.04695954013511262 -0.11074750750496026 0.07352918986126393
-0.22743639394282453 0.1303223281861139 -0.02873961569797868 0.2843646295823398 -0.032948902788250425 -0.01515706942468959 -0.12277561146029765 -0.06499698560903568
0.16220793762361513 0.2476788307199448 -0.20923480374392117 0.0007063837119625911 -0.13286759754077426 0.36643363081131797 -0.012687726952733746 -0.04834421566629401
0.17952387664495084 -0.019469008136895206 0.18640776057418446 -0.18146405769572202 0.18380121117810017 0.2832709179662561 -0.1584948251216345 -0.1328569910026293
-0.12751464397200757 -0.17523263061362498 0.09268858924733762 -0.4096806999053725 0.10589824953232932 0.16869111533677342 -0.05927742412722635 -0.07252345533347737
-0.226803878659598 -0.03016628851084087 -0.04789715363916497 -0.10961028896303954 0.08167957977956182 -0.06320663726857757 0.2200719304839059 -0.03325507708506607
-0.11857580778589251 -0.21040534700065114 -0.11067910414005395 0.2808636882738087 0.037751290665743086 0.282963499806014 -0.11707676838778272 0.08640573285427233
-0.13693041386850704 -0.17986564857116422 -0.0062327990805153746 0.1849693401240987 0.03162549256953741 -0.1119263412394597 0.14387912258248892 0.09182317960070994
-0.28787072426816307 -0.03359907941854323 0.05368191344902865 -0.03379639191869786 0.22900585204636142 0.351376652319792 -0.1275710051020254 0.10677176645958385
-0.0022877863631919583 -0.0793564661963083 -0.018060847720021048 -0.055115383244515315 0.07803648881325918 0.18159858229334291 -0.0643385429391492 0.037287414276950454
0.16203738808863036 -0.032770670128877806 -0.10039675739562365 -0.17676894956248576 -0.17873012911749994 0.033232131125168186 0.03152186732443921 -0.0025329216683246006
-0.043741467649145015 -0.11990611731878187 0.3072532766696949 0.2444631215573037 -0.0033929730986674033 -0.09178371349708883 -0.19487835358583405 0.03739469344300741
-0.08422457388437216 0.12364938400948233 0.06487211791338326 0.09301755572083056 0.03328260085963921 0.005063849350813257 -0.13900490522214812 -0.13479242575957973

bias f8 [1, 64]
00000000: 0000 0000 0000 0000 0000 0000 0000 0000
00000010: 0000 0000 0000 0000 0000 0000 0000 0000
00000020: 0000 0000 0000 0000 0000 0000 0000 0000
00000030: 0000 0000 0000 0000 0000 0000 0000 0000
00000040: 0000 0000 0000 0000 0000 0000 0000 0000
00000050: 0000 0000 0000 0000 0000 0000 0000 0000
00000060: 0000 0000 0000 0000 0000 0000 0000 0000
00000070: 0000 0000 0000 0000 0000 0000 0000 0000
00000080: 0000 0000 0000 0000 0000 0000 0000 0000
00000090: 0000 0000 0000 0000 0000 0000 0000 0000
000000a0: 0000 0000 0000 0000 0000 0000 0000 0000
000000b0: 0000 0000 0000 0000 0000 0000 0000 0000
000000c0: 0000 0000 0000 0000 0000 0000 0000 0000
000000d0: 0000 0000 0000 0000 0000 0000 0000 0000
000000e0: 0000 0000 0000 0000 0000 0000 0000 0000
000000f0: 0000 0000 0000 0000 0000 0000 0000 0000
00000100: 0000 0000 0000 0000 0000 0000 0000 0000
00000110: 0000 0000 0000 0000 0000 0000 0000 0000
00000120: 0000 0000 0000 0000 0000 0000 0000 0000
00000130: 0000 0000 0000 0000 0000 0000 0000 0000
00000140: 0000 0000 0000 0000 0000 0000 0000 0000
00000150: 0000 0000 0000 0000 0000 0000 0000 0000
00000160: 0000 0000 0000 0000 0000 0000 0000 0000
00000170: 0000 0000 0000 0000 0000 0000 0000 0000
00000180: 0000 0000 0000 0000 0000 0000 0000 0000
00000190: 0000 0000 0000 0000 0000 0000 0000 0000
000001a0: 0000 0000 0000 0000 0000 0000 0000 0000
000001b0: 0000 0000 0000 0000 0000 0000 0000 0000
000001c0: 0000 0000 0000 0000 0000 0000 0000 0000
000001d0: 0000 0000 0000 0000 0000 0000 0000 0000
000001e0: 0000 0000 0000 0000 0000 0000 0000 0000
000001f0: 0000 0000 0000 0000 0000 0000 0000 0000
0.0 0.0 0.0 0.0 0.0 0.0 0.0 0.0
0.0 0.0 0.0 0.0 0.0 0.0 0.0 0.0
0.0 0.0 0.0 0.0 0.0 0.0 0.0 0.0
0.0 0.0 0.0 0.0 0.0 0.0 0.0 0.0
0.0 0.0 0.0 0.0 0.0 0.0 0.0 0.0
0.0 0.0 0.0 0.0 0.0 0.0 0.0 0.0
0.0 0.0 0.0 0.0 0.0 0.0 0.0 0.0
0.0 0.0 0.0 0.0 0.0 0.0 0.0 0.0
