A-Basic Course 基础教程/A2-Neural Network Basic 神经网络基本原理/SourceCode/ch16-DnnRegularization/augmentation/w_30_10_Xavier_init.npz (npz, 2948 bytes, 2 tensors)

weights f8 [30, 10]
00000000: 9860 077a cab5 c5bf 86d5 f26d 0e1a d2bf
00000010: 285d ce24 9107 d0bf 103c d501 b3d9 bf3f
00000020: b85e 605f b827 c93f 48d7 a07c c600 d0bf
00000030: 0083 9b92 d093 9f3f 1871 7df5 ecde c63f
00000040: dc2f 3442 85dc d03f 0293 8e8c 61c4 d13f
00000050: 3498 d30e 0101 ce3f c725 5934 8521 c6bf
00000060: 4a59 78a8 cc93 d33f 6a50 1ede 2cf3 d13f
00000070: 39a6 d5c0 b6b5 d2bf ca69 2248 767e d2bf
00000080: 8468 6dc5 f90f d4bf 6097 d3f9 8d84 ad3f
00000090: 52a6 b675 9cfa d53f 4860 f6c4 fc66 bc3f
000000a0: 0c83 f252 2783 c33f c01c 6864 1739 bf3f
000000b0: 7860 a102 4acb b8bf 8c07 5d72 cd29 b43f
000000c0: 5a52 35f0 85df d3bf 60cb 4746 e179 953f
000000d0: 7066 b2f9 7d66 ac3f e8c0 257a 82c0 cc3f
000000e0: 986f 89b6 6ada ce3f 6a7f 3d2c 9628 d73f
000000f0: f4e7 890b 8ed9 c13f 3497 af54 4843 c83f
00000100: cdab e870 851f d6bf 667d bfe7 29c6 d73f
00000110: 00d1 05cd 3265 68bf 6ce4 83bb 354d d23f
00000120: 14d3 4f0e 2282 c33f a03e e180 107f d43f
00000130: 446e 6f35 6ddf c53f 502b 838a 8f3a ca3f
00000140: 7348 f2b0 3086 d7bf 1c83 a266 a4bc b13f
00000150: 368d 233a bd29 d7bf 345b da9d fac9 c6bf
00000160: 7c6a 0203 35be d53f a82f c8de 3bb5 b03f
00000170: 7004 74b8 6e6e a53f d810 9160 ae36 ce3f
00000180: bc88 0f74 1936 c53f 4fe1 5d1f bb8b c6bf
00000190: 6450 36a7 3ffb d6bf 2e77 a0b2 ea57 d5bf
000001a0: fe79 dca9 951b c1bf 3088 51ac a27c 9a3f
000001b0: 1ced f935 7c6a b5bf 8231 4f98 4397 d8bf
000001c0: 6026 fad7 11cd 9b3f 3a28 a445 9c28 d63f
000001d0: c759 e528 96ff d0bf 0c86 8717 c6c7 d2bf
000001e0: ccd9 87cb a623 d03f 1ffe 3434 a2be d2bf
000001f0: 385e 790b 75c2 b03f 7063 5bb9 f556 a2bf
00000200: 1258 ac1b 8796 d1bf 2e04 0cc8 c3d3 c0bf
00000210: 627c 4e6b 52a2 d83f bcd8 b183 dcb5 ca3f
00000220: 406c 4aab c2a5 a83f 7dd5 970c ffde cebf
00000230: 6ea0 304d bcc0 d83f 7218 c1bf 8427 d13f
00000240: a042 b654 81e1 c6bf f77a ac5c 3580 d4bf
00000250: 64e1 2dec 7d23 d73f bcbe a0f0 25cb b73f
00000260: 50e7 46c0 9758 bdbf 7cca 19e5 b288 cfbf
00000270: 2361 417a 1409 cfbf b0c3 8476 7ea0 afbf
00000280: 7c0d 5017 29fb cc3f 3079 db63 4d14 953f
00000290: 8c2a 38c0 d8f9 cc3f 88ae aa1f 7f09 ce3f
000002a0: 316d 6bd5 e1f6 c3bf 80ce 39de deb9 c5bf
000002b0: 7b9a dc45 1547 d7bf ec00 4ec6 0a01 ba3f
000002c0: 6c76 0bfa 59c1 d43f 90f7 f461 e650 d8bf
000002d0: acb2 adbb 3795 d7bf dc8d d036 f900 c33f
000002e0: 5c5a b0c9 42f4 c03f 0a89 161b 83f6 d5bf
000002f0: d808 0db3 72de a33f bed6 e057 7359 c1bf
00000300: ba36 6278 b415 d13f 3a29 b8de e625 d8bf
00000310: ac86 4c3c 8883 c53f d035 628c c7a8 cb3f
00000320: 8811 0db9 e7ac a5bf d4a0 c37a 70d3 c93f
00000330: 3949 f16e 16e2 cdbf 645c 4368 7156 c4bf
00000340: 3043 3492 4104 a83f 392f e129 d2b9 c1bf
00000350: ce68 6dd8 088e d63f 4a10 4775 ea64 d63f
00000360: 04aa 14d3 562a b0bf 6898 08a2 9238 afbf
00000370: 40be cef7 4306 923f c067 6451 d2fe 7cbf
00000380: 7878 ab1b bb1b d8bf 515a 1ae5 aadd cabf
00000390: c876 5961 a520 d3bf a029 018c 03ff 8cbf
000003a0: b05a 53c9 9ec9 aabf b6e6 9699 3385 d03f
000003b0: 795f fba2 94e7 d2bf 84fe 45be b0e2 d23f
000003c0: 738c 03b3 b37c d3bf a383 29e4 a6cb c5bf
000003d0: 0eb9 ee9d 0297 cebf 8488 216a 1936 d63f
000003e0: 0728 6b17 9552 d5bf 1bdc c0ae 3f62 cabf
000003f0: 462d 26ca 7a93 cabf 580c a1f7 7492 c83f
00000400: dc03 af5d b252 cfbf 1006 0923 d227 bc3f
00000410: b60b b3f4 195e c1bf ac92 eb02 4407 c0bf
00000420: da67 ba88 f4c6 d03f 90ee 7303 851f d23f
00000430: 94c6 1555 94e8 bdbf 7838 dc47 a46a cf3f
00000440: 42f4 4de5 8b8c d53f 3046 ebd6 b956 b7bf
00000450: 2594 2cbd 15a0 d7bf b8b8 01ad 8559 bdbf
00000460: 1cf0 9766 1bbc c03f d819 2704 3d03 ccbf
00000470: 7bfb b0d6 fea2 d0bf 0925 4ce6 a552 d8bf
00000480: 0010 673d ffc6 263f 0022 6581 f34d a03f
00000490: 06b3 db9c 970e d6bf 6695 ff94 d9d1 d4bf
000004a0: a83d ff90 136b b5bf 67c6 0ae2 4d58 d8bf
000004b0: ec9a 5d97 93bf ba3f d03c e1f0 56d5 ca3f
000004c0: ca06 1d5f 2e1f d83f fdf6 512c e319 d8bf
000004d0: 6490 acdd 8089 d73f d471 6943 fc90 b73f
000004e0: 9c31 6197 5e72 d4bf 98d9 f8be e6ce d7bf
000004f0: b9ae 118d bbd7 d0bf d0ff 4382 8c7a b43f
00000500: d406 c9e6 7b7d cf3f b628 4c2a 8a75 d53f
00000510: 78c4 2268 e66f d43f de16 2f30 c6b4 d43f
00000520: c45c b729 f9c6 cf3f 81dd 2ba9 4bc5 d6bf
00000530: 80ce 08e9 c99f b3bf 40f5 5236 6537 803f
00000540: e696 0fde 5a5c c1bf 4e53 53c1 b927 ccbf
00000550: 3081 6a08 57e4 bebf 6406 1a93 8c78 c03f
00000560: e0e8 7a53 c91c d8bf 3ba2 cb6a 91d1 c5bf
00000570: 48f3 4d50 4615 d7bf b046 1c0c e8da d3bf
00000580: d1bc 68dc 817f c6bf a005 7696 4965 943f
00000590: e36b b461 dcf5 c1bf 449b 7f7c c56e b4bf
000005a0: 723d 7add 3760 d03f 6c93 57e0 1c78 c93f
000005b0: 4c83 96e9 d5d8 c73f 6c28 0935 6d55 d13f
000005c0: cceb 5e5d e118 d6bf 6bbd d8cd d64d d4bf
000005d0: 7e23 f829 1964 cbbf aca1 af59 0f49 b5bf
000005e0: 23d3 1f07 c3da c1bf f938 e829 7eb4 c3bf
000005f0: b809 82d8 1a2e c8bf d2df 22ac e42d d4bf
00000600: 3455 ae30 399c ca3f ce6f 8144 79c8 d5bf
00000610: ad6a cc02 6ba8 d8bf 8c26 9dbb b0f0 d0bf
00000620: d034 110e 0709 c43f 9c09 afd0 da59 b33f
00000630: c615 9df3 e5a0 d33f a437 419c 3195 d0bf
00000640: 7042 7f66 d3e4 c1bf e31e 615a 3655 cbbf
00000650: 5c52 2e9d 89be c03f af5b 7143 094f d3bf
00000660: 40cb 4cb8 0a88 d03f 4c31 7931 655a c93f
00000670: 88f8 5a35 e001 d33f 2630 ba3c 1ffc d03f
00000680: 4020 1c08 79eb 8b3f 6c64 95a6 5c4e b63f
00000690: b87e 0d56 0b96 a3bf 68e2 9233 4de4 c83f
000006a0: 18fd d2cd f66a a53f 50c9 8cb8 a9cd a4bf
000006b0: 35ed c2ce a111 c5bf 869f 2423 9455 cfbf
000006c0: 2c95 a843 ee37 c73f 406d fe93 a05b 903f
000006d0: e01b 1046 72b6 b7bf a013 5476 742a 943f
000006e0: c825 b1c5 8bb9 b3bf ec59 1af8 71ea b9bf
000006f0: b673 b1f3 0e23 c7bf 2021 6699 bc8c b5bf
00000700: 9493 1f33 2843 d03f e238 5861 3490 c5bf
00000710: eafe f94c 2d91 d1bf 2cb6 97a6 6fd5 cd3f
00000720: 70c2 86f7 c2d3 be3f a811 28fa 04e2 b53f
00000730: a627 6bd7 d231 d53f f4ef 9211 a8f0 d73f
00000740: 0c19 a272 a5b7 bdbf 48dc e4e7 64ab d2bf
00000750: d896 311d e158 d13f 5cfc f03b 030e d43f
00000760: 8f61 e10c 4269 d1bf 6ce9 18bc 6357 d7bf
00000770: 781f 61a9 7e38 d1bf 2fdd 01da 2c40 d7bf
00000780: d459 0f76 78dc c23f 34c3 0a48 02db b1bf
00000790: d43e cc3f ed9e d0bf 5ff5 3f3c adb0 c4bf
000007a0: 68cd 80b1 5895 ce3f d86f 60ad d129 afbf
000007b0: 3b0e e5c1 1c63 c3bf 4013 0773 1557 c4bf
000007c0: 38c8 9596 16db a23f 605b 43ec 83e5 81bf
000007d0: b43a db08 079f b9bf 01e1 2385 d16d c5bf
000007e0: 989b 3908 bc8f d0bf 20b5 0d30 ea0e 83bf
000007f0: 7816 7687 29b7 ce3f 10c5 52a4 ed73 9c3f
-0.16961031874121058 -0.2828403543201933 -0.2504618510660799 0.1244155768847437 0.19652466446927064 -0.2500473229477973 0.03083730597325296 0.17867815005127663
0.26345950570316545 0.2776111481310154 0.2344056436915608 -0.17289795929018067 0.3058959622589056 0.28046724025012415 -0.29234093505383246 -0.288968630260254
-0.31347507743851843 0.05765193628921739 0.34342109199005677 0.11094646271374231 0.15243999052201962 0.12196489526114629 -0.09685194553583354 0.07876285593104465
-0.3105177732261716 0.02097274772126967 0.05546945260102809 0.22462492908699194 0.24104055321629114 0.3618522102387859 0.13945174754536505 0.1895533002381683
-0.3456739046693514 0.37146995193139387 -0.0029779426769726003 0.28596251785308513 0.1524088449365527 0.32025539956974036 0.17088093861717557 0.20491213095950878
-0.36756531982349044 0.06928470140202275 -0.3619225566637455 -0.17803890903152253 0.3397343186749493 0.06526540936482539 0.04185815812707794 0.23604373660248856
0.1657134834959545 -0.17613925010278783 -0.35908500031769663 -0.3334910149004483 -0.1336543158913201 0.025866071479306807 -0.08365608518390782 -0.384232424487685
0.02714946633071802 0.34622866440679767 -0.2655997657178912 -0.2934432248858634 0.2521759975055857 -0.2928853521188745 0.06546718149308439 -0.03581970107706567
-0.27481248571837213 -0.13146254794995244 0.38490734557303175 0.20867496900945592 0.04813965168906309 -0.24118030657670522 0.38676364458161216 0.26803702093128046
-0.17875687252355466 -0.32032522249384904 0.36154125275017734 0.09294354557709544 -0.11463306850683108 -0.2463592165618883 -0.24246459931851758 -0.061771347015003086
0.22641481054607115 0.020585259647185328 0.22637471566880085 0.23466481252886617 -0.15597174569016084 -0.16973481989736072 -0.3637135679477194 0.10157840100692156
0.32430123728213434 -0.379937740002668 -0.36848252609233145 0.14846720863816543 0.13245425079431328 -0.3431709064990548 0.03880651889495973 -0.1355423144429348
0.26694976574149687 -0.3773133444780289 0.16807654327663124 0.21608824114484415 -0.04233478673862395 0.20176511759132743 -0.23346214692225845 -0.15888803091977188
0.0469074717494834 -0.1384833054056516 0.352419101099838 0.349909414795779 -0.0631460442861354 -0.060978491096009446 0.017602025985693937 -0.007078954271742377
-0.37669255926255785 -0.2098897570292189 -0.2988675547293096 -0.014158275327777414 -0.05231949050510332 0.2581299781701135 -0.29538455883220355 0.2950860841883485
-0.3044862030203099 -0.17027746334772784 -0.23898346625851058 0.34705195774416375 -0.3331654289910379 -0.2061233142173656 -0.20762572165072352 0.19196950999512086
-0.24471120428464033 0.10998261790611985 -0.1356842465230252 -0.1252217306383917 0.2621432624088108 0.28317380273049597 -0.11683013036033635 0.24544194706726663
0.3367032756139602 -0.0911670827583968 -0.36914580797230406 -0.11464724992558473 0.13074057111214266 -0.21884882643480696 -0.2599484535784808 -0.3800444363592566
0.00017377725334999372 0.031844720406812854 -0.3446406394785274 -0.32530822325346376 -0.08366510667769111 -0.38038966249869194 0.10448572583628007 0.20963560830794004
0.3769031456796311 -0.37658004120008554 0.36776754043444826 0.09205605169103787 -0.31948056014223325 -0.3720032563172935 -0.2631672742488536 0.0799949472457222
0.2460169674760012 0.3352990544377791 0.3193298356009744 0.32353357987845566 0.24825968300749512 -0.3557919647277786 -0.07665693225208692 0.007918158264483055
-0.1356309494287224 -0.21996232928963838 -0.12067169146985601 0.12867886717508548 -0.3767569842563159 -0.17045800890561388 -0.3606735023711747 -0.3102359884515904
-0.17576621305622678 0.019917630966579503 -0.14031557818165571 -0.079815237898953 0.2558726942888462 0.19897805170253535 0.1863047972265356 0.27083902529978476
-0.3452685748886182 -0.31725092031680074 -0.2139922575882131 -0.08314605655289736 -0.1394885811602303 -0.15394570394750653 -0.18890700885465406 -0.31530110178163995
0.20789255978585575 -0.34036094369889447 -0.38527941964427265 -0.2646905738989538 0.15652549921870795 0.07558982462709313 0.306695449737472 -0.25910606631520694
-0.13979570870153024 -0.21353797352843804 0.13081474470949928 -0.3016989859219689 0.2583033370785195 0.1980711452073457 0.29698949060901514 0.2653883069076549
0.013632722434991362 0.08713320795995266 -0.038254122023088255 0.19446721094370223 0.041831696152707376 -0.04063158395583122 -0.16460058780453726 -0.24479915348024067
0.18139437011374449 0.015974530251338992 -0.0926276608516754 0.019693202707475543 -0.07704995705093787 -0.10123359973145057 -0.18075739764290483 -0.0841787218579424
0.2540989398242399 -0.16846327546267675 -0.2744858981823045 0.23307605394750064 0.12041872542500598 0.08548003299080753 0.33116599118204204 0.3740635081883277
-0.11608346985494594 -0.29171106954476445 0.2710497651190571 0.31335526326797036 -0.2720494390282732 -0.3647088372123537 -0.26907316723781305 -0.3632919434525829
0.1473532272782011 -0.06974806078757184 -0.2597001193071098 -0.16164174501310932 0.23893269221444347 -0.060865929044865374 -0.15146216838376056 -0.1589075862558733
0.03682776058384757 -0.008738546989133844 -0.10008281675548397 -0.1674138927553557 -0.2587728576967776 -0.009305791465261282 0.23996466745682077 0.027785981325625875

bias f8 [1, 10]
00000000: 0000 0000 0000 0000 0000 0000 0000 0000
00000010: 0000 0000 0000 0000 0000 0000 0000 0000
00000020: 0000 0000 0000 0000 0000 0000 0000 0000
00000030: 0000 0000 0000 0000 0000 0000 0000 0000
00000040: 0000 0000 0000 0000 0000 0000 0000 0000
0.0 0.0 0.0 0.0 0.0 0.0 0.0 0.0
0.0 0.0
