A-Basic Course 基础教程/A2-Neural Network Basic 神经网络基本原理/SourceCode/ch16-DnnRegularization/augmentation/w_30_30_Xavier_init.npz (npz, 7908 bytes, 2 tensors)

weights f8 [30, 30]
00000000: 5012 8eab e552 c4bf be4d c0b3 1936 c83f
00000010: 7473 cf2d 927f b03f 90d0 5523 a181 963f
00000020: 7f4b 30d4 7325 d23f 5a97 d35d 96bf cf3f
00000030: f8ae fee1 0474 aabf 3cf8 d945 2120 cebf
00000040: 5a25 465a 3777 c43f 82a6 1431 c576 c03f
00000050: 5c31 ba2e 5b33 b2bf 84ac 958d c25c b3bf
00000060: a087 21f9 d94e 983f a0f7 55b5 437e bd3f
00000070: f711 1a80 01b8 d3bf ce68 fe11 597d d0bf
00000080: 5061 d83f c0d0 afbf dac3 2335 6457 bebf
00000090: 2899 58ce ca0c c7bf 4094 700c 76c4 a73f
000000a0: 44a6 c3bd 79bf b0bf 0008 a9ae b775 2cbf
000000b0: dd34 f0a6 a96a d03f 1059 9934 978d c33f
000000c0: f01d 7c97 1628 a1bf 8074 a4fe c37a c2bf
000000d0: 3cc9 b38e 4d3f c3bf 12d0 040e f162 cc3f
000000e0: 4e03 6cec cf66 c8bf ac61 8d8f af6c b33f
000000f0: b4b5 6f97 c4ed c2bf b0a6 8df1 d761 bc3f
00000100: d03e 0ad8 4fcd 9b3f 42eb 34dd ea53 ccbf
00000110: 16be 32c3 3f69 c93f cce4 9caa 9fbc b0bf
00000120: 21e8 87de 9158 c4bf f827 d17b f90c ab3f
00000130: f848 caa8 0ba6 a4bf 48c5 e7a6 5ffe c8bf
00000140: dbdd 6ca7 9575 d03f 0c38 f413 14e0 b8bf
00000150: e090 89df 9db6 a73f a0c5 9cf9 ca7d a4bf
00000160: 3898 b7a8 1c8e a53f 5cc2 2a2e ca45 b53f
00000170: 88d6 b96a 6999 bfbf 96cc 906e 7338 cebf
00000180: 5819 8ba7 6e03 b13f 8e19 e29b 51a4 d0bf
00000190: 3072 507a 7585 923f 71fd 25b3 2955 d33f
000001a0: 0c2b e678 3f3e d0bf d0b2 8770 b7a1 abbf
000001b0: 7ab3 7a73 be43 d0bf be87 394c 64bb c73f
000001c0: 78dc 0927 d1c8 ba3f 0266 3c4c 7ab4 c13f
000001d0: e843 81df 9d8d b0bf 0ede 5af4 aab6 b7bf
000001e0: 6ad3 049f fd3b c93f 90fc 98a4 0700 d0bf
000001f0: 94d6 39ad 4239 d0bf 0e1b 05db aa41 cb3f
00000200: d3a1 a656 f577 d1bf ac1f 8ac1 ef33 b8bf
00000210: 8297 2835 803f cbbf b1b9 991d 6e8e d03f
00000220: 44f2 73c9 02c4 bbbf f2fc b879 eb21 ca3f
00000230: c4f7 fb79 671e c6bf d1ed 90ae db13 d33f
00000240: 4261 4d4d 85ea cb3f 801a 8935 fa97 993f
00000250: 3a15 e061 5fb4 c8bf d1fc 84e8 4b78 c3bf
00000260: 7a97 e15d f01d cf3f 0116 0c2c 9969 d3bf
00000270: f297 1ba7 9185 c93f 0085 6952 1b7e 86bf
00000280: de1f 45ec 45fd c63f 218a fb11 e919 c1bf
00000290: 02cc 3814 9897 cb3f e213 2d3a 5a2f cb3f
000002a0: 1750 78d5 c727 c7bf d58e 470f d58c d13f
000002b0: 8cf8 6d49 03b4 d3bf b055 7b01 68a1 b9bf
000002c0: aac0 9ea8 5fc8 c43f dab7 551f a75e d3bf
000002d0: 22ae 9907 65ba cc3f baaa 72bb b16a cf3f
000002e0: 4e51 da3d 39bc b5bf 095c 53be 5517 d2bf
000002f0: 2083 e9e5 e85c 94bf a6fa 0e1b 68d6 cebf
00000300: 151a a500 61ca d13f fbc8 795e a7f1 d23f
00000310: 64b4 0b5b 058f d1bf 9b7f d076 e123 d43f
00000320: d420 742f c334 c33f fa31 b4e2 e988 d1bf
00000330: f865 5a18 4873 cdbf 9d09 1ca3 af99 c6bf
00000340: 67c5 fb4c 68f9 c9bf 2adf ba58 3bb6 d2bf
00000350: 67ba 7797 cb48 d13f a08b 7eb0 55c8 9ebf
00000360: 3282 45e2 c973 b9bf 496d 12fa 0e63 d23f
00000370: f897 585c 20f2 acbf 4907 750f cc94 d13f
00000380: c23a b9b1 d1d0 c93f 302e 630e 649d c3bf
00000390: 98df 397e f2e9 cabf ca35 652b f4b7 ce3f
000003a0: bd63 e4df b89c c0bf c2e6 df9d bfa9 c3bf
000003b0: e418 5c76 4957 c0bf f61b 5e74 72c9 c23f
000003c0: 20d4 2a02 da4b 87bf d8bd dc28 9aa5 d2bf
000003d0: a01b a469 4217 893f c8b7 993c 83e7 ba3f
000003e0: a0c5 3047 5b2b 94bf d89c 46e7 3b5d ad3f
000003f0: cbd5 3f13 8e15 c1bf 163d ba23 1746 cabf
00000400: 0828 e294 f456 a73f 4481 6793 908c bd3f
00000410: f8d6 5883 ce2d a13f 6aa8 6922 c582 cd3f
00000420: 58b1 bc1b 0b37 bb3f 4af4 a59a ebb3 ce3f
00000430: 0d94 98f3 11e3 d23f c4c0 5c58 e844 d2bf
00000440: 5967 4635 378e c0bf f860 7b2c 2035 cfbf
00000450: e02a 8f4c cf69 803f 0072 6781 071b 66bf
00000460: 7526 1d7a acb0 d1bf e03f 1ca4 b8bd bf3f
00000470: 637a dee9 62f1 c1bf cd13 4762 a6f6 c5bf
00000480: 20a7 fb7d 1986 813f 4e68 b7ce 69ee cebf
00000490: 4215 525c a123 cb3f 6098 0590 0e3a ad3f
000004a0: 28fc 7f24 a7ad cbbf 603b 0fce 4c7d a23f
000004b0: 51b7 7fc9 5974 c7bf 8616 3f08 12e5 c6bf
000004c0: 60c5 d5fb 0da8 acbf f83e 8615 6f06 b53f
000004d0: 0077 b2af 0ee6 7f3f bb31 4841 eaef d13f
000004e0: ca99 a132 d753 cebf e483 6a66 0700 bf3f
000004f0: 1862 eff5 9726 c6bf c06c 5eee ab7a c23f
00000500: 37b1 89d5 155f d13f 7acb 110d e15b cebf
00000510: 00d3 f1fa fbe4 923f ee2c 004b 2fdf cbbf
00000520: e6b7 b35f 0492 d0bf f830 387b db5a a4bf
00000530: 36c4 4dd7 1e18 cabf 18c6 38fb 2a00 b5bf
00000540: 1888 7a51 a21a b33f 64dc dc9c 4bc7 ba3f
00000550: 501b bf7b 230c ab3f 9c35 89c6 9dbe b23f
00000560: 1fc8 4c70 53fb c2bf 3a28 28d7 857e c83f
00000570: 38a6 0659 5f7d c9bf 10d2 d507 71a4 90bf
00000580: 18b3 d1cb 8b05 aabf e840 6b98 10a9 b53f
00000590: 00ad dd98 b4db 75bf 1906 d4c9 db14 c5bf
000005a0: 0850 9e4d cfd4 b93f 9547 9b12 5c41 d3bf
000005b0: 006a 1b56 2ded 67bf 82ba 0081 ead7 ce3f
000005c0: ae71 2308 ec61 cb3f 672a 605a fea7 d2bf
000005d0: efb1 ccff 4d1c d13f fc19 d2ec 6c49 b5bf
000005e0: f049 d9ae 67bb bf3f f816 15fe 1da3 ba3f
000005f0: ec21 b609 a4ae c23f 676e 9b30 b760 c5bf
00000600: 401b cc9f aaaf 963f 2203 52bf 62aa cf3f
00000610: f8ae 0fb4 b699 c03f b0d0 0c21 4f95 a73f
00000620: 8691 375b 7f6c d3bf 5064 40d1 6886 98bf
00000630: e553 47e9 c0d8 d2bf 2a5a d672 1d0a c93f
00000640: 0693 cd73 6ee2 c5bf 96fa 6b34 1f13 c83f
00000650: 6a92 bbd8 d900 ce3f baea 38ee aad7 cdbf
00000660: 60f4 f33c 52aa 92bf 1ebe ccef 6459 c23f
00000670: 6044 b38a 1f05 c6bf c776 0ea1 b541 d03f
00000680: 8084 ab35 f9d5 bfbf 609c 8059 ebe6 bcbf
00000690: 243f 3173 a149 be3f d44c 55e2 e306 c6bf
000006a0: 6abf 8435 bc99 c13f 9034 8c89 0879 b4bf
000006b0: fee1 ef2d fa9d ca3f 008e 53e0 be53 7d3f
000006c0: b0e7 17e2 7b61 b03f 2a8f ae7d 1236 ca3f
000006d0: 782e 706e 039c ad3f 3962 c01d 704a d33f
000006e0: d0b7 4298 7d52 a3bf f064 eb6d e6a6 aebf
000006f0: 4811 11bb 30a1 b6bf 4815 61da 12f3 c6bf
00000700: 3da8 0d0b b01c d3bf eee4 762f 6721 c93f
00000710: 8834 c2e3 aaad a63f d48d d155 ecb4 b43f
00000720: 3ad6 877a 166c ce3f 8ae5 c3d7 74a0 bdbf
00000730: f80d 25a3 bd16 a6bf 9e75 2e3b 6e81 cf3f
00000740: 890d 2e76 c99e d13f 2701 cfdf 463c d03f
00000750: 158f 749e 7c94 c0bf bb5f d728 7269 c1bf
00000760: 88fb 59c2 6083 c3bf f093 f191 3169 c33f
00000770: bad7 59bf d32a d1bf a853 b3aa 0c0b c8bf
00000780: afd2 ff3f 92a3 d33f 6011 e857 823c cbbf
00000790: 10d7 41c3 a8ac bf3f 777b f535 2f65 cdbf
000007a0: 68c8 fb0a 369f adbf 0088 b32d 19ab 5c3f
000007b0: 1ab0 f1d9 877d d0bf a04f 655e 21b7 873f
000007c0: a8df 13bb 168a a93f d88f 14f1 a355 a43f
000007d0: d02e 52ee 235c c33f a801 0d81 9d4b ad3f
000007e0: 2086 760c 9ee4 af3f 60ae 3ed4 deb1 bd3f
000007f0: 2cb0 0896 d1c8 b23f f812 2cae e688 bbbf
-0.15877982022006387 0.18915101315415755 0.06444657915512925 0.02197887209099797 0.28353591653392834 0.24803428250668952 -0.051666405284178596 -0.2353555289336685
0.1598881903449108 0.12862458130375748 -0.07109613314441304 -0.07563415486008479 0.023738294440029173 0.11520789315360824 -0.3081058264727114 -0.2576506305428098
-0.062139518540962 -0.11852098748546727 -0.18007788730137375 0.04642075445034566 -0.06542168505588913 -0.00021713130202455355 0.2565101747757817 0.1527585036116723
-0.033508974067497976 -0.14437150891982142 -0.15036935298810217 0.22176945862304415 -0.19063757938422515 0.07587716345495349 -0.14788110155443024 0.11086797377870528
0.027150390206371722 -0.22131095696553343 0.19852444678461784 -0.06537816920617273 -0.1589529358460036 0.052833362926847316 -0.040329326967496415 -0.19526286744761934
0.25717679357646056 -0.09716916548879356 0.04631512979247687 -0.04002222344423534 0.04209985312972758 0.08309615733265602 -0.12343462806333083 -0.2360977449294281
0.06645862188734009 -0.26002922270745266 0.01808723029181375 0.30207293028794086 -0.2537993126540392 -0.05396817444475277 -0.2541347625472593 0.18540624353323482
0.10462672427262187 0.1383202430959472 -0.06466089922584184 -0.09263103929230729 0.19714327110855417 -0.25000182222351786 -0.25349490086169024 0.21294151014645774
-0.27294667684557544 -0.09454248881422583 -0.21287539096482183 0.2586932457988054 -0.10845963876995152 0.20416015094267653 -0.17280286270391632 0.29808704421494975
0.21809450411343262 0.024993810193587596 -0.19300453452175664 -0.15210865834703793 0.24310116371196583 -0.30332021047101426 0.1993887010532372 -0.010982716991920771
0.1796042827284045 -0.13360322359138002 0.21556378352542543 0.21238258209828503 -0.1809015076001976 0.2742207192625135 -0.307862111767357 -0.10011911426712206
0.16236491902737288 -0.30265214977305066 0.2244383132086663 0.2454435506127391 -0.08490331420973016 -0.28267425142752295 -0.01988567260048335 -0.24091817208496485
0.27797722876531 0.2959993765463335 -0.27435430422958107 0.31468998530362463 0.15004768197127893 -0.2739815439133789 -0.23008061589352713 -0.17656512703258623
-0.20292381056746508 -0.29237254776988897 0.2700680712868348 -0.030061091325147893 -0.0994230439587305 0.28729605122653773 -0.05653477790137623 0.2747068549107224
0.2016851537504945 -0.15324068739424623 -0.21026450312978961 0.23998882407106087 -0.12978278095468268 -0.15361781319352558 -0.127663786690568 0.1467726772500268
-0.011375144187107777 -0.2913575552983878 0.012251395081433192 0.1050951025915473 -0.019696642131923903 0.05735194395247739 -0.1334703058234211 -0.2052639889193208
0.04558529202866174 0.11542609785783947 0.0335526023231249 0.2305532854109658 0.10630864550757246 0.2398657326811267 0.29510926045105706 -0.28545578602917154
-0.1293400774127871 -0.24380876705141197 0.008014316104796249 -0.002698435458326154 -0.27640830922300746 0.12398866659736951 -0.14017902774226618 -0.17158965872491053
0.00855655589790022 -0.2416507968289942 0.21202485092013929 0.05708356388167668 -0.21623696596358966 0.03611221328139069 -0.18323824251950296 -0.17886567499788358
-0.05596965502889861 0.08212942386148459 0.007787759178567333 0.2802682530898683 -0.23693361255864281 0.12109419107811409 -0.17305278309392302 0.14436864031890728
0.271428545506541 -0.23717892778548927 0.018451630774921846 -0.21774855768339968 -0.25891217561627256 -0.03975568656105283 -0.20386109841231964 -0.0820338118872076
0.0746251534388026 0.10460350589424788 0.052826985221648415 0.07322107407636341 -0.14829485877413703 0.19136116986948243 -0.1991385636040819 -0.016252294638848197
-0.0508235632231388 0.08461097451368327 -0.005336480577038616 -0.16469905238049945 0.10090346951466256 -0.30086423699423764 -0.0029207120395373654 0.24096423434226116
0.21392584226022165 -0.29150351358172205 0.2673525808375236 -0.08315163404231635 0.12395332354325439 0.10405147031005046 0.14595461343948501 -0.1670140254344574
0.022154489520313847 0.24738725988211124 0.12969096939138303 0.04606101301615817 -0.30349716098705704 -0.02395023133440005 -0.2944795873748361 0.1956211863259381
-0.17097263960308612 0.1880835538831504 0.23440096933986193 -0.23314415580701625 -0.018227848978302652 0.14335309704755245 -0.17203134796594366 0.2540105889146215
-0.12435872612288001 -0.11289854941479538 0.11831101476968492 -0.17208527137208895 0.13750412572107545 -0.07997182233903488 0.20794608347911486 0.007159944162796972
0.06398748655183684 0.20477515351114423 0.05783091281054181 0.3014183321516018 -0.03773872836732972 -0.05986709682265168 -0.08839706961686489 -0.17929301894234073
-0.29862595633915473 0.19633188073729663 0.04429372816330451 0.08088566870860997 0.2376735780996329 -0.11572962062554928 -0.0431422483111667 0.24613740815850077
0.2753165868855026 0.25367900711354924 -0.12953145730090712 -0.1360304545803482 -0.1524468373281389 0.15164775491862725 -0.26823896109214795 -0.18783720335946197
0.3068585991852996 -0.2127840928298026 0.12372832076092899 -0.2296504033538118 -0.05785530933452848 0.0017497774013510714 -0.25766178401568285 0.01157976216624218
0.049881658875107704 0.03971588437914847 0.1512494004895104 0.05721752357794979 0.06229108717094456 0.11599533731230727 0.07337675011575645 -0.10755769493341549

bias f8 [1, 30]
00000000: 0000 0000 0000 0000 0000 0000 0000 0000
00000010: 0000 0000 0000 0000 0000 0000 0000 0000
00000020: 0000 0000 0000 0000 0000 0000 0000 0000
00000030: 0000 0000 0000 0000 0000 0000 0000 0000
00000040: 0000 0000 0000 0000 0000 0000 0000 0000
00000050: 0000 0000 0000 0000 0000 0000 0000 0000
00000060: 0000 0000 0000 0000 0000 0000 0000 0000
00000070: 0000 0000 0000 0000 0000 0000 0000 0000
00000080: 0000 0000 0000 0000 0000 0000 0000 0000
00000090: 0000 0000 0000 0000 0000 0000 0000 0000
000000a0: 0000 0000 0000 0000 0000 0000 0000 0000
000000b0: 0000 0000 0000 0000 0000 0000 0000 0000
000000c0: 0000 0000 0000 0000 0000 0000 0000 0000
000000d0: 0000 0000 0000 0000 0000 0000 0000 0000
000000e0: 0000 0000 0000 0000 0000 0000 0000 0000
0.0 0.0 0.0 0.0 0.0 0.0 0.0 0.0
0.0 0.0 0.0 0.0 0.0 0.0 0.0 0.0
0.0 0.0 0.0 0.0 0.0 0.0 0.0 0.0
0.0 0.0 0.0 0.0 0.0 0.0
