A-基础教程/A2-神经网络基本原理简明教程/SourceCode/ch14-DnnBasic/HouseSingle/w_13_32_MSRA_init.npz (npz, 4052 bytes, 2 tensors)

weights f8 [13, 32]
0	0x3f9a87cd06f7e029	0.02590866427451047
1	0xbfa5bcb0480ece20	-0.04245520476925102
2	0xbfd2321f8ffbc699	-0.28430928288353524
3	0xbfd4ff6b28b345aa	-0.32808951353680504
4	0xbfdb60e740efdddf	-0.42778951016904715
5	0x3fcfe02243e6205a	0.2490275222337484
6	0xbfe046a75c2bca7c	-0.5086247253623948
7	0x3fdf998fe9e55e26	0.4937476905956565
8	0xbfce6f0ed0252295	-0.2377642170270248
9	0x3fd54f2cf99b1a75	0.33295750022481424
10	0x3fd10cbe3f65f97c	0.26640278044933274
11	0xbfc18fb5990b3f0c	-0.1371981618199175
12	0xbfe0cf89fed21036	-0.5253343560184536
13	0x3fb37a2a144baca7	0.07608283038614393
14	0xbfcb04eb8cab1095	-0.21108764999928967
15	0xbf8b71e7d8fe73b7	-0.013400851544980925
16	0x3fa3d73edbee166c	0.038751568171431966
17	0x3fd8323ce4d12aa8	0.37806627602973686
18	0xbfb68cf4a7a5c3ce	-0.08808831303555495
19	0xbfcadb7cdd89b969	-0.20982323472294276
20	0xbfc8124a4c3281e2	-0.18805817337580694
21	0xbfce2c99e80f21e3	-0.23573612051974555
22	0x3fb4cc4e9614a906	0.08124247707442941
23	0x3fd295b9d8c04262	0.2903885475834952
24	0x3fb8acc733f75467	0.09638638514236818
25	0xbfbcdae679b2b938	-0.11271515341897931
26	0xbfcbd80e48a739c8	-0.2175309996368482
27	0x3fbfd4debe8564cd	0.12434188987153334
28	0x3f5a7255cba8bc43	0.0016141736838439925
29	0xbfd7ff40ab732972	-0.3749543833079293
30	0x3fc04c6123606927	0.12733091571210162
31	0x3fbcf0c5ae20266e	0.11304889203179311
32	0xbfc3448ca4b4c502	-0.15052946131030615
33	0x3fd3aa3fc3d621f3	0.30726617931989536
34	0x3fdad6d00e625dc6	0.4193611278983237
35	0x3fb0f64913ab8bae	0.06625801782824567
36	0x3fc421485686eb4a	0.15726570343925977
37	0xbfd9c1bbc300b68a	-0.4024495510410381
38	0x3fc758a11bd979d6	0.18239225253905883
39	0xbfdc865d3c27cc05	-0.4457009398894914
40	0xbfc0892cf6c34284	-0.12918626831971747
41	0xbfc13b0297857648	-0.13461334608557451
42	0xbf83f0a320a1d2ed	-0.009736322816232124
43	0xbfa1333b35982bc9	-0.033593988697326056
44	0x3fc00e3e2a710008	0.12543465683302224
45	0xbfab8fdd95168827	-0.05383198208734568
46	0x3fb19260f7a8d3de	0.06863981291174023
47	0x3fc1e1e36162c0d1	0.1397060609356289
48	0xbfbf4b95871aa284	-0.12224707172812016
49	0xbfcc5e63c0a83ffc	-0.22163054377642755
50	0x3faa4f562f140731	0.05138654064832194
51	0xbfd4c3e9f102f721	-0.324457631457209
52	0xbfd0335aaee1fb78	-0.25313441351311594
53	0xbfbca2c2c5566fcb	-0.11185853307546194
54	0xbfcf0cd244938f0b	-0.24257877682168102
55	0x3fc46bf50070e105	0.15954458734064061
56	0x3fe349dcd65920ee	0.6027664362418628
57	0xbfaa2cd51900f5d5	-0.05112329416486331
58	0x3f88071efc759ec6	0.01173233230538474
59	0xbfbc3f0c43181810	-0.11033703458824129
60	0x3fd2be8b3f07dc12	0.29287987857191056
61	0x3f84acd372577cf9	0.010095264365132627
62	0xbfdc6b53bf540973	-0.4440507286491517
63	0x3fa5aabd3c6477f7	0.04231826173985092
64	0xbfc01da5209f1173	-0.12590469448890537
65	0xbfcf018a596a9824	-0.24223451009783148
66	0x3fce54621295a195	0.23695016772695668
67	0x3fb9d3dc63e8f2a6	0.10088899077613664
68	0xbfa27a251e3fb6af	-0.036088142340174094
69	0xbfd575f99666794e	-0.33532561957863016
70	0xbfb792333acb8ec0	-0.09207458672932045
71	0xbf7a1b23d765e3c9	-0.006373538976156953
72	0x3fc0148d6704966e	0.12562720804378408
73	0xbfb1bb24385b8877	-0.0692618024436643
74	0xbfa59aeab35dc775	-0.04219754638223964
75	0xbfc877f6e097ab71	-0.1911610218661184
76	0x3fbc8b1320de8d62	0.11149711182092895
77	0xbfc9b01b854dc855	-0.2006868744752547
78	0xbfd2fa54235afd2a	-0.2965288491504504
79	0xbfc01d40f86d8835	-0.12589275484339316
80	0x3fdffd4826147105	0.49983409613356883
81	0xbfc6814b17919985	-0.1758207192498952
82	0xbfab60358f0fcbec	-0.05346839305266102
83	0xbfd063cfdfc442a8	-0.25609204151354925
84	0x3fd6dd093eb72373	0.3572409737067154
85	0xbfb390aad7ecd562	-0.07642619868859904
86	0xbfcbb058b49b145f	-0.2163191682686003
87	0x3fd11e7f46c8f061	0.2674863997706379
88	0xbfc370f0179e176f	-0.15188408997726863
89	0xbfc57f2963bd4c06	-0.1679431664475432
90	0x3fcc5bc971935c4c	0.22155111356434742
91	0x3fba2ee32a73ab0d	0.10227794443532563
92	0x3fb8c37e8a35bd6e	0.09673300623193423
93	0xbfd8058f8544aef2	-0.37533939375383263
94	0x3fd4e7cabd4b31fb	0.3266474579402538
95	0xbfb7bcbe29424339	-0.09272373683257919
96	0xbfd59270c4054c1b	-0.3370630182518554
97	0xbfb12187a99244a7	-0.06691787614751608
98	0x3fc9355b2efd7195	0.1969408015674047
99	0xbfa2281fe0d90ca3	-0.03546237582897873
100	0xbfc809ab45e60d88	-0.18779507554073072
101	0xbfd48200977e0114	-0.3204347114006094
102	0xbfd494c89485a072	-0.3215810251626926
103	0xbfe2b6fc7061b355	-0.5848371691659887
104	0xbf99b9637fbb56b6	-0.025121264144067644
105	0x3fb9cdc5061a35f2	0.10079604529365563
106	0x3fb9cba0512b6037	0.1007633398215838
107	0xbfd76854be5ec376	-0.3657428607066814
108	0x3fc53a04f64349c6	0.16583311104348136
109	0x3fe7619ceefd674c	0.7306656520624784
110	0x3f9ef8b8ccb98b9d	0.030245673652085626
111	0x3fc9dc31f98561a2	0.20203232463496784
112	0xbfdaa971ff275041	-0.41659212033596665
113	0xbfba407a5aa0fa40	-0.10254635536782875
114	0x3fa35fbfee4a13f5	0.03783988746457815
115	0xbfda1c0b636784cb	-0.4079616995569039
116	0x3fb8dc72c0418b16	0.09711377328634926
117	0xbfd0ad388b0b7eef	-0.26057256296733916
118	0x3fc69162cfc3450e	0.17631182808558105
119	0xbfb8af1cfdf981a9	-0.09642201614906888
120	0xbfe4b54dd18620a5	-0.647131833292424
121	0x3fe5e17949f8d9c0	0.6837736553923648
122	0x3f963385239e8022	0.021680908488292634
123	0x3fc37cb3eceefa7c	0.15224312848109267
124	0x3fc3fb171af18a43	0.156100166469587
125	0xbfb5675aff13b547	-0.08360832908120584
126	0x3fcf59ff1ce870f7	0.2449339762832847
127	0xbfb8561c73f6cad8	-0.09506395178940907
128	0x3fd836fa3fb7d92e	0.378355562424434
129	0xbfd37d8e738dd7ad	-0.30453835758759845
130	0x3fbf29064c0452e2	0.12171973567849251
131	0xbfce39146df4251f	-0.2361169373400935
132	0x3fd4675a8deb4f03	0.3188082109384
133	0xbfdeff278fc08597	-0.4843233970478535
134	0x3fb4b00dcd777577	0.08081136957431122
135	0x3fd50345b76e3199	0.32832472718362166
136	0xbfd1e10f57587e54	-0.2793615677819379
137	0xbfd117801bb83b58	-0.26705935198781594
138	0x3fc33694db460d7a	0.15010319430085045
139	0xbfd56eab25ba18b2	-0.3348796719004766
140	0x3fd726a0e533adc0	0.3617326963710319
141	0x3f86a75e68213c1e	0.011061418106832529
142	0x3fbc3b9c1ea6d180	0.11028457401591218
143	0xbfb254c7146a2bbf	-0.07160610435873503
144	0xbf9164e2bb25ef67	-0.01698641078245036
145	0xbfdbbe1a4d82456e	-0.4334779507563188
146	0xbfcc3820cab63626	-0.22046289346728648
147	0x3fb773eda5f2c4f0	0.09161267568085285
148	0xbfde72d02491750a	-0.47575763293373596
149	0x3fb69e0e43ee4db5	0.08834923895329079
150	0x3fe4fefd8870aff1	0.6561267533156735
151	0x3fcc27488df35b0c	0.21994883471662552
152	0x3fb6646aeeff937b	0.08746975264473449
153	0x3fc91f61073558e5	0.1962701115796285
154	0x3fcb2929c25affb8	0.21219369878781236
155	0x3fd92983b1a84efb	0.39315883969651083
156	0x3fa1b99b52fc1a49	0.03461919200895076
157	0xbfd9ff0df2858520	-0.4061922901510844
158	0xbfe1a44c619091b2	-0.5513059526024817
159	0x3fceb932290c3c40	0.2400267315319713
160	0x3fd46751d61215c0	0.3188061323674809
161	0xbfd20932ab4d4039	-0.28181139687240236
162	0x3fd81db7a1fef184	0.37681380100163886
163	0xbfac3113cd582908	-0.055061930481388244
164	0x3fd15f3b9b88ff03	0.2714375513933051
165	0x3fc10edc275b09d7	0.13326599046383933
166	0x3fb61e3700392d88	0.0863985419793406
167	0xbfa8e1720e4cdb71	-0.04859501289904856
168	0x3fe0da7c83f4e182	0.5266707017208747
169	0x3fa4cd3fae5a5605	0.040628423722562736
170	0xbfc8f5aef25c14f4	-0.19499766191453427
171	0x3fd5c15653a23c52	0.3399253670440362
172	0xbfa5f889ae529968	-0.0429118180557449
173	0x3fdb807182adccc7	0.42971456300365357
174	0xbfc3a35b878b2597	-0.15342277639710453
175	0x3fb60a0326565fe9	0.08609027563068107
176	0xbfbdc34da25c5e1e	-0.11626134122740736
177	0x3fe269e3a8bdd703	0.5754259391530642
178	0xbfcf02ef005ba77e	-0.24227702634317078
179	0xbfe1414c5a630cf0	-0.5392209782952744
180	0xbfd39acd0bbf6e72	-0.3063233008121876
181	0x3fa941142e92d6af	0.049324637112858276
182	0xbfba4ecf8149283d	-0.1027650538100326
183	0x3fc9f4d9c1d79858	0.20278474774312616
184	0x3fb5fc59b9bc7342	0.08588181290219857
185	0x3fe194e8eabd3a06	0.5494274697064732
186	0x3fb61a3d0bf4cdf7	0.08633786718274182
187	0x3fc1415b550b8bb0	0.13480703022568497
188	0xbfb698d749fdf79e	-0.08826966816374557
189	0xbfc58f50f8c65f07	-0.16843616625987343
190	0xbfa64f74bd07353a	-0.04357495124313933
191	0x3fc7d369e8653d9d	0.1861393341773522
192	0x3fa418cdec8cb61b	0.03925174248284354
193	0xbfc78ead658d936a	-0.18404166659015725
194	0x3fd399d99a82f8ac	0.3062652596380626
195	0x3fb46b6610d63b94	0.07976377402358842
196	0xbfc69865f56aad09	-0.17652582629430238
197	0xbfbf252431a62edb	-0.12166048252236854
198	0xbfd1f6c71eef6c24	-0.28068712254543216
199	0x3fbdb733fc48d192	0.11607670697487141
200	0xbfe031741286ca36	-0.5060367929311897
201	0x3fd1868dd14f434b	0.27383752289192803
202	0x3f9116cd997e4a95	0.016688549512375934
203	0xbfb51436a0a1ed3f	-0.08233968183224237
204	0x3fa952745084aaed	0.049457201794515494
205	0xbf4cbf68672a9374	-0.0008773097782365084
206	0x3fa29ac4f7ca1a52	0.0363370468594907
207	0x3fb65f40cc8bb821	0.08739094728272835
208	0xbfd5ec06ed383461	-0.34253094831439596
209	0x3fc7d5c72e4b7504	0.18621148834692047
210	0xbfe023c989380d6d	-0.5043685607965195
211	0x3fa27e4d2e544d50	0.03611985388320227
212	0x3fd23f2345104537	0.28510362381446747
213	0xbfaef3ce9cc229b6	-0.0604538503985909
214	0xbfd0fac660756eb6	-0.2653060857753461
215	0x3fd318af218cd59d	0.2983815982473404
216	0xbfadb68ba4d4079f	-0.058033336516032145
217	0xbfd6eccb5cea5d2e	-0.3582027823808457
218	0x3fc1d161a970fc11	0.13920231603148683
219	0x3fa1898ac6709903	0.03425248787270798
220	0x3fd2be3fe9da06cf	0.2928619178493194
221	0x3fa0554ac718e707	0.031900727084986306
222	0x3fc75498c04d72c1	0.18226918592235644
223	0x3f9ecb63ce56abe8	0.030072745770365034
224	0xbfc211bb7c59dc08	-0.1411661488707241
225	0x3fc6d2f957863fc8	0.1783134152760779
226	0xbfd81d3fae1dbdca	-0.37678520206005983
227	0xbfa2c80513f7590b	-0.03668228024223382
228	0x3fd3ef01be17fed0	0.3114628178009129
229	0x3fc6ba0646b0e29c	0.1775520177050297
230	0x3fb3cadb57f75d2b	0.077314099289073
231	0xbfe204660500ea86	-0.563036927960028
232	0x3fb54e3d4a439cbf	0.08322508872116695
233	0x3faf413d5ac8fec6	0.0610446141549779
234	0xbfc76dfc415b82df	-0.1830439871910334
235	0xbfb1f1a8864c5246	-0.0700936630131049
236	0x3fc1c93e58151d7d	0.13895396519567874
237	0x3fca0b377e07e1cd	0.20346730855795983
238	0x3fdba1137edb2840	0.4317063082531867
239	0x3faa9327dbd93650	0.051903958880399004
240	0x3fb5dca8b6eafe09	0.08539823976297369
241	0x3fb4b54548f7e335	0.08089097053006074
242	0xbf6b18682b02a449	-0.003307536557333655
243	0x3fcca47c29376111	0.2237696839572512
244	0x3f8f5e5af67c8937	0.015316687247438494
245	0x3fc10dda18e854ea	0.13323522773922686
246	0xbfe5f5034698c817	-0.6861587885707675
247	0xbf982048336120c6	-0.02356064618678102
248	0xbf88e59ac1318495	-0.0121566858489948
249	0xbfa0a54fcc1f708c	-0.03251122824414762
250	0x3f809b5ecb7d104d	0.008108845314957725
251	0xbfc73382c48ffe21	-0.1812594852235501
252	0x3fd5dbe14e042756	0.3415454160573196
253	0x3f8e741793785e89	0.014869865596707459
254	0x3fb5e662cb038392	0.08554666000737957
255	0xbfb9dcd67f9332c0	-0.1010259686910997

bias f8 [1, 32]
0	0x0000000000000000	0.0
1	0x0000000000000000	0.0
2	0x0000000000000000	0.0
3	0x0000000000000000	0.0
4	0x0000000000000000	0.0
5	0x0000000000000000	0.0
6	0x0000000000000000	0.0
7	0x0000000000000000	0.0
8	0x0000000000000000	0.0
9	0x0000000000000000	0.0
10	0x0000000000000000	0.0
11	0x0000000000000000	0.0
12	0x0000000000000000	0.0
13	0x0000000000000000	0.0
14	0x0000000000000000	0.0
15	0x0000000000000000	0.0
16	0x0000000000000000	0.0
17	0x0000000000000000	0.0
18	0x0000000000000000	0.0
19	0x0000000000000000	0.0
20	0x0000000000000000	0.0
21	0x0000000000000000	0.0
22	0x0000000000000000	0.0
23	0x0000000000000000	0.0
24	0x0000000000000000	0.0
25	0x0000000000000000	0.0
26	0x0000000000000000	0.0
27	0x0000000000000000	0.0
28	0x0000000000000000	0.0
29	0x0000000000000000	0.0
30	0x0000000000000000	0.0
31	0x0000000000000000	0.0
