A-基础教程/A2-神经网络基本原理简明教程/SourceCode/ch14-DnnBasic/HouseSingle/w_32_16_Xavier_init.npz (npz, 4692 bytes, 2 tensors)

weights f8 [32, 16]
0.132887997379332 0.20026319964863065 0.22760379286505555 -0.004230105263447692 -0.03407834228043222 0.3169131786244955 0.31215821508770875 0.14576359108605746
0.0744622377410517 -0.29620429053404235 0.0898494147979223 -0.033013349872076825 0.18987809465426203 0.08824340051702789 -0.014289796582585779 0.2903036198579773
-0.09664763726187559 0.154366105275147 0.23655786706620968 -0.13110590029649397 0.29735922415983956 -0.20910219361882332 0.23181705103064537 -0.21650752308336263
0.28444294330257963 0.23125794995692478 0.036320997713935155 -0.12585597628071699 0.09663779947862067 0.07380831202113297 0.0642478091579251 0.23804914696972973
0.06385509026073222 -0.15936902650163115 -0.002873277672997332 -0.3341939997135353 -0.16466624570130156 -0.31391469373303904 0.10320055826225288 0.28615311474329447
0.2700566059850071 -0.28806803954629556 0.237416334710205 -0.21280149333784137 0.23289941245536666 -0.004490905644529086 0.13223711064215599 -0.3524004934270993
-0.26786232566387524 -0.2934041539588458 -0.2022458018837271 0.04507329168307911 -0.13445534850417848 -0.3525987528162229 0.08607258250316302 0.21850148858611135
0.17200087235190148 0.3171446800935895 -0.06454411805602339 -0.09988077704414988 0.2279674092736395 -0.07418543473110384 0.10610535127732251 -0.23743909286956294
-0.029347429950249027 0.2610249968243002 0.15504112103616202 0.09827213466538781 0.14551316523945068 0.3044249556569714 -0.11973113531501581 0.10633466847353112
0.21020576721506773 0.014561631178481416 -0.17219543653254632 0.15465919971739134 0.17412844025483593 0.25531128643200135 0.04077693265846999 -0.15501871207938342
-0.13275832403142723 -0.2503941990219982 -0.31901510773663994 0.17918742858672093 -0.1958168893980397 0.2861917879965939 -0.32323298431224984 -0.07556606625121726
0.27904343640162516 0.3109748226298707 -0.25673833949997593 0.2865914589378529 0.14284810698421557 0.27455417311493485 -0.09229344971830994 -0.20075343266578416
-0.11221712213222759 -0.0013478940534966122 -0.2849434486050516 -0.22574044641446284 -0.31045658668377085 0.2721599738533473 0.016942285933039092 -0.09016898187226491
0.3088395149453896 -0.17528131105681882 0.2764291309198073 0.04828203479600529 -0.34789141122193495 -0.11520743385707213 -0.1937833468267526 -0.19348215108646924
-0.1742292898115175 0.08317308811644558 -0.08144814263893985 -0.3149967735911391 0.11920984432953441 0.21395962124378803 0.14098474903100255 0.1684052659753122
0.09205789581594448 0.2522519997470591 -0.2508397439845619 0.0711210730447292 -0.34868491986299505 -0.1266532617813418 -0.2518028792059928 -0.22361337472746
0.04868732003183451 -0.20297538612396362 -0.2714631713663272 -0.21119039891084762 -0.1520137818625672 0.2297688966172567 -0.07194846994381254 0.2194334436733975
0.30003276244645055 0.09198546952398146 -0.05849614547566728 -0.14302272738798275 -0.2707533383390007 0.23412086451088782 -0.174196060399778 0.2011619418107537
-0.2960630063433924 -0.15739629247214826 0.14484231756379462 0.1874740116271189 0.008673545440463504 -0.2572959352253882 0.2567771475399477 0.32406170961517206
-0.3496251589351947 -0.2705981209748634 -0.2651273079722601 0.0661162585061818 0.22423245313696455 -0.15452169598024346 0.21008892638615256 -0.3036109874417076
-0.03000609020456735 -0.08499159137716816 0.26491568688845907 -0.05717968456356043 0.28748930583871496 0.2218857785311384 0.16247617554412302 0.28472906881843346
-0.25455921490156286 0.13199148366624225 -0.01987805360519851 0.14884234952956205 0.09131384313016777 0.005735794655229609 -0.2909269720230039 0.12579660569570406
0.08264769864572119 0.2404898386018947 0.11176971386592183 0.04552493475978542 -0.3142922016437605 -0.11277651622488938 0.30721103902538754 0.27385896883282496
0.2751357338036277 -0.14239684301438782 -0.17683140053980434 0.06189829872789426 0.29320128810090657 -0.2286389518715793 0.15084877210544373 -0.24104412072522116
-0.2771191806843932 0.22861646153130905 0.24063093615972647 -0.21652792352454353 -0.24771703580915763 0.272575753647002 -0.2937844582294795 -0.3422213795524676
-0.20288268192489128 0.20158661890067592 0.3484141392128047 -0.10246286668233145 0.289023040136748 -0.12286937600362771 0.2719513058494348 -0.2166700264330611
0.28035820166011544 0.00746393112645416 -0.008385532511766935 0.11496362963946272 0.05143836162657678 0.07354832652436061 0.20698867197347642 -0.14068786991018986
-0.3346557731096476 -0.02127791394363643 -0.04661958273354172 -0.2331270937461013 -0.027741780316420717 0.2311390234353244 -0.0930776078503171 -0.004140684649763415
-0.19736438747893154 -0.21273196882381998 0.14727621741251046 -0.2277407691184122 0.25608686091827443 0.21814299291249012 0.01985573978142635 -0.23449583299775592
-0.17025810339966616 -0.3385338751802003 -0.2651819083157615 -0.12201717292533182 -0.3055371675121157 -0.19323233428442058 0.020066544134724584 -0.1062165870945091
0.013549943755946092 0.11421609637929986 -0.16667767097483552 -0.13825358112007394 -0.012515268686750458 -0.18569965306692002 -0.23162536764241398 -0.24602213892557329
-0.32656565831429873 0.31592925170254665 -0.028158976154270043 -0.2044522446731632 -0.14582248159097705 -0.2365529614258025 -0.015587146457408385 -0.218244982736233
00000000: 9838 6351 7902 c13f e2a5 8a7a 39a2 c93f
00000010: 3e86 66ff 1e22 cd3f 0009 3e3c 9653 71bf
00000020: d854 316b b772 a1bf 7545 7736 4e48 d43f
00000030: 31af 3e73 66fa d33f cec0 54a0 61a8 c23f
00000040: dc81 e20b f50f b33f 7dd4 31d7 02f5 d2bf
00000050: 402f 1f0a 5f00 b73f 205f 1034 20e7 a0bf
00000060: 1228 62e7 ec4d c83f 84f7 4e97 1e97 b63f
00000070: c0da e807 f843 8dbf d3d3 4ca2 5594 d23f
00000080: 5c82 4649 e6bd b8bf 5642 e2be 44c2 c33f
00000090: ea97 5437 8747 ce3f 9d04 0b01 14c8 c0bf
000000a0: 658c bbfb ee07 d33f b0ae 8e55 dcc3 cabf
000000b0: ee77 6a5e 2eac cd3f a891 7dbd 84b6 cbbf
000000c0: 0301 c42c 5034 d23f baa3 004a dc99 cd3f
000000d0: 60cb ad72 aa98 a23f d8df 1073 0c1c c0bf
000000e0: cc6d 513c 41bd b83f 3cc1 4dfe 19e5 b23f
000000f0: a445 2c5f 8b72 b03f 1ab0 89fa 6478 ce3f
00000100: 705c 5aa4 ce58 b03f 46f1 684a 3466 c4bf
00000110: 8045 6934 b389 67bf 1580 d23a 6f63 d5bf
00000120: 8266 0596 c813 c5bf f84d d4a7 2d17 d4bf
00000130: 5452 aa0e 5a6b ba3f 9f24 5e27 5550 d23f
00000140: 2b8f b180 9b48 d13f 78f2 37ee b46f d2bf
00000150: 22ea 8e90 a863 ce3f dc86 364f 143d cbbf
00000160: e66f e0df a5cf cd3f 4079 f64d 0e65 72bf
00000170: a646 c348 25ed c03f 1d46 97cc ba8d d6bf
00000180: 5ca3 2306 a824 d1bf f6e1 7037 22c7 d2bf
00000190: 0405 6cc0 30e3 c9bf 985e 67b3 d813 a73f
000001a0: 6382 4c36 d535 c1bf 2c30 fd5b fa90 d6bf
000001b0: d4ef ee4e da08 b63f ae65 cd55 dbf7 cb3f
000001c0: fe43 d1e4 1f04 c63f e38c 4633 194c d43f
000001d0: 0425 339c f685 b0bf 5058 e75e c991 b9bf
000001e0: 222b b13b 092e cd3f 5877 0210 d1fd b2bf
000001f0: 54ac aa65 b829 bb3f c255 5579 6764 cebf
00000200: d08f 6eaf 400d 9ebf bd20 3330 a2b4 d03f
00000210: da57 3130 63d8 c33f 7cf6 7ed4 5c28 b93f
00000220: 1ca2 ebe6 2ca0 c23f 2182 28cf b27b d33f
00000230: 7aae 7d1e b3a6 bebf 805a 86b3 bf38 bb3f
00000240: 6245 cfc7 05e8 ca3f c001 810d 7dd2 8d3f
00000250: dcbf 3604 800a c6bf b6e6 6766 dfcb c33f
00000260: 6658 193a d749 c63f cd9b 6126 0557 d03f
00000270: a80d 66d0 b6e0 a43f 2b12 5335 a7d7 c3bf
00000280: da4d fe89 39fe c0bf 1416 fa63 7506 d0bf
00000290: 8929 aa57 be6a d4bf ce30 d118 9def c63f
000002a0: 2a09 fc1f 8710 c9bf 9110 755c f750 d23f
000002b0: 9703 2766 d9af d4bf 4481 3c37 4c58 b3bf
000002c0: 378a 6000 d9db d13f cfc7 44f1 02e7 d33f
000002d0: 0e08 f2a4 666e d0bf 45dd dcb3 8357 d23f
000002e0: b077 e5c5 d848 c23f ed92 a0aa 4b92 d13f
000002f0: 64d7 2c24 8ba0 b7bf ecfc edd9 49b2 c9bf
00000300: 9af1 9be5 42ba bcbf 0019 3538 7a15 56bf
00000310: 3af6 3d72 833c d2bf 0206 5e1d 10e5 ccbf
00000320: 0a9d a84d 85de d3bf ebbd beaa 116b d13f
00000330: d0ed 0190 5159 913f 5447 417c 5015 b7bf
00000340: f5c9 19d0 06c4 d33f aa65 4b35 9e6f c6bf
00000350: e995 3dcf 03b1 d13f 58c9 dd40 6cb8 a83f
00000360: d97a 7056 da43 d6bf d215 ac00 3c7e bdbf
00000370: 95ae 9088 e4cd c8bf c757 a3eb 05c4 c8bf
00000380: 8375 df36 254d c6bf dc11 5edd d44a b53f
00000390: c845 f414 c9d9 b4bf 6ad8 3a3a e828 d4bf
000003a0: a0b0 c14e 8984 be3f 020c f463 0763 cb3f
000003b0: 9055 29cb c90b c23f 6a48 ebc2 4d8e c53f
000003c0: f838 de33 1b91 b73f f7e8 5092 e524 d03f
000003d0: 5ed8 3c24 c20d d0bf 0496 c89a fd34 b23f
000003e0: 5fe0 da8d da50 d6bf e72b a490 2c36 c0bf
000003f0: bd9d ced2 891d d0bf 8089 b3f1 5c9f ccbf
00000400: c081 885e 8bed a83f 89cf a5f2 18fb c9bf
00000410: 718e c510 a75f d1bf 7e90 4678 4908 cbbf
00000420: 6c0c d206 3075 c3bf baf7 4d34 1169 cd3f
00000430: f8e9 6705 376b b2bf 4eea 1c24 6516 cc3f
00000440: 1de8 9b9d bc33 d33f 700d 5017 5c8c b73f
00000450: 3025 85ef 34f3 adbf 79a9 5b98 914e c2bf
00000460: a6b9 5ccf 0554 d1bf 6658 3128 acf7 cd3f
00000470: c529 4177 0e4c c6bf 1e76 a3ac acbf c93f
00000480: 4b38 7340 b2f2 d2bf c4fa 56cc 8f25 c4bf
00000490: 44b5 816c 318a c23f 46ea 64fe 25ff c73f
000004a0: 40aa 0e90 6fc3 813f 26f4 cb5e 8977 d0bf
000004b0: ddd4 c26a 096f d03f 7bb6 2b53 6dbd d43f
000004c0: d511 df33 4260 d6bf bd8c fcc7 7a51 d1bf
000004d0: b51c 4187 d8f7 d0bf 3c97 04c0 feec b03f
000004e0: 2e6a 7626 a6b3 cc3f 0cf9 60ef 5dc7 c3bf
000004f0: 8246 0aa6 31e4 ca3f 7b2d 71c7 5c6e d3bf
00000500: c011 70a0 eab9 9ebf 0062 6649 02c2 b5bf
00000510: 1d88 d8ec 60f4 d03f a865 64d6 a746 adbf
00000520: bdba a18b 3966 d23f fa8e 1ed1 c066 cc3f
00000530: 3eab 2bf2 04cc c43f d5ec b245 0039 d23f
00000540: 1273 b9bb b24a d0bf 3c38 d9d0 18e5 c03f
00000550: b0e1 9198 e95a 94bf 66a0 be1f 440d c33f
00000560: 7888 ea11 5860 b73f c05d 5fa7 6a7e 773f
00000570: 2c3d 9729 8c9e d2bf f096 b469 1a1a c03f
00000580: b0e5 c54a 6628 b53f de60 e8fb 5ec8 ce3f
00000590: 08c7 bca1 f09c bc3f 7841 e453 0b4f a73f
000005a0: 92a8 dc09 5d1d d4bf a855 f1f8 ebde bcbf
000005b0: d963 657d 58a9 d33f eb9b b6c4 e786 d13f
000005c0: 5771 a9e8 d29b d13f e074 e64b 0f3a c2bf
000005d0: 0eb7 1c4d 69a2 c6bf 88be 6d41 22b1 af3f
000005e0: 4176 e255 cfc3 d23f caa8 708a 0a44 cdbf
000005f0: 6ad5 6a37 034f c33f 1736 b4a3 88da cebf
00000600: e98f 8816 52bc d1bf e656 cde0 4d43 cd3f
00000610: 2e1f 9b98 fecc ce3f ccb6 1adf 2fb7 cbbf
00000620: b12f bb1b 31b5 cfbf d92b e692 e171 d13f
00000630: dccb 0a54 5dcd d2bf d9de 4a80 f4e6 d5bf
00000640: 1a66 e549 0ff8 c9bf d2ab be1f 97cd c93f
00000650: dd82 58d1 6a4c d63f 4c7c 74a5 013b babf
00000660: 8961 4b7e 5a7f d23f f291 9d0f 5e74 bfbf
00000670: 8994 2e73 a667 d13f 8cd7 c6ea d7bb cbbf
00000680: 99ea d286 63f1 d13f 004a 67c1 7f92 7e3f
00000690: 6040 2e1f 6f2c 81bf 40ec 87a5 416e bd3f
000006a0: 0056 e401 2156 aa3f 2000 1929 10d4 b23f
000006b0: f25f 62d4 9a7e ca3f 3fa5 1a64 0f02 c2bf
000006c0: 291b 3b0c 006b d5bf a061 0fa2 e0c9 95bf
000006d0: 5030 639e 85de a7bf 64bb b9cd 1bd7 cdbf
000006e0: a072 c45c 5768 9cbf daf6 3da9 f695 cd3f
000006f0: 94ff b421 efd3 b7bf 40e5 7592 d2f5 70bf
00000700: 92fc ce7a 3c43 c9bf 5dbc 7418 cd3a cbbf
00000710: f2f5 a174 f2d9 c23f fb2b aa09 9c26 cdbf
00000720: 1313 2525 ba63 d03f fa91 340e 1cec cb3f
00000730: 5017 ff23 1055 943f 9d06 e39e f503 cebf
00000740: bf82 fd7c 04cb c5bf c02c 9ffc 89aa d5bf
00000750: 9240 ed89 bdf8 d0bf dcc1 4377 843c bfbf
00000760: 2454 8bc3 eb8d d3bf 7d02 244e d6bb c8bf
00000770: d0a3 35fb 528c 943f 5018 dd9f 0231 bbbf
00000780: 00fd 5aaa 12c0 8b3f 7839 a01e 443d bd3f
00000790: 1bba e7a4 b155 c5bf cd98 bb18 4bb2 c1bf
000007a0: 8095 aeed 9aa1 89bf 1b86 6698 01c5 c7bf
000007b0: ce5c 7969 e6a5 cdbf c27e 6348 a77d cfbf
000007c0: 5239 9da5 73e6 d4bf 5361 fa52 2f38 d43f
000007d0: 508c afe6 b4d5 9cbf fa85 3bbc 7d2b cabf
000007e0: 2a37 baa2 4faa c2bf 3c42 8c10 5e47 cebf
000007f0: e024 2e62 27ec 8fbf 5a21 af9b 73ef cbbf

bias f8 [1, 16]
0.0 0.0 0.0 0.0 0.0 0.0 0.0 0.0
0.0 0.0 0.0 0.0 0.0 0.0 0.0 0.0
00000000: 0000 0000 0000 0000 0000 0000 0000 0000
00000010: 0000 0000 0000 0000 0000 0000 0000 0000
00000020: 0000 0000 0000 0000 0000 0000 0000 0000
00000030: 0000 0000 0000 0000 0000 0000 0000 0000
00000040: 0000 0000 0000 0000 0000 0000 0000 0000
00000050: 0000 0000 0000 0000 0000 0000 0000 0000
00000060: 0000 0000 0000 0000 0000 0000 0000 0000
00000070: 0000 0000 0000 0000 0000 0000 0000 0000
