A-基础教程/A2-神经网络基本原理/SourceCode/ch16-DnnRegularization/overfitting/w_1_16_MSRA_init.npz (npz, 724 bytes, 2 tensors)

weights f8 [1, 16]
0.9088680703449965 -0.022066719368543635 0.3631057049557389 0.5018673299909225 -0.1727673107711498 0.4091123420661557 0.04529137628868533 -0.08505123582605947
-0.6325237604600382 -0.0018518854077446754 0.10989641647601278 -0.14470551196688394 -0.14286509303127085 0.24866567904922757 0.3416441438316785 0.25847546024768064
00000000: 1855 d07d 7215 ed3f 9b55 1278 a898 96bf
00000010: bca8 f1b5 1f3d d73f 41bd 2713 4c0f e03f
00000020: 073c ca3e 3d1d c6bf 471a 6488 e52e da3f
00000030: 85c6 e667 6e30 a73f 9a78 5bf4 eac5 b5bf
00000040: 3acd 2378 a23d e4bf 1eef c7d0 5e57 5ebf
00000050: 404a b6ea 2b22 bc3f 1b6f b9d0 b585 c2bf
00000060: 5597 2743 6749 c2bf 65b8 93e7 46d4 cf3f
00000070: 6e20 2866 7fdd d53f 0045 25a8 dc8a d03f

bias f8 [1, 16]
0.0 0.0 0.0 0.0 0.0 0.0 0.0 0.0
0.0 0.0 0.0 0.0 0.0 0.0 0.0 0.0
00000000: 0000 0000 0000 0000 0000 0000 0000 0000
00000010: 0000 0000 0000 0000 0000 0000 0000 0000
00000020: 0000 0000 0000 0000 0000 0000 0000 0000
00000030: 0000 0000 0000 0000 0000 0000 0000 0000
00000040: 0000 0000 0000 0000 0000 0000 0000 0000
00000050: 0000 0000 0000 0000 0000 0000 0000 0000
00000060: 0000 0000 0000 0000 0000 0000 0000 0000
00000070: 0000 0000 0000 0000 0000 0000 0000 0000
