B-教学案例与实践/B6-神经网络基本原理简明教程/SourceCode/ch09-NonLinearRegression/complex_121/w_1_8_Xavier_init.npz (npz, 596 bytes, 2 tensors)

weights f8 [1, 8]
000000 72 7f 5e 91 3c db e9 bf ce 43 04 af e6 a8 e8 3f
       -0.808012279438101 0.7706178110403188
000010 e0 af bd 98 67 7c c1 3f 9e 75 2b e9 48 25 e3 bf
       0.13660902936987807 -0.5983013681504195
000020 70 8c 82 ac f7 9e d1 bf a0 31 58 00 96 1c d5 3f
       -0.2753276047389539 0.3298697474827126
000030 18 72 ef da 60 23 c9 3f 0c a6 61 3c fb b0 dd 3f
       0.19639216127588166 0.4639270867979526

bias f8 [1, 8]
000000 00 00 00 00 00 00 00 00 00 00 00 00 00 00 00 00
       0.0 0.0
000010 00 00 00 00 00 00 00 00 00 00 00 00 00 00 00 00
       0.0 0.0
000020 00 00 00 00 00 00 00 00 00 00 00 00 00 00 00 00
       0.0 0.0
000030 00 00 00 00 00 00 00 00 00 00 00 00 00 00 00 00
       0.0 0.0
