A-基础教程/A2-神经网络基本原理/SourceCode/ch12-MultipleLayerNetwork/MNIST_gradient_check/w_7_16_Xavier_init.npz (npz, 1492 bytes, 2 tensors)

weights f8 [7, 16]
-0.22170318292132563 0.36412521308370016 0.003652613936829918 -0.29090434226197265 0.10611667801326508 0.26216740304791997 -0.06807733251248532 0.42146067207742755
0.005191113518618451 0.3547780110923946 0.2433050187727268 0.4422383933622026 -0.34847408180916695 -0.13719818628049263 -0.025685874943589038 -0.4430630749244921
-0.03563336278145712 0.33982752713975495 -0.23558151474730682 0.017989592341429272 0.003486028700277477 0.5028743935657838 0.23385955550009074 0.17623230732191741
0.290538590407445 -0.479504540550775 -0.13353275223283456 -0.14858135036391884 0.2171394138535362 -0.02071759115102556 0.18680871632947182 0.3907165619083518
0.06373109297923873 -0.30006136948757556 0.30969294692818594 0.4257004405929906 0.5007341736399238 -0.17988598833161973 0.26446241472311494 0.21375855625706175
-0.33758857938106795 0.11157133618742143 0.1697618620361513 0.105416170861384 -0.29283625828668036 -0.10052926314022292 0.2122207065379258 -0.07648939593175752
-0.45958535192332467 0.15998578370411853 -0.43433600243118003 -0.016793229900736728 -0.4515233132362594 0.13049471356875486 0.14010114067488 0.4611470377052179
-0.033457727397162795 0.1025067365466601 0.1930627902418024 0.41398012804076634 -0.10877026153635189 0.059205329693464814 0.23142251567473848 0.46754410727955864
-0.45272879739398025 0.22695398155655422 0.07929771498296434 -0.3648597117556366 0.20327680425607786 -0.33465343209143017 0.4875934129213041 -0.1238619958982245
0.17047233328358702 0.16822891826448028 -0.45131115708856323 0.4574712543106767 0.24122985274352093 0.02600116646298989 0.2579321268472953 0.39199245452084397
0.027286540482498678 -0.47747522989096225 0.2468913718248974 0.014853609713298965 -0.18298004073465324 0.40178195770918435 0.3809718491217787 0.06812695828233373
-0.05689606041366546 -0.48761555646300087 0.2517154843705506 0.3802643265410214 -0.12399461975337722 -0.25212218082350685 0.3272364761072817 -0.34223859474093693
0.2691064848536181 -0.08953370874210514 -0.2768123910067972 -0.41161901171299914 0.15843605461289156 0.33090307896766247 0.4289289460235889 -0.37884473399004404
0.331779590217383 0.3483027812835078 0.3863991604049839 0.3783815163427071 -0.4758489158975829 -0.42186414631304614 0.4006173260115343 0.14328964069198613
00000000: 3879 0818 c560 ccbf 4afc 75d6 d34d d73f
00000010: 0047 ea2c 16ec 6d3f 5de4 113f 2d9e d2bf
00000020: f88b a06d 762a bb3f 9cc1 8ac9 59c7 d03f
00000030: 6473 bd1c 846d b1bf d6da c72e 36f9 da3f
00000040: 0038 adec 4643 753f 28d5 bed4 aeb4 d63f
00000050: 806f 4a6d 9e24 cf3f faad 2143 a24d dc3f
00000060: a0ef 373c 664d d6bf f496 92cd b58f c1bf
00000070: 304e 68e3 654d 9abf c36a 373a 255b dcbf
00000080: 00f2 953f 893e a2bf 9621 d6f4 bbbf d53f
00000090: a0df b0fa 8827 cebf 0068 191b dd6b 923f
000000a0: 00e9 5668 bb8e 6c3f 488c 4b0a 8c17 e03f
000000b0: 3470 5d23 1cef cd3f f01e 39be c78e c63f
000000c0: 9aa8 012c 2f98 d23f cdbd fccf 33b0 debf
000000d0: 7477 e4e9 9917 c1bf f0e4 4db4 b604 c3bf
000000e0: cc36 966c 39cb cb3f 403f c801 fe36 95bf
000000f0: d014 9f17 59e9 c73f 3ab9 d909 8001 d93f
00000100: e08b 1550 ae50 b03f b87e 2f9a 3434 d3bf
00000110: 64f0 b65d 02d2 d33f 0257 8f0f ad3e db3f
00000120: e4bc 78ac 0306 e03f 004c 720a 8106 c7bf
00000130: 2872 90c3 f3ec d03f f49f 2ebc 705c cb3f
00000140: 6377 fc20 0d9b d5bf 3893 1868 f08f bc3f
00000150: a4d3 c6b6 c1ba c53f 98b6 51de 8dfc ba3f
00000160: c027 1b4a d4bd d2bf a86d 7a29 49bc b9bf
00000170: d0a4 0e51 0c2a cb3f 9887 041e cf94 b3bf
00000180: 1dce 0eae d869 ddbf 68c4 6a06 6a7a c43f
00000190: f5b4 7a3b 29cc dbbf 401a df94 3e32 91bf
000001a0: 96cd ee09 c2e5 dcbf 8012 8aff 0cb4 c03f
000001b0: 185b aa8c d5ee c13f 0ed6 65dd 6e83 dd3f
000001c0: c047 f009 5f21 a1bf 806c 16a9 e13d ba3f
000001d0: ccde 1411 48b6 c83f 4641 c881 a67e da3f
000001e0: 9c74 132c 5ed8 bbbf 708d 9035 2950 ae3f
000001f0: 38c6 30c4 409f cd3f 8e01 8d1e 3eec dd3f
00000200: 79ee b034 82f9 dcbf e0be 3dfc d30c cd3f
00000210: 20d6 7fe4 da4c b43f 9e94 678c dc59 d7bf
00000220: 0c5a 286d f904 ca3f 1aeb 943a f66a d5bf
00000230: 567d 8f00 bb34 df3f 1ca4 9975 6bb5 bfbf
00000240: 6cb4 2994 09d2 c53f b8fc 1773 8688 c53f
00000250: a3fa 0031 48e2 dcbf 14f7 0783 3547 dd3f
00000260: c418 2dac 9ee0 ce3f e02f 77be 0ca0 9a3f
00000270: 1a66 59c0 f581 d03f dc87 1c85 6716 d93f
00000280: c026 f9bb 00f1 9b3f 6e08 4244 f48e debf
00000290: 7485 d3ef 229a cf3f 00c0 91bf 916b 8e3f
000002a0: b456 63d5 e36b c7bf 9cf6 1eac cbb6 d93f
000002b0: 0e2e 2bc0 d761 d83f b86f ccb1 c470 b13f
000002c0: 20f1 7efd 7a21 adbf 2fe2 01e1 1735 dfbf
000002d0: 0e2c 5143 1b1c d03f d210 952f 4056 d83f
000002e0: 8080 b884 1cbe bfbf 19ec 4e12 c522 d0bf
000002f0: 9019 bc42 71f1 d43f 37d8 f5b4 3ce7 d5bf
00000300: aa9e e567 0a39 d13f b4da ef5e aeeb b6bf
00000310: d01c a051 4bb7 d1bf eb06 6e44 f757 dabf
00000320: f0e9 88f4 a147 c43f caf4 931b 842d d53f
00000330: faa8 de64 9273 db3f 94f0 affb fd3e d8bf
00000340: 38b1 5d76 e03b d53f 04fc adbf 974a d63f
00000350: 780a 498b c3ba d83f 8c94 861b 6737 d83f
00000360: c37f e702 4f74 debf 5c3f f179 d2ff dabf
00000370: 7a8d 5bda b6a3 d93f 8857 50a0 5057 c23f

bias f8 [1, 16]
0.0 0.0 0.0 0.0 0.0 0.0 0.0 0.0
0.0 0.0 0.0 0.0 0.0 0.0 0.0 0.0
00000000: 0000 0000 0000 0000 0000 0000 0000 0000
00000010: 0000 0000 0000 0000 0000 0000 0000 0000
00000020: 0000 0000 0000 0000 0000 0000 0000 0000
00000030: 0000 0000 0000 0000 0000 0000 0000 0000
00000040: 0000 0000 0000 0000 0000 0000 0000 0000
00000050: 0000 0000 0000 0000 0000 0000 0000 0000
00000060: 0000 0000 0000 0000 0000 0000 0000 0000
00000070: 0000 0000 0000 0000 0000 0000 0000 0000
