A-Basic Course 基础教程/A2-Neural Network Basic 神经网络基本原理/SourceCode/ch14-DnnBasic/Income/w_32_16_MSRA_init.npz (npz, 4692 bytes, 2 tensors)

weights f8 [32, 16]
00000000: ce58 61df d438 c5bf 4e5e e526 5d80 c2bf
00000010: f5f3 a174 32bf d0bf 1f8a 5b58 7b8e dcbf
00000020: 2957 f04d 69b0 d83f 00f3 1837 ca1c b73f
00000030: 2b33 1066 4f9b cfbf f774 48d2 da10 b6bf
00000040: 2394 ff44 1ea5 cc3f 1f1b f058 a00c cabf
00000050: c318 43ad 7453 cebf 34b2 3c6c 9ee0 be3f
00000060: 2f67 b803 2256 d2bf d247 5484 a5b6 e4bf
00000070: 2d11 7f8c 6407 c63f 6d17 ca4e 4748 cdbf
00000080: 560d 2087 e5fc 97bf 1ad4 0c33 a45c bd3f
00000090: 4f4b 6159 6f31 de3f 8a62 8eff ccc7 cfbf
000000a0: 805e 3d51 f2c5 ccbf 1c05 b2f6 6e21 ca3f
000000b0: 87b1 1bae 8ef0 d13f 7052 4e52 6e32 cebf
000000c0: 240f c332 0fc9 e1bf 3d87 2834 eb1a c43f
000000d0: e8c6 387e a31d cd3f 54bf dd7d b14d a03f
000000e0: 6a42 f59c d799 df3f 7b17 25d1 6c99 d0bf
000000f0: 7df1 fc06 4bcc d33f e616 a68d c23c d9bf
00000100: ccbb 131b 29cf b53f c7d2 e3e2 22b5 e03f
00000110: 590c fafe 65c2 bfbf 9d39 86ea b8d0 c4bf
00000120: 3545 2ac9 8210 e4bf 7f8e 3c2e f46c c13f
00000130: 5529 792a f662 c4bf b2a2 d820 2037 933f
00000140: 0f58 22eb 2638 cb3f 140d c84d fc01 a53f
00000150: e772 14f9 690d d03f bb3d a7d5 ed16 d23f
00000160: d048 2e59 5998 d4bf 9065 e2af 757b c63f
00000170: e040 7b09 fe98 f5bf 2edd aa1c d972 bb3f
00000180: 1b7f 2e67 ea02 c1bf ac84 865f 511a dc3f
00000190: 09f5 d271 953d bb3f f885 40eb 6ec0 d9bf
000001a0: c689 b63a 2c5b debf 2d2f 06c3 564b ddbf
000001b0: b1a6 1223 3999 e0bf 0bba 8893 0538 8a3f
000001c0: 71fb a802 1e4c d73f 88af c5fc a09e d13f
000001d0: 012c 1b79 60c1 aa3f fb98 4e0f 81c5 b93f
000001e0: ff43 f439 84d1 e5bf c8f6 f968 0895 d0bf
000001f0: bce9 9a52 e919 a63f 2fc4 8d11 43d7 c63f
00000200: 134f f7a7 cdb1 d93f 3acf a9dc f47d ddbf
00000210: 69af 57cd 4eb5 d7bf b297 d025 c4f3 a43f
00000220: ca68 d4f1 4c15 d33f e008 e8f7 eea0 a5bf
00000230: b6aa 61d7 dbd3 cabf 6550 09a5 ceaa e63f
00000240: 1fbb 1952 19f9 a6bf 29b1 de21 3c96 cb3f
00000250: d14b cd0d 8f44 dcbf 67be 6bbc 647b e0bf
00000260: 4364 d7dd 3f9a e53f 474e 1aa5 d8c7 d3bf
00000270: e92b cf9c 5ecd c0bf c7e0 61a9 1a5b de3f
00000280: 75a8 535e 0cf4 d03f 08ab 2eec 1551 c13f
00000290: 91d0 a2f1 23a8 d0bf f015 0b4f e968 c13f
000002a0: 306f 7bee ddf3 ac3f bf28 ac2b fd4d abbf
000002b0: b71c 7b4d cd84 e0bf 2f22 98a6 f3d9 e63f
000002c0: 02da a163 6e4d c4bf 1e71 f968 c8f2 d13f
000002d0: 88af 4c82 a970 d7bf 48c5 69fb b30d e2bf
000002e0: fb61 7db3 fd5f ca3f 7757 2599 1698 d23f
000002f0: ae9a a9c8 79b1 ba3f 80c1 0998 e4e9 d23f
00000300: 73eb 8a69 e650 c4bf 8a4e 3dcc 0814 c23f
00000310: 2a07 6501 86db d33f cddd 03c6 9742 963f
00000320: 0da8 3cc4 8aa4 ba3f 97c8 639b b60c 913f
00000330: 8e5f b3c7 f279 cabf ecee 9a0f 82a5 db3f
00000340: 9802 44ee 6706 b63f c248 1859 51d0 dabf
00000350: 1a7b d912 62f1 d03f b7bb 0ee3 2c68 d03f
00000360: a3a8 1769 8741 d23f a87c d847 34f0 bdbf
00000370: 906c bd8a 69f2 c3bf e185 ba0a 926f 923f
00000380: 2ac6 57bb 6308 e0bf 3add 7d8e 9182 e53f
00000390: 06b1 a4db 8884 d9bf b933 8fe0 35ba e9bf
000003a0: fa3c 83db 239c a93f a389 1daa a507 e03f
000003b0: 393d 017c 7f83 893f e752 61dd 85da e3bf
000003c0: 1896 ef2f a0e2 d23f 0acd 1049 e6d2 933f
000003d0: 591b cd7b c3aa ccbf 0927 0534 3f23 d03f
000003e0: 4182 17b2 7ca1 b2bf 6482 8a4e 526f c43f
000003f0: 0698 2857 4930 8bbf 8198 3949 27ea 97bf
00000400: aa39 8062 3242 e13f 37fd 2d70 aff3 cabf
00000410: 3691 4d1d 224c ccbf a95a a811 6913 d73f
00000420: c294 2e35 d679 dc3f 384c 8721 0c8a e6bf
00000430: 35d4 cce1 652c e1bf 3e34 53c5 4776 cfbf
00000440: 274d 94db 8e6b cbbf ddea 9e06 ed45 e2bf
00000450: 09d6 2a05 0775 cbbf 50e5 ebec 603c 983f
00000460: d5b1 a492 02bc d43f 30f5 7481 a5ac 74bf
00000470: bfe9 ae40 3b30 c2bf 39c3 0d2f 61ab c8bf
00000480: 647d b12d 7c2e d2bf c6e8 53a8 e2d0 e9bf
00000490: 27ad d159 560f 6f3f 541e d952 61d6 cdbf
000004a0: d16f fb4a 09e3 d7bf 2d65 0f5a 3d50 df3f
000004b0: 9728 79fc ad29 da3f 10c7 db14 fd7d c2bf
000004c0: 0c7f 7442 f6c0 de3f e6ce 7c20 53ee cd3f
000004d0: 7e26 152d 856c cfbf 2560 85a1 3cc8 e2bf
000004e0: 0346 dff1 e6b1 863f aba4 5a42 982f aa3f
000004f0: 0fa5 104e 305d dc3f 82eb c54f ada5 debf
00000500: 8208 250f 2ef9 d2bf b150 0161 6b14 bf3f
00000510: 7a9a bca7 e9be e03f 22c3 cef9 26eb a1bf
00000520: 3500 a2f5 598d bb3f e9af 8250 6fe1 c6bf
00000530: 9422 c4ac 22d2 d53f b8f6 b28b 2d72 b1bf
00000540: 2aa5 09b4 4a1a e63f a660 1032 d2b2 c73f
00000550: 4ad1 dd32 d45c d1bf b33f ed86 8f9b e1bf
00000560: 6780 17dd a5a2 de3f 7d29 f9ff fe15 b03f
00000570: a136 03fe 5cec cf3f 77e1 e26f ffb5 c23f
00000580: a3b1 a613 9521 cd3f e91a 935f 1585 903f
00000590: 983b 1a5e c836 af3f b7b6 a373 f945 d13f
000005a0: 80d1 ce59 ac8b cd3f 4dea 5f51 fd08 c63f
000005b0: ff66 6ae4 0ce1 ccbf 6eb9 a29c 5fef d4bf
000005c0: ad93 1d64 12a1 dabf f665 3597 563b cf3f
000005d0: 742b 4a67 ed0f dbbf 03b6 e931 24ea d7bf
000005e0: 125d becd df5f cbbf d127 6596 79d0 ccbf
000005f0: b872 8b4f 316a 9e3f c467 4e49 5fd9 d3bf
00000600: 4219 79c6 fd8f dfbf 2f0a 494d a4a0 dabf
00000610: 1ccb c3c3 bdd2 c63f 38ab fe4e 0c9c d03f
00000620: f163 69cd 8b03 b83f a1f4 1f90 1f08 df3f
00000630: c6a7 6983 540d 893f 85ff dd09 8d76 bebf
00000640: 474f d076 4bf8 e1bf 3a1e 333f 2b15 da3f
00000650: 4a53 233c 33f1 d7bf b579 c0f9 b57c 74bf
00000660: a343 9d20 7688 d1bf cda9 ba15 890a cfbf
00000670: 4891 aa1b 964e 8bbf 8317 5d08 9fcb c63f
00000680: 8e98 257b 3d84 b4bf f103 9215 ff8c afbf
00000690: 885b 6bf4 f7d3 e1bf 94a7 c5bf 214c ac3f
000006a0: c794 d673 cb17 d53f 0161 00c3 6c8a a93f
000006b0: 5fd0 767c 2e04 e6bf 344e a1d5 b12c a13f
000006c0: 9b80 5564 1fb4 813f 5dc6 ce72 a2b0 d43f
000006d0: d0fd 23bf 9608 ce3f 5708 934e 76ae d23f
000006e0: 62ab 6a6c 5538 d03f 292c f5f2 7c04 923f
000006f0: e0fa 1523 5437 d6bf fadf fd9d 3a12 c83f
00000700: 6891 65d6 3dbf d23f f32f 1296 6310 e4bf
00000710: 08b9 a6ee bf0d cabf a2d8 6779 d4d4 d9bf
00000720: cea7 3ec8 ab51 d3bf 3bb2 4c3d 626d c7bf
00000730: 64ca deda 4e76 c9bf 5a67 1f3c f326 a3bf
00000740: b76f 44ff 6a8f c4bf acda d83a 4efb cf3f
00000750: 886e 546c 6061 d0bf 1a14 0d6d 80b8 aabf
00000760: 21da f352 04bb e63f 6848 ceee 3e00 a43f
00000770: dd83 201d 7e06 adbf 166f 1a80 f3bc adbf
00000780: dde1 e809 e4cc e2bf 0cd5 4865 5c39 ed3f
00000790: c829 0bcc 8bf2 e13f 90cd c13f 6be7 b4bf
000007a0: 9cfb 648f 529a d2bf 5b45 2c7e be4f d0bf
000007b0: 4fa6 ebd5 c975 d03f dd47 a981 d665 f03f
000007c0: f496 2406 3ad0 d7bf bcdb 6df9 eecd d93f
000007d0: 90f9 e533 2234 c83f 694a 531b 4bdf b1bf
000007e0: 236b 2a65 160f d13f 9ac0 32c2 c9d3 df3f
000007f0: 1424 3226 d559 c9bf 532d 0c0d 80bf e7bf
-0.1657968607639248 -0.1445423545762758 -0.26166974439530516 -0.44619639996213495 0.38576729403699744 0.09028304906037121 -0.24692718967016822 -0.08619468339789536
0.22378900879917393 -0.20351032583877157 -0.23692186794341383 0.12061491148478681 -0.2865071331340116 -0.6472957214884849 0.172100609399544 -0.22876826617374083
-0.023425661442172917 0.11469484564152346 0.47176727036019356 -0.24828493574456828 -0.22479084936889038 0.20414530797646868 0.28030745508910865 -0.23591403025479307
-0.5557933799213726 0.15707149550240188 0.2274669996564207 0.03184275304272313 0.4937647850793271 -0.25936432289414996 0.3093440597765705 -0.3943334945000586
0.08519226943074826 0.5221113616413157 -0.12406003451364835 -0.16261969996817252 -0.6270154885297986 0.13613750703472147 -0.15927006791964496 0.018764974598669944
0.21265112382087678 0.04103077363472543 0.2508187229557692 0.28264947762087517 -0.32179864605963093 0.17564269149879097 -1.3498516435975532 0.10722119283569917
-0.13290147817769413 0.43910631493242636 0.1064084437266112 -0.40237019513924066 -0.4743147443170098 -0.45772332234695307 -0.5187040028588027 0.012802165570147591
0.36402082690977183 0.2753069370726213 0.052256598266090755 0.10066992400843226 -0.6818257457654225 -0.25909624339679427 0.04316643842090026 0.17844427449338826
0.40147725489554026 -0.4608127741732805 -0.3704411511705446 0.04092228852850556 0.29817508331474285 -0.04224344993782991 -0.20959041611361834 0.708350488983808
-0.04486922385409841 0.21552230504801997 -0.44168449733586806 -0.5150626831145474 0.6750792820777253 -0.3090726482707606 -0.1312673822088464 0.4743105558514
0.2648955269966174 0.13528703720415813 -0.2602624759413255 0.1360141406968718 0.05654805694731946 -0.0533293834506181 -0.516211177186867 0.7141054395479552
-0.15861301293234936 0.2804432892933323 -0.3662513515907837 -0.5641727362073334 0.20605441345357164 0.2905327315869423 0.10427056454646319 0.2955256924388081
-0.15871887353372535 0.14123640034323542 0.31027364860720985 0.0217384066208675 0.10407321253720188 0.016650059923400375 -0.20684656859407052 0.43197680973001584
0.08603524748833491 -0.4189647073809618 0.2647328552319991 0.2563583581313042 0.28524956953936903 -0.11694647554439774 -0.15583533548747086 0.018003732590505698
-0.5010241183319455 0.672188547424333 -0.39871427011054583 -0.8039807687688302 0.05001937918279427 0.5009334871831935 0.012457843753650099 -0.6204251598197431
0.29508213692892715 0.01935920544583517 -0.22396129174213789 0.2521512992867519 -0.07277659748025035 0.1596472629071456 -0.01327569291340681 -0.023354162067697807
0.5393306659550963 -0.2105616853477643 -0.22107340269861603 0.36055971836450823 0.4449363250117352 -0.7043514876226089 -0.5366696748884637 -0.24579712996492903
-0.21421991082807176 -0.5710358743011416 -0.21450889351187666 0.02366782613805657 0.32397522278440977 -0.005047461039166465 -0.1420969072185709 -0.19273009107157593
-0.2840872236465286 -0.8067487037326593 0.0037914930858754694 -0.23310486359899818 -0.3732321960685541 0.4892724399083644 0.4087939229544956 -0.1444698669288802
0.4805274628615599 0.2338355930929687 -0.24549927426624046 -0.5869429735857962 0.011081508880951501 0.05114436922060269 0.443187786326761 -0.47886212148994656
-0.2964587352654534 0.12140532606400957 0.5233047748668718 -0.0349971942845342 0.10762560126204408 -0.17875472479988666 0.3409506499452075 -0.06814846668836594
0.6907094494210118 0.1851446861699106 -0.27129082648686575 -0.5502393374717854 0.47867724028583897 0.06283563374851116 0.24940073397595078 0.14617913211055697
0.22758735141304695 0.016132673223888814 0.06096483372413458 0.26989589970512945 0.2308249891772327 0.17214933846828942 -0.22561799195391782 -0.32711019798707397
-0.4160810449305313 0.24399835952026167 -0.4228471287430502 -0.3736658561163894 -0.213863349400278 -0.22511215060722958 0.029701967697166792 -0.31014234694304954
-0.49316353208668684 -0.41605479762452807 0.17830631312207224 0.2595244189675898 0.09380410923894524 0.4848708064526566 0.012232456455610118 -0.11899644366167024
-0.5615594215946452 0.40754204913944003 -0.3740966880116515 -0.005001746027146249 -0.2739539450167802 -0.24250901757234403 -0.013333485335643616 0.17808902653103695
-0.08014282471194376 -0.061622592337705735 -0.5571250699821215 0.05526833978622317 0.3295773154480454 0.04988422279729044 -0.6880104475917611 0.03354411824025441
0.008644337892008294 0.3232809182328305 0.23463711102520657 0.2918983237578962 0.25343833530012294 0.01759524567505025 -0.34712699343064735 0.18805630411566182
0.29292245804960837 -0.6270006114077645 -0.20354460862058255 -0.4036151109315914 -0.3018598037257306 -0.1830256270708491 -0.1989229744627493 -0.03740654095572778
-0.1606267687246807 0.2498567378367701 -0.25594339922984277 -0.05218888598623313 0.7103292102972923 0.039064375544641206 -0.056690159850638834 -0.05808220804939716
-0.5875110810803182 0.9132520654881389 0.5608576760508237 -0.0816561728150218 -0.29066909793248796 -0.25486719438148037 0.2571892346446462 1.024862772454518
-0.37208414649863575 0.40319418295205955 0.1890909913453922 -0.06981343667147545 0.2665458667703879 0.49730152096436486 -0.19805397381813405 -0.7421264891467366

bias f8 [1, 16]
00000000: 0000 0000 0000 0000 0000 0000 0000 0000
00000010: 0000 0000 0000 0000 0000 0000 0000 0000
00000020: 0000 0000 0000 0000 0000 0000 0000 0000
00000030: 0000 0000 0000 0000 0000 0000 0000 0000
00000040: 0000 0000 0000 0000 0000 0000 0000 0000
00000050: 0000 0000 0000 0000 0000 0000 0000 0000
00000060: 0000 0000 0000 0000 0000 0000 0000 0000
00000070: 0000 0000 0000 0000 0000 0000 0000 0000
0.0 0.0 0.0 0.0 0.0 0.0 0.0 0.0
0.0 0.0 0.0 0.0 0.0 0.0 0.0 0.0
