A-Basic Course 基础教程/A2-Neural Network Basic 神经网络基本原理/SourceCode/ch14-DnnBasic/Income/w_8_4_Xavier_init.npz (npz, 756 bytes, 2 tensors)

weights f8 [8, 4]
00000000: 6939 3736 624c e13f dabf 597f 2c06 d4bf
00000010: fcf3 c26e a222 d5bf f988 b83f f7b3 e33f
00000020: 90b1 61bc 8a3f a8bf 9392 a214 ed39 e03f
00000030: ee3f 11ff 69e8 cebf 40fa 4697 132d cf3f
00000040: 80c0 bf38 1492 a5bf 524c 5aa6 b5a2 db3f
00000050: a1c7 4f5e 87e7 e13f fea6 d7c3 a698 e6bf
00000060: 2fc4 d233 4077 d9bf a0d9 7a0f b8c4 a8bf
00000070: c515 2447 edbc e13f f330 3b11 0532 e23f
00000080: c59a 2428 a6d6 e43f 13dc 1d25 1a60 e23f
00000090: 68a6 9506 8a33 cbbf 14a1 f98b 756c cabf
000000a0: 7ffd b52b 0797 e23f d29e f864 c597 d23f
000000b0: 5c96 bc80 41f3 e5bf 00a7 6648 0023 753f
000000c0: 61f3 6372 1042 dabf d618 03aa b8e3 d83f
000000d0: bac2 8393 caa6 dbbf 62a2 2080 fb2c db3f
000000e0: fa34 778d a132 de3f 851d 3efb ff3a e53f
000000f0: e2c5 04ec 7541 d63f 7bd4 9191 d635 e2bf
0.5405741747761513 -0.31287681995945393 -0.3302389222770328 0.6157184834048898 -0.04735978650646466 0.5070710566547681 -0.24146771387540816 0.24356312643608824
-0.04213011925446697 0.43180600400336744 0.5595127908729759 -0.7061342072531429 -0.3979034906470273 -0.04837584675753992 0.5543123616668529 0.5686059319064313
0.651202276615401 0.5742312169012415 -0.21251035043251254 -0.20643491110536927 0.580936036465502 0.2905133710905662 -0.6859443201435158 0.005160332779647225
-0.41028224154415766 0.38889900782340925 -0.43205513387423944 0.42462050926636696 0.4718402749538907 0.6634521395762226 0.3477453999394965 -0.569072040858955

bias f8 [1, 4]
00000000: 0000 0000 0000 0000 0000 0000 0000 0000
00000010: 0000 0000 0000 0000 0000 0000 0000 0000
0.0 0.0 0.0 0.0
