B-教学案例与实践/B6-神经网络基本原理简明教程/SourceCode/ch11-NonLinearMultipleClassification/Bank_2N3/w_16_3_Xavier_init.npz (npz, 876 bytes, 2 tensors)

weights f8 [16, 3]
000000 26 24 87 39 ba b6 d2 3f c0 8d 59 e6 8a 0c ca bf
       0.2924027978702405 -0.20350776908445134
000010 f6 2f 0f 35 2b 24 d5 3f 5c ad 1b a5 8f 8f c8 bf
       0.33033256703924907 -0.19188113748473767
000020 e8 16 f3 59 07 91 bb 3f 88 40 d8 15 14 fe c1 3f
       0.1076817125895918 0.14056635920178828
000030 80 1a 96 1e 2f ca bc 3f 7e fb 32 f4 3f 7f e1 3f
       0.1124600839303671 0.5467834252848289
000040 bc 66 fd db 62 93 c3 3f ce 14 7a 22 78 6b c8 bf
       0.1529353689355072 -0.1907797020286694
000050 40 4d d5 72 1c 01 c6 3f d4 06 c4 aa 09 c1 cb bf
       0.1719089089116128 -0.21682854498072024
000060 18 15 5a 37 ba 1e e1 bf e0 b6 ba 93 70 12 dd 3f
       -0.5350009041873447 0.4542504732770407
000070 e0 c3 d0 0e 64 3a c2 3f 9a 4c aa 1a a4 34 c2 bf
       0.14240694735920467 -0.14223147680295228
000080 12 91 16 05 63 ab e0 3f 24 39 a6 99 a6 dd c4 3f
       0.5209212397935821 0.16301424505622564
000090 79 00 a1 fa 5f 2b e1 bf 3c d8 10 bc d0 28 b0 bf
       -0.5365447898002592 -0.06312279311609442
0000a0 00 31 35 45 0a 91 98 bf 85 48 cf ed 4e 63 dc bf
       -0.023990784143550492 -0.4435612985954623
0000b0 c8 9c 77 ae 27 7f db 3f e4 a3 fa e6 2a f7 cc 3f
       0.4296359256536104 0.22629295614504408
0000c0 7c 3d 18 a0 1e 7b c8 3f f0 e2 e1 06 80 52 ac 3f
       0.1912573129379601 0.05531692585004133
0000d0 ec 63 af 6b 75 74 d9 3f c5 e6 c8 95 5f 55 e0 bf
       0.39773307338833663 -0.5104215550884069
0000e0 80 49 a8 46 5d d2 7a bf a0 45 a1 49 ac 3f b4 3f
       -0.00654827533664315 0.07909657285315186
0000f0 a0 e7 61 ff 2b 1f b9 3f 18 5b fb 49 73 19 c1 3f
       0.09813189492152086 0.1335891829719109
000100 f5 73 be cb cd 69 db bf 28 b1 d5 bb 78 cf cd 3f
       -0.4283327569663123 0.23289403125398533
000110 94 94 e5 46 2f 2d d3 3f 68 7b e7 cd a6 33 dd 3f
       0.29963285373225657 0.45627756221613547
000120 65 5c 6a a8 ee 21 d0 bf da 50 c4 ed 88 3c d6 3f
       -0.25207106062720747 0.3474447557394008
000130 ec d2 34 ac 36 64 d6 3f 6a d2 4d 13 d1 c8 d1 3f
       0.3498665506079266 0.2778818787112757
000140 6c 12 56 c4 1c 1f d3 3f 10 ad b3 0d d0 7e dc 3f
       0.29877394841631744 0.44524003351280417
000150 08 72 ac 1d 5b 83 d6 bf 9b d7 5d 02 8f 00 d2 bf
       -0.35176732919515574 -0.28128409606085264
000160 94 7d 89 53 36 f0 ce 3f 36 63 5c 6d 94 45 c2 bf
       0.24170569495161642 -0.1427484067906108
000170 f0 1c 29 3f a3 3d a8 bf 36 19 e2 22 4b a9 d1 3f
       -0.047345258197816764 0.27595785528719163

bias f8 [1, 3]
000000 00 00 00 00 00 00 00 00 00 00 00 00 00 00 00 00
       0.0 0.0
000010 00 00 00 00 00 00 00 00
       0.0
