A-基础教程/A2-神经网络基本原理简明教程/SourceCode/ch14-DnnBasic/Income/w_16_1_Xavier_init.npz (npz, 604 bytes, 2 tensors)

weights f8 [16, 1]
0	0x3fd3def670a71784	0.310483560573964
1	0x3fdaa71d3848b326	0.41644983765108845
2	0x3fc4beb9ced9af24	0.16207048988450723
3	0xbfddf84f72ac42d2	-0.46828066061520446
4	0xbfdeda2bf6dc0269	-0.4820661459671443
5	0x3fdfd03de729598e	0.4970850713192697
6	0xbf9eeaba6771cb00	-0.030192291797400905
7	0xbfce71600711248a	-0.23783493371073333
8	0x3fdf24fd4a33662a	0.486632654630372
9	0x3f9dab2a23197440	0.02897325362424774
10	0x3fd895891c9a2416	0.38412692826438055
11	0xbfdca0de95dbf640	-0.44731869349184095
12	0x3fc7d75ed27be48c	0.18626008298432273
13	0xbfbd01ca08cc09bc	-0.11330855097552378
14	0xbfe124623eeb36b6	-0.5356913784869082
15	0xbfb4494b846d9908	-0.07924339278324422

bias f8 [1, 1]
0	0x0000000000000000	0.0
