A-Basic Course 基础教程/A2-Neural Network Basic 神经网络基本原理/SourceCode/ch15-DnnOptimization/initialize_trial/w_4_4_Xavier_init.npz (npz, 628 bytes, 2 tensors)

weights f8 [4, 4]
-0.29440868437464696 0.5691939373409607 -0.4217639486234021 -0.4498778170680145 -0.5447217982156751 -0.40892494899546067 -0.6643615204312775 0.7938037447854909
0.5907540059153704 -0.6488524164287928 0.06937632000697347 0.5342679304462299 -0.7134966649584125 0.06351217138332721 0.0930458941315413 0.441866647153343
00000000: 280a c385 97d7 d2bf b0bf 3e34 d636 e23f
00000010: 9b09 7e37 2efe dabf 0931 e053 ccca dcbf
00000020: fa25 9868 5c6e e1bf df0d 9d8c d32b dabf
00000030: 3b24 5f17 7342 e5bf f278 691c d766 e93f
00000040: 7466 ecf1 74e7 e23f 6ac0 8f24 66c3 e4bf
00000050: e0f9 8b81 a5c2 b13f 5e2e 120f b918 e13f
00000060: 7ca5 39f5 f6d4 e6bf 3845 fd6a 5542 b03f
00000070: c071 5210 dbd1 b73f b8df ad0b 8b47 dc3f

bias f8 [1, 4]
0.0 0.0 0.0 0.0
00000000: 0000 0000 0000 0000 0000 0000 0000 0000
00000010: 0000 0000 0000 0000 0000 0000 0000 0000
