A-Basic Course 基础教程/A2-Neural Network Basic 神经网络基本原理/SourceCode/ch15-DnnOptimization/initialize_trial/w_4_4_Normal_init.npz (npz, 628 bytes, 2 tensors)

weights f8 [4, 4]
0	0x3fdd0927e81c923f	0.45368383090161396
1	0x3fd770546ddddcf0	0.3662310669819382
2	0xbff86bc6b8e7ff0a	-1.526312563219053
3	0x3fd74a97d484c8b8	0.36392780069139574
4	0x3ff5a7dcf65f3c2c	1.3534822105318751
5	0x3fd152ba4ca0380f	0.2706743000316018
6	0xbfe16a0cce06b907	-0.5441955589247137
7	0x3ff07c6946345919	1.0303738348353078
8	0xbfd0bd72893fa7e4	-0.26156295207203883
9	0x3fdf710feb4bf1c9	0.49127576807202594
10	0x3fe3351db8f24d58	0.6002338993297753
11	0x3ff05ca1a265b8b0	1.0226150840422115
12	0xbfe0e6d3a1993164	-0.5281770855158752
13	0x3f52b85035590d68	0.0011425765309390438
14	0xbfe2ebc352f2b1dc	-0.5912796611860887
15	0x3feec7887c060f30	0.9618570730531015

bias f8 [1, 4]
0	0x0000000000000000	0.0
1	0x0000000000000000	0.0
2	0x0000000000000000	0.0
3	0x0000000000000000	0.0
