A-基础教程/A2-神经网络基本原理简明教程/SourceCode/ch15-DnnOptimization/init_weight_trial/w_128_128_Xavier_init.npz (npz, 132564 bytes, 2 tensors)

weights f8 [128, 128]
00000000: 1056 143d f8be 893f e026 21f8 9ed4 9dbf
00000010: e1e2 8a63 7fdc b2bf 0cf7 e303 d924 a4bf
00000020: 8a01 271b d6f6 c13f 3cec 834d 8871 9dbf
00000030: 8a40 d5ea a25a a6bf dc0a 6789 de41 a93f
00000040: b45f b6db 91d3 babf d07a c227 0c38 9bbf
00000050: 0840 f615 f8ff 98bf d8f4 c75c 937c a23f
00000060: 6837 9c66 77cb bb3f 801d 62ee 143c 69bf
00000070: e03e ab1d ed14 963f 000b 6193 00a6 523f
00000080: 3a6c 6649 23a2 b63f f066 540b 5a81 c23f
00000090: cbca 8ef1 9666 b3bf c021 27af fbce 6dbf
000000a0: d858 8837 64df b53f 905e a1e4 219c 9b3f
000000b0: e896 1a27 51b5 98bf b053 8705 3a38 98bf
000000c0: 6a64 6b31 1106 b5bf 40da 54e8 9dad 9abf
000000d0: a8a0 62fc 9f05 95bf 002d 7874 e042 4c3f
000000e0: b219 efa7 e43e b9bf 1e55 b53c d073 a5bf
000000f0: 2880 fc95 bcf6 aabf 2638 ba8e 2db6 bbbf
00000100: 8263 fffe 3375 c2bf e8e4 18d9 8fbc a93f
00000110: 5017 9a77 aa40 be3f 0481 e13c 361b b83f
00000120: e69f dd5d 6168 b13f 3045 7af7 73a5 8b3f
00000130: 6c8c 69ea 47c3 aabf de89 1f6a bcf5 c13f
00000140: 2433 25b0 86be be3f 44fd 3262 08e3 b93f
00000150: 5086 f31e d612 9fbf 462d 8e2c 3605 c13f
00000160: 00cd 0d7c 98df bc3f 3384 071d 1ef3 b3bf
00000170: c0f4 0255 d724 8c3f d888 0435 e231 9c3f
00000180: d282 93e6 f32f bdbf 699e d471 b594 c2bf
00000190: 3414 4833 e5d6 b33f 8065 7e6b 4b31 bebf
000001a0: d893 bfb7 be82 a3bf 40a8 bf9f f9ca 71bf
000001b0: 006e 172d 801c 9d3f 304e c604 a1b2 923f
000001c0: 98f0 ff11 0339 943f 1c5a dc31 3d6d bfbf
000001d0: a818 7391 bee0 ac3f 58f4 f23e 7183 9bbf
000001e0: 202a 035a 03e4 9c3f 86fa 29bf 5573 c13f
000001f0: 92eb cb42 5079 c23f cabe 55ca a450 adbf
00000200: def9 02e8 2956 adbf 184d 9df0 d9f2 a23f
00000210: d459 c1b3 da34 9ebf 4080 019a f216 673f
00000220: 167c 846f 35f6 b4bf b02a cb9a f63e a1bf
00000230: 64ac fd44 452c c03f 9f68 2275 cd31 c0bf
00000240: e0d9 2127 0137 c03f 3059 790e 9d5f c0bf
00000250: 1a31 2cac 9f63 babf 6c09 c4f9 0102 bebf
00000260: 620d 8618 f605 a9bf a8d5 5732 20b2 afbf
00000270: 607a 2e60 25bb b0bf 843a 172a dc70 b33f
00000280: 803f 8485 d83b 5abf 501d 5180 3c74 9a3f
00000290: b795 aaa8 bc6f c3bf 06b3 c50b 9d0d b43f
000002a0: 4883 4438 b734 bfbf ccd0 f416 9d3b bd3f
000002b0: 08b3 d662 b958 bcbf f42c cd96 c49b a23f
000002c0: 5c84 e0c0 a8a9 a1bf 38aa ca91 f485 be3f
000002d0: 068c 9677 7fa2 babf c87f 92df 3512 bb3f
000002e0: 340d ad4e f531 9fbf a4b0 2900 0597 9dbf
000002f0: e04c a6f5 ca87 bebf 1cd5 6a0f 0082 ae3f
00000300: c882 785c 5b48 b13f 2032 60bb 3e16 82bf
00000310: e0b2 24d8 d2f1 b7bf 902f fdae bbee 8e3f
00000320: b9de 2822 c2ce c1bf c46a ff6d a89c ab3f
00000330: aac5 5d4a d3b8 a2bf 703f 7236 3a90 953f
00000340: 8a92 4c40 a140 bebf b0e0 43a7 c527 87bf
00000350: 3067 92ca 74c0 a13f 4ed8 2d6d e449 b53f
00000360: ac92 ed5f 2989 c0bf 005e 34b2 761f 773f
00000370: 40aa e1d3 515b c03f 1ad3 5d92 0b00 c33f
00000380: 6c87 a738 63c2 bd3f 4932 b87d d7a9 b7bf
00000390: 7a15 fe72 c487 b53f 60c5 8827 fb25 983f
000003a0: 9207 10e5 2d1b a0bf 10a1 238d 6441 873f
000003b0: 986d 45af 55b8 c13f 863d 83d9 23c5 b83f
000003c0: aec0 6bdc 471e c33f 0027 6a50 9e3c 76bf
000003d0: 647d d447 016e a6bf 98ca 09fd a1f4 b03f
000003e0: c001 7dc9 8b18 68bf c0f8 8c57 58db ad3f
000003f0: 2058 b1aa a23b 77bf 6268 2607 cf65 b43f
00000400: 80c9 ca2a 448e 773f 8059 bc5b 4512 61bf
00000410: 6049 2416 773f 963f b4ee bf23 e345 c13f
00000420: bcf6 8be9 8ff7 b93f 10f7 f783 c43b b4bf
00000430: 003e 62e8 1cf3 ba3f 2019 33a8 1fed 983f
00000440: 8c74 a711 65e8 be3f 5705 8800 5004 bdbf
00000450: 2cf4 327f 53e1 b93f 30e3 02a3 ab51 b1bf
00000460: 50cc 958e 26b3 b63f fc3f cfaf 5097 b93f
00000470: 4092 4b62 1d1e 643f 9065 7818 5d15 ba3f
00000480: 5883 9040 b0bc 943f 904f 8696 f14a 95bf
00000490: 8e76 aae1 20d5 b53f 081d 4611 2401 a43f
000004a0: b12e 233e 96cd b2bf f471 376c 6e38 bc3f
000004b0: b069 9be1 f596 c23f e853 fbe6 0712 bd3f
000004c0: 4cb6 5326 2e0f a9bf 2a4d b2f9 256e a4bf
000004d0: a2f4 d426 9450 a2bf c04b 4722 dc82 a8bf
000004e0: 1001 7f46 d992 bb3f b6cc 9382 d134 b13f
000004f0: b219 ddfc 9fee b63f 86de 1831 4af7 c13f
00000500: a8e7 665b 96e0 913f b264 e554 1a45 c2bf
00000510: 1ac0 6654 e627 a0bf 3a08 d3b8 c2c9 babf
00000520: b31c 6b7b 1912 b6bf 22e0 e113 e27f b23f
00000530: 968e 4585 b9cc b73f b753 0a29 c5de b5bf
00000540: e8a9 dd38 a0d8 9abf 5668 9d2c d9dc b0bf
00000550: 78cd b108 0567 ae3f 1453 0103 16dc a53f
00000560: c0d0 8459 1418 91bf 20f5 6315 8917 7cbf
00000570: 0e78 e679 dc65 bbbf 14a8 3a22 b092 c13f
00000580: 70d8 0c77 fa24 95bf 40e4 90fe 7343 983f
00000590: 806f 1713 3ebb afbf 7423 b145 ba2c b63f
000005a0: c8dc a086 6056 973f 3451 a2e2 8e07 bd3f
000005b0: 9ca0 9e67 6592 c2bf 144f cc34 1450 be3f
000005c0: 20a1 5434 4fb1 8abf 4a8d 4e11 553d b3bf
000005d0: 00a4 6e39 53d8 21bf fe9d 8fa8 c5b7 a3bf
000005e0: a075 23f7 828f 893f c017 b8d8 78c2 7c3f
000005f0: ac51 231a 3248 c33f 3080 e34e f08a c13f
00000600: 5496 1e83 5995 b43f 3cdc 1921 fb0f a13f
00000610: b909 057f e611 c2bf 48a5 0899 2c63 a93f
00000620: 5aee 7604 cd8a c13f 0202 2c62 106e c23f
00000630: 786f 2950 afbb bfbf bab2 1507 0190 b0bf
00000640: 786d 9387 68ec c13f 44aa 9bbd 2daa c1bf
00000650: b471 231c 3a64 bb3f d0ac e24a 6b90 92bf
00000660: 500a ff68 8bd4 85bf d4c9 f5f5 141e a0bf
00000670: bc89 4c43 ad08 af3f 5412 deda 787a a73f
00000680: 4456 dd7b 51a3 9fbf 8cf7 f1b0 ad74 b33f
00000690: 343d 2be4 b77f b6bf 52ba 6d70 a295 b13f
000006a0: 3477 6179 2107 b63f 2249 ec28 917b b23f
000006b0: 0084 e9ae a089 75bf c2f7 30f9 8c63 a2bf
000006c0: 2caf 3b62 66c9 b93f 2e6d 59bd fa7c c33f
000006d0: b63d 7964 0bde b03f 4002 b12f 9359 bbbf
000006e0: fc9a 8d71 d9a1 b63f cd1b 8d0f 255c bfbf
000006f0: 1782 f951 f973 bfbf ccf5 1e0d 4340 c0bf
00000700: 70f0 0c90 cf07 9d3f 72be 1707 36f2 afbf
00000710: c45d bed5 00cc 9dbf 3ca6 17de 4545 a53f
00000720: fc41 6fbf a0c5 a3bf d4ba dcc3 ff61 c2bf
00000730: ca3a 8ae8 c86f a7bf 0045 6f4b 1e16 ab3f
00000740: e0f0 e5a7 b4ea be3f 0287 6bbc 80af b03f
00000750: 7ea5 d2af bdd0 babf 54d1 5e26 e34f ad3f
00000760: cc45 be02 6b87 c03f b64a df13 f9f1 a1bf
00000770: 1afe 1121 4bd1 a9bf d012 7435 57d0 8d3f
00000780: 15f2 404e b090 b5bf b976 c104 8c27 c0bf
00000790: f040 d929 d6cd 823f 404f d47a ac4d 813f
000007a0: 40f2 e9a0 c3dc 89bf 20b9 7b63 54fa 7a3f
000007b0: fe0c eb45 f5b9 b13f 50b6 e9be acab bc3f
000007c0: 8c41 def1 a6a3 b53f c045 78cd 5b98 bf3f
000007d0: 54cc 9012 0e70 ac3f e0d9 5cdf 4fed c1bf
000007e0: 6cf7 cf04 3498 a33f 105f ad3c 2669 a6bf
000007f0: a8a9 617f a288 adbf f8c2 475c f8fb b03f
0.012571277011868026 -0.029131397146818894 -0.0736770265601865 -0.03934362575999559 0.14034534765052015 -0.02875340436092365 -0.043660250822200444 0.049330667755858676
-0.10479079832145893 -0.026580991675127674 -0.024413944569062124 0.03610668666440525 0.10857340102321944 -0.003080407029361687 0.02156420224747435 0.0011382108327928075
0.08841152708048208 0.14457250168998526 -0.07578414342314514 -0.003638736315427077 0.08543993335510736 0.026962785319794735 -0.02412916947527935 -0.023651987636032323
-0.0821238275197104 -0.026052920632731125 -0.02052926996171381 0.0008624645205953796 -0.0986159238810618 -0.04189921132153017 -0.05266370135200332 -0.10824856504970679
-0.1442017550569084 0.05026673817742183 0.11817422313660342 0.09416522013043865 0.06799896756785948 0.013499170293729351 -0.052271125187666495 0.14031176740452528
0.12009469795630118 0.1011204948181233 -0.030345292700877657 0.13297154593997557 0.11278679875049491 -0.07792843064045556 0.013742143899771242 0.0275340409144825
-0.11401295069982645 -0.14516323145038548 0.07749779226294679 -0.11793967604025646 -0.038106880121439424 -0.004343962758847353 0.028429033996742348 0.018259540478153535
0.01974873349534842 -0.1227606055002543 0.05640216374881507 -0.026868600337128207 0.0282135509194551 0.13633224329165133 0.1443271948008627 -0.057255887698259025
-0.05729800183461341 0.03700905859173015 -0.029498498174086965 0.0028185594856467155 -0.08188184712024368 -0.033683496852593975 0.12635103100487577 -0.12651985377744254
0.1266786042285295 -0.12791789252032393 -0.1030826373427697 -0.11721813533589448 -0.048873606198891265 -0.06190586676158755 -0.0653556213205575 0.07594085719686389
-0.0016011824100736483 0.02583403142150803 -0.1518474410596988 0.07833272492798579 -0.12189812778207199 0.1141908818288499 -0.11072882330945444 0.03634466496313307
-0.0344975219197827 0.1192314964234037 -0.10404202146177974 0.10574661930377183 -0.03046401303005304 -0.028896406302394553 -0.11925953385643906 0.059585573083874105
0.06751032836519777 -0.008831491559271376 -0.09353368546426166 0.015103784826031391 -0.13912226360274874 0.05392958014245644 -0.036566355541150244 0.021057996342789875
-0.11817367381861224 -0.011306327979113767 0.03467144940186839 0.08315875688080718 -0.12918584045396153 0.005645240456281453 0.12778685422684255 0.148438879459399
0.11624736912884054 -0.09243532962154534 0.08410289580759481 0.02358238629148468 -0.0314573614232493 0.011355195576883165 0.13843794878162607 0.09675811825149169
0.14936159384479225 -0.005428903975038812 -0.043808021562876914 0.06623279979411689 -0.0029413919654930065 0.058314095198953364 -0.005672107140602761 0.07967847752152715
0.005750910070377535 -0.002083907571328314 0.021726475454735605 0.13494529004662115 0.10143374873947669 -0.07903698179140073 0.10527210877830129 0.02434205497845554
0.12073356324204293 -0.11334705365154228 0.10109445434041281 -0.06765244226234013 0.08867112141688094 0.09996513645387489 0.002455766096647133 0.10188848349971225
0.02025103944845638 -0.020793700039191843 0.08528333196087542 0.03907120428908156 -0.07344950692202691 0.11023607389456186 0.1452319480511739 0.11355637921526773
-0.04894394128664867 -0.03990286515286308 -0.0357710168268366 -0.047873381790530356 0.10770948382469592 0.06721219480441473 0.0895786278098061 0.1403591861469417
0.017458295181974087 -0.1427338518649655 -0.031554410746480424 -0.10464112293541997 -0.08621367705483145 0.07226384148987156 0.09296760085777075 -0.0854304528423445
-0.026216987105195516 -0.06586987818937592 0.05937972766050853 0.04269474779781582 -0.01669341846827943 -0.00685838268532038 -0.10702302909928127 0.13728906318039036
-0.02064887382149333 0.023694813168024575 -0.061975421743880155 0.08661998940909915 0.022790439812720803 0.1133965781503477 -0.14509265479614875 0.11840940751090684
-0.013033503326895401 -0.0751546065571819 -0.00013614669725584005 -0.038511444879812715 0.012480757872647186 0.00702140050589678 0.15064073826091595 0.13705257274614402
0.08040389491233074 0.03332505015435358 -0.1411712761128692 0.049584764176254625 0.1370483657645874 0.14398388665723877 -0.12395759303165998 -0.06469732687919363
0.14002710933605633 -0.13800594099241625 0.10699809252714126 -0.01812904018940459 -0.010659302846652313 -0.03147950651591072 0.0606130737926551 0.04585626289102565
-0.03089644735822207 0.07599912233305711 -0.08788632698564386 0.06868949169959507 0.08604630673786745 0.07219798325630625 -0.005258205098102486 -0.03591576139341114
0.10072936914701519 0.15225157018253682 0.0658881302163 -0.10683555521337329 0.08840712568563086 -0.12249976758640387 -0.12286337138494506 -0.1269611181323128
0.02835010830607171 -0.062394798627676176 -0.029098523183703554 0.04154413543785693 -0.03861715638015892 -0.14361569465241664 -0.04577472532866052 0.05290312453110779
0.12076882456853211 0.06517796135042533 -0.10474763433980702 0.05725011676205108 0.12913262971828343 -0.03504923217373827 -0.05042490748109803 0.014557534521835974
-0.08423902426233838 -0.1262068770619658 0.009181664611930235 0.008448932169393353 -0.012628105495644637 0.0065863892011590874 0.0692437453936243 0.11199454937897113
0.08452838330254603 0.12341855779984368 0.0555424115813358 -0.1400546875608617 0.03827059324974766 -0.04377097597779145 -0.05768306546163454 0.0663447594922778

bias f8 [1, 128]
00000000: 0000 0000 0000 0000 0000 0000 0000 0000
00000010: 0000 0000 0000 0000 0000 0000 0000 0000
00000020: 0000 0000 0000 0000 0000 0000 0000 0000
00000030: 0000 0000 0000 0000 0000 0000 0000 0000
00000040: 0000 0000 0000 0000 0000 0000 0000 0000
00000050: 0000 0000 0000 0000 0000 0000 0000 0000
00000060: 0000 0000 0000 0000 0000 0000 0000 0000
00000070: 0000 0000 0000 0000 0000 0000 0000 0000
00000080: 0000 0000 0000 0000 0000 0000 0000 0000
00000090: 0000 0000 0000 0000 0000 0000 0000 0000
000000a0: 0000 0000 0000 0000 0000 0000 0000 0000
000000b0: 0000 0000 0000 0000 0000 0000 0000 0000
000000c0: 0000 0000 0000 0000 0000 0000 0000 0000
000000d0: 0000 0000 0000 0000 0000 0000 0000 0000
000000e0: 0000 0000 0000 0000 0000 0000 0000 0000
000000f0: 0000 0000 0000 0000 0000 0000 0000 0000
00000100: 0000 0000 0000 0000 0000 0000 0000 0000
00000110: 0000 0000 0000 0000 0000 0000 0000 0000
00000120: 0000 0000 0000 0000 0000 0000 0000 0000
00000130: 0000 0000 0000 0000 0000 0000 0000 0000
00000140: 0000 0000 0000 0000 0000 0000 0000 0000
00000150: 0000 0000 0000 0000 0000 0000 0000 0000
00000160: 0000 0000 0000 0000 0000 0000 0000 0000
00000170: 0000 0000 0000 0000 0000 0000 0000 0000
00000180: 0000 0000 0000 0000 0000 0000 0000 0000
00000190: 0000 0000 0000 0000 0000 0000 0000 0000
000001a0: 0000 0000 0000 0000 0000 0000 0000 0000
000001b0: 0000 0000 0000 0000 0000 0000 0000 0000
000001c0: 0000 0000 0000 0000 0000 0000 0000 0000
000001d0: 0000 0000 0000 0000 0000 0000 0000 0000
000001e0: 0000 0000 0000 0000 0000 0000 0000 0000
000001f0: 0000 0000 0000 0000 0000 0000 0000 0000
00000200: 0000 0000 0000 0000 0000 0000 0000 0000
00000210: 0000 0000 0000 0000 0000 0000 0000 0000
00000220: 0000 0000 0000 0000 0000 0000 0000 0000
00000230: 0000 0000 0000 0000 0000 0000 0000 0000
00000240: 0000 0000 0000 0000 0000 0000 0000 0000
00000250: 0000 0000 0000 0000 0000 0000 0000 0000
00000260: 0000 0000 0000 0000 0000 0000 0000 0000
00000270: 0000 0000 0000 0000 0000 0000 0000 0000
00000280: 0000 0000 0000 0000 0000 0000 0000 0000
00000290: 0000 0000 0000 0000 0000 0000 0000 0000
000002a0: 0000 0000 0000 0000 0000 0000 0000 0000
000002b0: 0000 0000 0000 0000 0000 0000 0000 0000
000002c0: 0000 0000 0000 0000 0000 0000 0000 0000
000002d0: 0000 0000 0000 0000 0000 0000 0000 0000
000002e0: 0000 0000 0000 0000 0000 0000 0000 0000
000002f0: 0000 0000 0000 0000 0000 0000 0000 0000
00000300: 0000 0000 0000 0000 0000 0000 0000 0000
00000310: 0000 0000 0000 0000 0000 0000 0000 0000
00000320: 0000 0000 0000 0000 0000 0000 0000 0000
00000330: 0000 0000 0000 0000 0000 0000 0000 0000
00000340: 0000 0000 0000 0000 0000 0000 0000 0000
00000350: 0000 0000 0000 0000 0000 0000 0000 0000
00000360: 0000 0000 0000 0000 0000 0000 0000 0000
00000370: 0000 0000 0000 0000 0000 0000 0000 0000
00000380: 0000 0000 0000 0000 0000 0000 0000 0000
00000390: 0000 0000 0000 0000 0000 0000 0000 0000
000003a0: 0000 0000 0000 0000 0000 0000 0000 0000
000003b0: 0000 0000 0000 0000 0000 0000 0000 0000
000003c0: 0000 0000 0000 0000 0000 0000 0000 0000
000003d0: 0000 0000 0000 0000 0000 0000 0000 0000
000003e0: 0000 0000 0000 0000 0000 0000 0000 0000
000003f0: 0000 0000 0000 0000 0000 0000 0000 0000
0.0 0.0 0.0 0.0 0.0 0.0 0.0 0.0
0.0 0.0 0.0 0.0 0.0 0.0 0.0 0.0
0.0 0.0 0.0 0.0 0.0 0.0 0.0 0.0
0.0 0.0 0.0 0.0 0.0 0.0 0.0 0.0
0.0 0.0 0.0 0.0 0.0 0.0 0.0 0.0
0.0 0.0 0.0 0.0 0.0 0.0 0.0 0.0
0.0 0.0 0.0 0.0 0.0 0.0 0.0 0.0
0.0 0.0 0.0 0.0 0.0 0.0 0.0 0.0
0.0 0.0 0.0 0.0 0.0 0.0 0.0 0.0
0.0 0.0 0.0 0.0 0.0 0.0 0.0 0.0
0.0 0.0 0.0 0.0 0.0 0.0 0.0 0.0
0.0 0.0 0.0 0.0 0.0 0.0 0.0 0.0
0.0 0.0 0.0 0.0 0.0 0.0 0.0 0.0
0.0 0.0 0.0 0.0 0.0 0.0 0.0 0.0
0.0 0.0 0.0 0.0 0.0 0.0 0.0 0.0
0.0 0.0 0.0 0.0 0.0 0.0 0.0 0.0
