基础教程/A2-神经网络基本原理/第5步 - 非线性分类/src/ch12-MultipleLayerNetwork/LR_BS_Trial/w_64_16_Xavier_init.npz (npz, 8788 bytes, 2 tensors)

weights f8 [64, 16]
00000000: 0000 2f37 3697 383f 801f 626e 9300 b23f
00000010: 9238 eba2 cffb c6bf b670 7adc 4aed cdbf
00000020: a481 3daa dd3f a8bf fe7d 7b41 805f b5bf
00000030: 7edd 2e7e 90a7 b4bf 200e 9d28 3a14 cebf
00000040: 4876 6e01 f731 b33f 203b 5399 8c83 b7bf
00000050: 9952 61db 57df c3bf b032 e81c c545 bc3f
00000060: 88a3 9d0c 33ec a43f 1aa9 ffce ebf1 c63f
00000070: 90ea d9dd 6c20 973f 4042 39d8 c2e7 7abf
00000080: 20b4 3184 59e4 b03f 7844 8e95 2364 cebf
00000090: 02b0 b80f d763 b5bf d4e5 13ef 7ab9 cc3f
000000a0: 3411 75f0 9956 b63f c47c 76e3 a4f8 c53f
000000b0: 4622 2681 7161 d13f 2c4d 7758 1b43 cd3f
000000c0: 1ce2 0f4d e47a cf3f 50ce 47cf fd76 c53f
000000d0: 9c37 84bc db9c cdbf e082 cfbc 5904 81bf
000000e0: a231 4355 903f c13f 386f 97bf 3acf cfbf
000000f0: 680d 113e 6adb a33f f0f5 a252 d346 92bf
00000100: 5c3f 886f 2649 c0bf c0d8 f59e 2e07 b3bf
00000110: 00b0 9100 f0a3 333f c821 75ba c42b d03f
00000120: 189f 1c5b b247 c4bf 409f 6c48 99c9 cd3f
00000130: 2959 0b6f 7430 cebf 2047 f322 d444 bf3f
00000140: 6032 345f 7b9d b7bf d0c9 4970 2d75 9cbf
00000150: b494 ebd9 dc01 c4bf de09 10eb 0ffd b9bf
00000160: 5b38 d71d f69c c1bf ce7b 1a22 d61c c2bf
00000170: 605e 61d8 15ff a13f f660 fea2 98a9 b5bf
00000180: a202 e440 9505 c83f 54e3 080a ddd3 bfbf
00000190: 54f3 0d79 e67d a4bf 5407 1a1f 5af7 c0bf
000001a0: 60eb 7ef3 3ea9 8d3f 60b3 f542 ba38 a73f
000001b0: 9a6a 9e89 e10b c93f 3675 0a3b f56f ca3f
000001c0: d48a d0e9 097c aabf 00ea de12 356c 9c3f
000001d0: 7003 a1c9 61c2 a7bf f849 9257 39fd adbf
000001e0: f616 3ff1 7c86 d03f 4c0b 1d1a 7677 ce3f
000001f0: c8d5 2014 a6cc c6bf d637 9677 94d9 c4bf
00000200: 30f0 0c20 e9a0 b8bf eb7a 2531 633e c2bf
00000210: 1a48 77b9 c503 bfbf 007e d4df 4344 6f3f
00000220: 5039 0895 951f 973f fa18 86a3 27d9 c63f
00000230: 105a 3916 701c a13f 00de 48f8 1fa6 9f3f
00000240: 98b6 65e7 4fa9 c3bf e23c 5a74 b357 d03f
00000250: 88ca e381 0604 acbf eb03 59c7 42ee c1bf
00000260: 10bc cf5e c4e5 973f c838 75c6 a5f6 bd3f
00000270: 34da 817f e8a5 b03f 4a7a 332a 6a33 b4bf
00000280: d010 afe8 cab8 97bf dea8 6920 ea97 c0bf
00000290: 20f3 946f 0e8d 843f 184f 641b 3108 afbf
000002a0: 08f9 556f 98dc a9bf 38ac d74b dabc cebf
000002b0: e869 e5eb 09ee b13f 1352 f90f 6b1f cbbf
000002c0: 4c0c 3a01 3fb9 cf3f a210 f82e 058f d03f
000002d0: 7ca4 15e8 61a9 b9bf fa66 ebe0 8427 d0bf
000002e0: 1cdf 7e65 314e cabf 282b f13b f512 bebf
000002f0: 4a0a bb99 1c4c b1bf c516 f37c f3ab c1bf
00000300: 8016 228f 2bd3 963f 00e0 8ab6 eb25 ad3f
00000310: 08af e285 573a cfbf c0b1 05f5 92ac 7f3f
00000320: ac71 4d25 529a cc3f 4149 cdf0 4547 d1bf
00000330: 408c e442 85ae 803f 5526 a1d9 df5c c9bf
00000340: 64a8 0bfe 42e4 babf 1807 ce5c b73e a53f
00000350: 829a c548 06c7 ccbf 9e18 0bd2 f3a6 d03f
00000360: 5e67 809f eaa9 b4bf 8ca5 79a9 d16e bd3f
00000370: 202a bfb4 f821 bc3f dec1 8c77 72fd cb3f
00000380: 4e61 1c01 546f c33f 424d 8f7f 4c3c c93f
00000390: ae86 1a7a 837d c33f 0c67 45e9 f866 b3bf
000003a0: e08f b361 f5d1 9d3f c05f 9d0a 8d2e a4bf
000003b0: 03a7 0b00 b27f d1bf e2d6 21fd 621d bbbf
000003c0: 5a68 971f f318 cabf 8777 a20a 2b3b c0bf
000003d0: 005f 2544 c3a1 aa3f c8e0 7963 b0e7 b9bf
000003e0: 446d f7cd 7b68 d03f 925c b088 fdbb c43f
000003f0: 78b3 4fb5 ac40 c63f 3052 bd68 8305 bc3f
00000400: 400e ac95 f80a bebf a0cd 1b95 1600 94bf
00000410: a460 e765 2d03 bd3f 4ad6 4b89 8944 c7bf
00000420: 80c1 12b4 1e77 8fbf 288b a300 2a16 c3bf
00000430: 4c42 f1f4 7292 a2bf 14b0 fef6 6d0d b23f
00000440: 4470 d16e 7449 c9bf ae3c 85a1 ca76 c7bf
00000450: 144c 465e 98a9 c73f 5460 8739 22b2 d0bf
00000460: 30fd c6ba a675 cdbf 5888 c723 805d cf3f
00000470: 9a4a 9bdc 2bba b3bf 22bb 5f66 f292 b4bf
00000480: 3c60 81d3 d3ca c43f 8010 5fbb 0de4 773f
00000490: 202a 6cd0 8089 c03f 7668 f9d6 b1bd c63f
000004a0: 306c 3177 2858 983f b068 643f 2f5d 95bf
000004b0: d842 7158 01cd c23f 7b09 2ffd 35e4 c6bf
000004c0: 8011 f3d6 8444 bc3f a8dd 8eee 3c19 b63f
000004d0: c285 32c1 b519 ccbf 0232 9937 586c b3bf
000004e0: a9fa 4020 ce8b cdbf 760f fc06 90c5 b1bf
000004f0: 9ad9 c321 bc1e cc3f 4886 49a1 1fb6 cd3f
00000500: ec57 1dba a49e c7bf c6b9 ffe9 ca01 c23f
00000510: e048 487a 01fe c4bf d05f 6a0d 47cd c53f
00000520: c038 7158 9474 cd3f 3a15 f683 b289 c53f
00000530: 28ec 091d ba77 9dbf f8e4 23ce cd7d b8bf
00000540: e863 d1f4 21b9 aa3f d09f fe13 be82 9b3f
00000550: 2af3 b901 679a c5bf 3ec1 8346 b0ac ccbf
00000560: ecb4 efcb b0cf a7bf 7411 da6b 961a c4bf
00000570: 2eb8 4e07 e023 b0bf ee8d 5a51 e255 c9bf
00000580: 39ee 7805 3459 c3bf d8e5 2e87 0afb ce3f
00000590: 20cb f292 a6b0 adbf 2030 d32c 166f 81bf
000005a0: c0fd dfc7 ac99 95bf 9311 4ab3 6a5d d0bf
000005b0: 0223 85d2 5734 bbbf 30d5 cd54 35fb 91bf
000005c0: 7971 116f 60eb c6bf 80aa 542a 203f 90bf
000005d0: 40d7 dc72 48e3 aebf 882f c7ac b9d2 a33f
000005e0: 183b eaaf 87cc a73f 60e6 7c9e 78c9 b1bf
000005f0: 6479 b7e7 304d ba3f d4bf 7878 2964 ccbf
00000600: b479 572f bdb1 b1bf 646a ef28 47ed c23f
00000610: 64cb f5c4 08d3 b43f 7f3b 5278 ee89 ccbf
00000620: 7011 3945 3a45 993f d0c1 9820 c90e b83f
00000630: c042 5222 4ca1 a13f 3ec8 7921 b724 bebf
00000640: 94b3 adfb ff34 c6bf 8066 9f02 c32c cdbf
00000650: 34a2 96db 6d77 c63f 5556 8cb6 6407 c9bf
00000660: 4854 2b1b d564 ab3f 6c41 66ee 200c c73f
00000670: 8c55 56b1 56bb a4bf 6cd2 5603 0191 b23f
00000680: eca8 5810 da6e cf3f cca9 225b 3f0c cc3f
00000690: d618 d622 e02b b4bf 7ad8 46ea a926 c03f
000006a0: 640a 7554 2ac5 a5bf ab4b 7122 934e d0bf
000006b0: 64a6 523f 6f1c ccbf b0c4 7a9e c3fb 90bf
000006c0: 4d57 87d1 95c3 d0bf 82da 43c8 416a d1bf
000006d0: 807e 61cb 83cc 7dbf ec7f f9f6 2ac0 bcbf
000006e0: 1435 59a5 cd5c d03f 60c2 8c7a 1035 ae3f
000006f0: 3a5f eddb 7b32 bcbf 7410 2dfb 5f7d a3bf
00000700: 543d 8a54 bc16 b43f 300f bec1 8164 9e3f
00000710: baa6 8aa0 6613 cc3f 58a3 613d b8e0 bf3f
00000720: 1c8a f564 5672 cc3f 609c 683d df90 acbf
00000730: 84b1 b00c a80b b93f 0036 aa03 9a7f 713f
00000740: fa60 911c 9668 ca3f 8063 1604 00a0 a0bf
00000750: a0a4 61b6 dd56 a23f 36c3 d27e 7bee d0bf
00000760: a0ae adaa c44a b2bf 7ca0 781b a980 c03f
00000770: 8d8c 16e0 020b ccbf 505d 8f7d fb48 983f
00000780: 742e 3daf cf5c cd3f fa26 dde5 310a c83f
00000790: a86c ba89 5c0a c13f a05b caac d22b b93f
000007a0: 7a01 5fff f22c b9bf 5c39 f5ae 0d2c b03f
000007b0: e5dd 1b9d 7b09 c1bf 6476 1471 0e3d b53f
000007c0: bfb7 5d63 1115 c1bf 9e9f f1aa e711 c8bf
000007d0: f4ab 2e43 7b7f cf3f 1e33 6cc2 9eba c7bf
000007e0: ac22 baba fd9d c63f 2026 d672 2ac1 a4bf
000007f0: 6548 22dc c595 c0bf 0076 0b63 1bb5 b5bf
0.00037522386190502743 0.07032128758339518 -0.17955966429730502 -0.23380409017125253 -0.04736225798729102 -0.08348847960177605 -0.08068183022156991 -0.23499228461342714
0.0749811533446173 -0.09185103171624265 -0.1552533932869167 0.11043960529077412 0.04086455849648646 0.17925784690243846 0.02258463005135042 -0.00656868086987622
0.06598433949848515 -0.23743099977994908 -0.0835546887762462 0.2244104068156917 0.08725893135585211 0.1716505156191258 0.27157247173503085 0.22861043758039423
0.24593786013407815 0.167693830691507 -0.23134943680673536 -0.008309079241315798 0.13475231326300469 -0.24851164202743248 0.03878337867402132 -0.01784830276368682
-0.12723236509236358 -0.07432834034793512 0.0002996884291579516 0.25267141541237637 -0.15843800972765432 0.23271480594962135 -0.2358537237366332 0.12214399197844417
-0.09224673342050371 -0.027790746668367394 -0.15630684509884463 -0.10151767243227236 -0.13760258156838998 -0.14150501885612105 0.03514927164422654 -0.08461908320748876
0.18767038029183875 -0.12432652945507289 -0.040023042943153314 -0.13254858511578027 0.014482967191602192 0.04535467212085709 0.19567507953327806 0.20654168494085362
-0.05172759036238053 0.02775652816465346 -0.04640489183703422 -0.058572570743439856 0.25820849951956804 0.23802067065306642 -0.17812038405251784 -0.16289001311491685
-0.09620530159458052 -0.1425289144489946 -0.12115131166436335 0.00381673104006075 0.022581422063063628 0.17850203976212936 0.033420088494200084 0.030907153634158746
-0.15360449598977222 0.2553528438811111 -0.05471821151322326 -0.14008364423537442 0.02333742932017563 0.11704479308284299 0.06503155816049216 -0.07890952616023941
-0.023165865375418815 -0.12963606436398484 0.010034668712813721 -0.06060937365887592 -0.050511134711074546 -0.24013832762952503 0.07003843316252978 -0.21189630775428778
0.24784076270961675 0.25872926317993905 -0.1002408210384988 -0.2524120518188365 -0.20551125961150596 -0.11747677529744449 -0.06756762269200425 -0.13806003190091168
0.02228992520442441 0.05692993739415897 -0.2439679530847274 0.007732938815348367 0.22345949956333067 -0.26997517123995257 0.008145371536164459 -0.19814680220069883
-0.10504549696239135 0.04149411208983461 -0.22482374718966375 0.26018996727032995 -0.08071771997529484 0.11497221362664883 0.1098933640743458 0.218672092794363
0.15183496526948165 0.19715267399315378 0.15226787054148389 -0.0757899827489405 0.0291212406999789 -0.039417655511612804 -0.2734189033932212 -0.10591715507493007
-0.2038864044432696 -0.12680566806096413 0.05201540190563314 -0.10119154385199913 0.2563771735564908 0.1619870107103663 0.1738487134274711 0.1094591265403515
-0.11735490469077892 -0.01953158650480946 0.11332973230253401 -0.18177909091871164 -0.015363921995544372 -0.14911389380639517 -0.0362735675813651 0.07051741867206857
-0.19755416308442098 -0.18331272970906326 0.18486313441516755 -0.26087241762207225 -0.23015293235764878 0.24504091021578023 -0.07705949912932866 -0.08036723136295312
0.16243980243121026 0.005832723274526441 0.12919626404648543 0.17766402241506157 0.023773796343771803 -0.020863283390192222 0.1468812639091286 -0.17883944380271175
0.11042051551618748 0.08632260154887794 -0.21953460629906202 -0.07587195737250599 -0.23082901549238002 -0.06942081614039161 0.2196879544132571 0.23212046981193368
-0.18452891433361118 0.1406797068188565 -0.16400164099520165 0.1703270736222735 0.23012022322149583 0.1682646889059159 -0.02877703478086971 -0.09566961558074982
0.052193699965478235 0.026865930528998494 -0.16877448639197584 -0.22402003710841173 -0.046506428618025314 -0.15706138864710406 -0.06304741075902662 -0.19793347332334527
-0.15115976588445948 0.24203616715185094 -0.057988362730063026 -0.008512662165593154 -0.021094035815620193 -0.2557017088768358 -0.1062674416508678 -0.017559846211459618
-0.17905812667130386 -0.01586580522886516 -0.06032778169757913 0.03871708139521873 0.04648231527709451 -0.06948045605977304 0.1027403417315092 -0.2218067014923678
-0.06911833196452372 0.14786614893712902 0.08134512718770065 -0.22295933604297244 0.02467814490798176 0.0939756111699872 0.03443372649156151 -0.1177477318504154
-0.1734924296282797 -0.2279285204702326 0.1755196878632589 -0.1955381289814563 0.05350366551071112 0.18005763664815377 -0.04049178042184129 0.07252508479616332
0.245570428830724 0.21912376356097096 -0.07879448748107917 0.12617992343229273 -0.042519877252307464 -0.2547958217957624 -0.21961775390564064 -0.01658540396482938
-0.261937574975822 -0.2721104102815063 -0.007275118658156665 -0.11230724839833756 0.25566426417647503 0.058998599013993624 -0.11014532203023189 -0.03806590977777172
0.07847191871609499 0.02968027825364955 0.21934206808992035 0.12452270029610923 0.22223930291791383 -0.05579278587929859 0.09783411321467922 0.004272081011220674
0.20631672282139119 -0.03247070360084248 0.03581898547492668 -0.26455581078612356 -0.07145337264017337 0.12892640916220788 -0.2190860361270989 0.023715905703139584
0.2293948751124507 0.18781112407514639 0.1331287071705891 0.09832493513600449 -0.09834212050100702 0.06317220231469406 -0.13310189410525122 0.08296289692631259
-0.13345544196948642 -0.18804641577594067 0.2460779264486913 -0.18538269513410283 0.17669650666745917 -0.04053623821080188 -0.12957070587850975 -0.08479472320637882

bias f8 [1, 16]
00000000: 0000 0000 0000 0000 0000 0000 0000 0000
00000010: 0000 0000 0000 0000 0000 0000 0000 0000
00000020: 0000 0000 0000 0000 0000 0000 0000 0000
00000030: 0000 0000 0000 0000 0000 0000 0000 0000
00000040: 0000 0000 0000 0000 0000 0000 0000 0000
00000050: 0000 0000 0000 0000 0000 0000 0000 0000
00000060: 0000 0000 0000 0000 0000 0000 0000 0000
00000070: 0000 0000 0000 0000 0000 0000 0000 0000
0.0 0.0 0.0 0.0 0.0 0.0 0.0 0.0
0.0 0.0 0.0 0.0 0.0 0.0 0.0 0.0
