B-教学案例与实践/B6-神经网络基本原理简明教程/SourceCode/ch14-DnnBasic/chinabank_sigmoid/w_8_3_MSRA_init.npz (npz, 684 bytes, 2 tensors)

weights f8 [8, 3]
0	0x3fee79379f546215	0.952297030630748
1	0xbfe82fa939c88fd4	-0.7558179977972892
2	0x3ffc95a39b6ecf90	1.7865329810710797
3	0xbf9b8767e1ff1aa6	-0.026883719605190003
4	0x3f739c370c1d68e7	0.004787650135620525
5	0xbfcd53128d2fec15	-0.2290976704969984
6	0x3ffa7b0a6864a1e5	1.6550392225127493
7	0x3fe9c20994a09dd7	0.8049362089995452
8	0xbfddab440c62bc07	-0.46357823571719375
9	0xbfdf0d86e896652f	-0.48520062173482165
10	0xbfd79771caaa8f97	-0.3686184386408455
11	0x3ff17b341ecbe364	1.0925790026651265
12	0x3fe009b0ec0a4389	0.501182995811278
13	0x3fc3b6dc93ec7a2e	0.15401799414481004
14	0xbfe8bef9631d9aff	-0.7733122764446704
15	0x3fc8f445cc2e9a2d	0.1949546095831506
16	0x3fe22de5997e71ae	0.568102645676438
17	0x3fe5cf99e1c0ca36	0.6815919312705947
18	0x3fe0c99d456152c1	0.5246111254769731
19	0x3fdb9b10b9d9d506	0.4313394370031606
20	0xbfead89af6bf6348	-0.8389410800255996
21	0x3fe532dec3eb2721	0.6624597384008873
22	0xbff7319427517889	-1.4496041808957065
23	0x3fdf831763d07c96	0.4923761820554743

bias f8 [1, 3]
0	0x0000000000000000	0.0
1	0x0000000000000000	0.0
2	0x0000000000000000	0.0
