A-基础教程/A2-神经网络基本原理/SourceCode/ch15-DnnOptimization/nonlinear_regression/w_16_1_Xavier_init.npz (npz, 604 bytes, 2 tensors)

weights f8 [16, 1]
00000000: 80e8 e649 ca6e b33f e0f7 6cf9 9853 bcbf
00000010: b000 d44a fdd0 be3f 74a5 8452 2ee9 ce3f
00000020: 281c af32 9fc8 c33f a678 4d13 bb82 de3f
00000030: 00c0 ecbe 302b 9cbf 9af2 269a 4a75 debf
00000040: baa7 0f60 55db d1bf 6959 a481 1241 e03f
00000050: 0c53 9c33 7bf4 bbbf d5d4 0a25 1045 dcbf
00000060: 3e35 6834 5a1c de3f 80cd e503 8581 b83f
00000070: ccb7 1704 fd1d bfbf df2b 7ae0 4b5d e0bf
0.0759092741417664 -0.11065059747212969 0.12037642552241112 0.2414911177559521 0.15455999350362615 0.4767291725637598 -0.02750850835144547 -0.4759088998214708
-0.279012054261894 0.5079433948583701 -0.10919923791909641 -0.4417152749768552 0.47048049085499943 0.09572631211431393 -0.1215513358108346 -0.5113887199707924

bias f8 [1, 1]
00000000: 0000 0000 0000 0000
0.0
