基础教程/A2-神经网络基本原理/第7步 - 深度神经网络/src/ch14-DnnBasic/Income/w_16_8_Xavier_init.npz (npz, 1556 bytes, 2 tensors)

weights f8 [16, 8]
0	0x3fdd403c837f9dd8	0.45704567758226977
1	0x3fd60705e421df84	0.34417865065142217
2	0x3fc3b17afa1af610	0.15385377132581413
3	0xbfc74fc708b8f944	-0.1821221153822511
4	0xbfc66d77e9260628	-0.17521571048932683
5	0xbfc437fea7ee1a14	-0.15795882415496065
6	0xbfd9bbf82458e92e	-0.4020977358774357
7	0xbfa1319bc70c4960	-0.033581607864237695
8	0x3fd03e156e8dc47c	0.25378928943889156
9	0xbfd7e6740c76ff4a	-0.37344075410145605
10	0xbf857988b385f980	-0.010485713938348296
11	0x3fd507f3eb4f8fce	0.3286104009587206
12	0x3fd1f686cd951e62	0.280671787990718
13	0x3fdb554b5642842c	0.4270809500104089
14	0x3fcc661f69e3bc8c	0.22186653776541154
15	0x3fdef0a3b9117372	0.4834374720865561
16	0xbfc61786d18b2da4	-0.17259297591804768
17	0x3fdd702fc615ec3a	0.4599723276548421
18	0xbfd226f3f39cb710	-0.2836274985337335
19	0x3fd0d57fe101f840	0.263030976995541
20	0x3fd94390c529269e	0.39474887136439374
21	0xbfd6292c9554a9ba	-0.34626307089879627
22	0xbfc56184dbabbe78	-0.16703854299656817
23	0x3fdcf46759c36244	0.4524172188371589
24	0x3fb58ffb713dec40	0.08422824396795736
25	0xbfc016661c567f0c	-0.12568355926213604
26	0xbfd1bc329471a636	-0.2771116685531497
27	0xbfa1169e34d640a0	-0.03337568659765222
28	0x3fd32f9a353cc9f4	0.29978041838617675
29	0xbfcb033084e646a8	-0.21103483666643297
30	0xbfdc6356cb139dec	-0.4435631735964012
31	0x3fd411044e03b036	0.31353862398714527
32	0x3fc51efeae7c5e70	0.1650083877545856
33	0xbfdba4126e29b6ce	-0.431889159756662
34	0x3fd317be0581ddb2	0.2983241132528419
35	0xbfd66c2c6535a984	-0.35035238155128234
36	0x3fd5ac881615e460	0.3386554923704974
37	0xbfa01db34b47e820	-0.03147659582096218
38	0x3fc53be8bd5a8658	0.1658907818391977
39	0x3fa8f3a508657f10	0.048733861231765485
40	0x3fd21d56166039e4	0.283040544368218
41	0x3fbf0db48fe34260	0.12130287659534522
42	0x3fbafb3b63d6a668	0.10539599597418603
43	0x3fd0c4aab507f57a	0.26200359038178755
44	0x3fcc9b3292234bd8	0.22348625312460402
45	0xbfbd65a16af217c0	-0.11483200894335166
46	0xbfd6345007f04d90	-0.3469429090048033
47	0xbfd836c6d01628b8	-0.3783432991118718
48	0xbfdfdff9b43ca9d6	-0.49804537392870196
49	0xbfccd1445110a800	-0.22513631780867627
50	0x3fd2509b5d69ca24	0.28616985437762055
51	0xbfd85492c81830fe	-0.38016194859007146
52	0x3fd5fb8e807528aa	0.34347879929249336
53	0x3fcc927dcfac8304	0.22322056427312742
54	0xbfd0df40db9e45a8	-0.26362630316824687
55	0x3fc350ca421f7500	0.15090301731735423
56	0x3f83a80e32a82bc0	0.009597884102751197
57	0x3fd515b02f5869ae	0.3294487440449768
58	0xbfc8ca53f6a92ed8	-0.19367456001270145
59	0xbfb8f53012e50400	-0.0974912687425018
60	0xbfd9a39668a99aca	-0.4006095907301811
61	0x3fdb065dd9706a66	0.4222635863713208
62	0xbfd63b481d6cdb96	-0.3473682677608222
63	0x3fced8328f0e7a60	0.240972823955377
64	0x3fd757afb15e91ae	0.3647269470332287
65	0xbfdfea2f272ff218	-0.49866846873172355
66	0x3fda5a28da5917a6	0.4117529041581015
67	0x3fd8abdad41221cc	0.38548918447534386
68	0x3fcf281bbde334b0	0.24341151019908613
69	0x3fd038b322c56ce4	0.25346067805885597
70	0x3fcd49f8ee3114d0	0.22881995802359834
71	0x3fbced296adec6c8	0.11299380168091055
72	0x3fdbdc3c485c6888	0.435317106881151
73	0xbfce8a9b17c8a740	-0.23860491429632624
74	0x3fdbce7a7dc35eb8	0.4344774463802241
75	0xbfd8cd800410c66a	-0.3875427283956926
76	0xbfc6cb654a972f8c	-0.17808214323156013
77	0xbfd8f97894ef39d0	-0.39022650284178173
78	0xbfc3e3d7e4914b14	-0.15539072666668885
79	0xbfd816041f0fe2de	-0.3763437560406099
80	0xbfdc7d90f0ee0b46	-0.4451639511900577
81	0x3fd4cdcf41569598	0.3250616205280834
82	0xbfd785fc13f7d876	-0.36755277585996937
83	0x3fc45275bdda3f94	0.15876647730010218
84	0xbfda4cec93fe6c08	-0.41094507648966827
85	0xbfc73abc496168ec	-0.181479965048147
86	0x3fd31051ae615a02	0.29787103680919824
87	0x3fd06dd89ab4701a	0.2567044745244417
88	0x3fb5264231e5efb8	0.08261502950875765
89	0x3fcc8323069d9534	0.2227519781401185
90	0xbfbc190d03524998	-0.10975724536027653
91	0x3fd83ada26b0b198	0.37859205034581
92	0x3fdb9ea5d8b1d0bc	0.4315580955656164
93	0xbfc8536b07e26084	-0.19004571804976333
94	0xbfcf6a8fb292f874	-0.24543949336470272
95	0x3fd73dfed8d51bde	0.3631589047913034
96	0x3fd23649f42f1894	0.2845635304078169
97	0x3fd45fef00459dcc	0.31835532213741824
98	0xbfcd4864055724b0	-0.22877168904077427
99	0xbfd10b1ddad82a30	-0.26630350467226815
100	0x3fd7c15ebc204264	0.37117737170868836
101	0xbfd09aa0a03be664	-0.259437710264683
102	0xbfd8a8ffe23c4804	-0.3853149136858749
103	0xbfc77c49df4b66cc	-0.1834804859452589
104	0x3fced2dd9ac52e58	0.24081010872974917
105	0x3fcfb0052be22b94	0.24755921023128435
106	0xbfd9a1246b160636	-0.40046034295673694
107	0x3fc64179f4d35a44	0.1738731809079629
108	0x3fcd65f2d1333050	0.22967372145501708
109	0x3fd216c61e19bcae	0.2826400083494701
110	0xbfdd80743fc9923c	-0.46096521596180984
111	0xbfa7f8d3517c3b60	-0.046820262619909014
112	0x3fb34d5ba0fbb1d0	0.07539913826230493
113	0xbfdf569df47a9164	-0.4896616828430267
114	0xbfdbb7ea4accc3dc	-0.4331002932040613
115	0xbfdbe4258c8a4378	-0.43579996800058707
116	0x3fcc2d22352d09b0	0.2201273688934413
117	0xbfd8e537ea2985d2	-0.3889903818836419
118	0xbfd01b2f96f1c9e4	-0.2516592954699759
119	0x3fdcf6b81043f7e4	0.4525585326044832
120	0xbf98ddc0a84e7320	-0.024283418915376775
121	0x3fca5cbc4eb2d4c4	0.20595506518080786
122	0xbfd4facfcb8fbfe4	-0.32780833128981457
123	0x3fd3cd58d41310cc	0.30940838537595705
124	0x3fb0fb9608cf1c30	0.0663388988024145
125	0xbfdde87c682854ae	-0.4673148171580789
126	0x3fd56f9d46526586	0.33493739955300617
127	0x3fc74fe21f174350	0.18212534444912842

bias f8 [1, 8]
0	0x0000000000000000	0.0
1	0x0000000000000000	0.0
2	0x0000000000000000	0.0
3	0x0000000000000000	0.0
4	0x0000000000000000	0.0
5	0x0000000000000000	0.0
6	0x0000000000000000	0.0
7	0x0000000000000000	0.0
