基础教程/A2-神经网络基本原理/第7步 - 深度神经网络/src/ch14-DnnBasic/Income/w_8_4_MSRA_init.npz (npz, 756 bytes, 2 tensors)

weights f8 [8, 4]
0	0x3fe58ecdde48aa1a	0.6736821500283583
1	0xbfbef8fe5831bc85	-0.12098683980160459
2	0xbfe44db7216fe294	-0.6344867375438121
3	0xbfea2da52c581b18	-0.8180719247910444
4	0xbfc4bde70835d57f	-0.16204536343472495
5	0xbfcbfe5dac1d359d	-0.21870013145455128
6	0xbff0a4487d7c85f3	-1.0401081945241202
7	0xbfd1fa6e07c140ca	-0.2809100223285098
8	0x3ff1415ca0fa71b0	1.0784574783529983
9	0xbfcf8e6820e75ed9	-0.24653340918188496
10	0x3fcc47f389e65508	0.22094578011880395
11	0x3fe8862f8489b1a2	0.7663800800924501
12	0xbf91e839d89993a9	-0.017487434239587128
13	0xbfc039caaa61a148	-0.12676366156962104
14	0x3fad2a7e7b4c3de0	0.056964829016688645
15	0xbfb22e94a34f47bf	-0.07102326380780165
16	0x3fd54412e4fe0d15	0.33227989542520336
17	0x3ff31fb4432ea5ca	1.1952402710252152
18	0x3ff01848e88e6814	1.0059289058904186
19	0x3f9514362c1285f4	0.02058491367336575
20	0xbfd5a635ef78a80f	-0.33826969514723343
21	0x3fd873e4ff117509	0.3820736399555505
22	0x3fddb3fd7857ca48	0.4641107249473504
23	0x3fcfdd6bfeb55ed8	0.2489447587674849
24	0xbfdf70ec6f732fd4	-0.491267308080521
25	0x3fe73ce7b504947a	0.7261847053056407
26	0xbfb6b34007d9222f	-0.08867263976674943
27	0x3fd56b11a82d1c77	0.3346599714609008
28	0x3fc5806192edc817	0.16798038172015659
29	0xbfd3a693958f7608	-0.30704202275759984
30	0xbfe46614f3771b58	-0.6374611621075514
31	0x3fe052f90302c1a7	0.5101285036853839

bias f8 [1, 4]
0	0x0000000000000000	0.0
1	0x0000000000000000	0.0
2	0x0000000000000000	0.0
3	0x0000000000000000	0.0
