基础教程/A2-神经网络基本原理/第7步 - 深度神经网络/src/ch16-DnnRegularization/mnist_overfitting/w_784_30_Xavier_init.npz (npz, 188868 bytes, 2 tensors)

weights f8 [784, 30]
00000000: d63b 89a4 9d57 a33f 4560 6ab9 be5c b5bf
00000010: 7a17 809c e2a9 9dbf 653e ab4d 7753 b3bf
00000020: fa5d cc5a 86b5 9dbf 0040 3513 8e9c 553f
00000030: 77ec c7ff 0e4f b33f 2bfc 2c88 6690 b43f
00000040: 2531 c441 6f9d b03f 1011 0923 f5b9 b3bf
00000050: c034 b670 ab36 953f a144 f06a 361d b13f
00000060: 4cfd 04b9 f6d1 aebf 04db b93d 5b12 b4bf
00000070: aec6 bdc9 e1ff ad3f 03f3 0223 ebba aebf
00000080: 3e5c ca0a d0a6 ae3f 00ca 8f6b 0e57 423f
00000090: 805d 03fb 2410 963f 201e d800 767c 6e3f
000000a0: 1654 66b5 032e b2bf 0077 0dee e3e4 7b3f
000000b0: 68bb 6bdd 4a07 87bf 6852 da6b c44d 84bf
000000c0: 42be c75f 703c a53f 6004 6817 3dc8 81bf
000000d0: 8c45 9309 2cbf 97bf 1919 c899 4a88 b0bf
000000e0: dfef 6bf7 7056 b03f 234a c1ba 975c b33f
000000f0: c251 a491 ce15 a6bf 415c 1275 88ff adbf
00000100: a97b 37f8 4731 b0bf a804 466b 63ae 9bbf
00000110: 5494 2078 5213 923f f270 7b4e 4de5 a53f
00000120: bc43 bb8a e1f1 a1bf 2064 dbcc 1f3e 973f
00000130: 8b1a 0a73 85b9 b43f 0ba1 9138 15b5 a0bf
00000140: 56c8 1a3d 85cd ab3f 0af1 c7be 98ff b2bf
00000150: adab f6c6 61f7 b2bf 9da9 82d0 e5bb b2bf
00000160: c660 3bbb c86c b0bf 00cc 045b 2073 adbf
00000170: 1065 b1cc f700 9f3f 304c c6d9 9179 7ebf
00000180: 5a39 938c b3ca a93f 097b c5e0 84cf b53f
00000190: 4055 b96b fca5 6dbf 5079 b8f2 d9bf a6bf
000001a0: 3f0d 7471 5b39 a9bf 00ae bf9b 906b 3b3f
000001b0: e43c bcb4 f366 90bf c094 1853 9da4 b2bf
000001c0: 83df 4740 da4a b33f 06d6 5910 0d0a ad3f
000001d0: 7c11 5a4e 2767 983f cbd9 271c 9651 a2bf
000001e0: e5e4 bd48 d7d5 b03f 008b 964e abb9 acbf
000001f0: c635 2467 10ac 9cbf ce85 189c 0766 9bbf
00000200: 1f3b feb3 ccf7 b53f a6a1 a9c9 ad08 acbf
00000210: b91a 05b1 22c4 b23f 84f1 2abe ebb8 99bf
00000220: ce7b d9c6 f4be afbf 120a 0412 0f33 a93f
00000230: 5f59 27ac dc9d b23f 5710 fce6 6d81 a5bf
00000240: dcdb 4b96 e725 acbf 705e 2a0a 4c89 8c3f
00000250: f9cc 42c3 3a43 a0bf cbee a61d 7d95 b43f
00000260: 8028 f501 a29d 6fbf fb7c 0dbd 5541 a6bf
00000270: 042f 4b85 a662 a33f 9ab1 ef20 b240 9ebf
00000280: e41d 61ed de26 973f 4ecc 8a9f 0031 af3f
00000290: 4401 3e44 d28b a4bf 589c ef99 9186 a0bf
000002a0: c871 d09e 90a8 a03f 14e3 5e9c 5bf9 903f
000002b0: 88e9 1f39 6c42 903f 7ab6 1a8d ef82 ae3f
000002c0: 00e8 e8cd b3a2 683f 92b7 d712 6bfb b1bf
000002d0: b017 26a1 5e02 97bf 989f 6e80 1254 933f
000002e0: d0ea dcd9 977d 87bf 16e2 92ee bdb4 a03f
000002f0: 6f88 1001 7bf4 b2bf 34da 6575 9aba 973f
00000300: 5cfa 92f7 5ae7 953f 2c8c 0793 a104 9a3f
00000310: 9021 0a29 cc0b 7c3f 5f11 80da d03a a6bf
00000320: c8e2 c1ca f025 a03f 55cc 5521 d444 b03f
00000330: 1c2f 57de 70b1 953f 3c4e d999 5693 97bf
00000340: 26ff 79a2 1ce3 aa3f f218 fe20 ee52 a73f
00000350: a301 6370 6311 b5bf 463c f5ae 516c ac3f
00000360: e0ec 1518 09ac 6dbf 124a fa87 8532 9dbf
00000370: bcd5 b0f9 d2f5 9abf 00b5 00fc 695e 6ebf
00000380: 64da 60dd 3374 aabf 92f4 0fa9 b093 af3f
00000390: 83eb 8d6a bee1 b33f d0e9 bcc5 8969 92bf
000003a0: 4937 ad1a 586a b23f 23e0 cab3 a00e a9bf
000003b0: 52a5 746c 67ce b0bf 552a bc46 4a40 b13f
000003c0: c87f 0d90 ceb5 a03f b86b 2e7c fe0f 803f
000003d0: a19e 977f 8117 aebf 122b 704c 16c8 a3bf
000003e0: e3bc a330 2aac b43f c0a5 0947 ad73 91bf
000003f0: 0403 20b0 60f6 a5bf 9822 5ac8 cd13 81bf
00000400: 1be1 a866 998f b43f 4bc7 6aa2 23c9 a4bf
00000410: 4ed1 3828 19b4 a13f de37 a02b 49ae ab3f
00000420: f78d 3991 f4ba b03f da55 d899 5485 a63f
00000430: c86f e0a2 ce93 823f 408e 6c65 b9d9 b0bf
00000440: 4739 f684 38cf b43f e0c8 38c6 9fee 94bf
00000450: aa48 6074 0ffe a23f aae7 01e8 3ede acbf
00000460: 41ac fa14 10c3 b1bf b9f8 874a ccd7 b43f
00000470: a60a d913 2453 b2bf 7a5e f59b 0d4d a4bf
00000480: cc70 60f0 ddc0 9c3f 30c2 2e20 1482 90bf
00000490: 0ea9 a4b4 957a 9dbf e8e8 660d e2e2 b2bf
000004a0: b08f 7d95 c66e 71bf b3ae 2649 7ff2 b4bf
000004b0: 68e6 ebba 2050 b0bf 0a83 dc69 699a ae3f
000004c0: 9050 2b46 5490 7a3f 84fb 62b6 62b6 a7bf
000004d0: 36a3 d980 45f5 af3f f7e3 3ea7 b3d0 b5bf
000004e0: e62a b26d d08a b2bf 7664 6faa 67c5 a3bf
000004f0: 603f 28e8 6170 963f fb9e 746b 2ac4 b33f
00000500: 15f9 1ae7 479c b13f 9504 a081 5a82 a7bf
00000510: 00a0 0499 1bff 7cbf cefd 13d8 d38c ae3f
00000520: d7ea a025 56d3 a3bf f231 9c67 2b64 ab3f
00000530: 50eb 7176 2dee 89bf a0c9 1851 392e 6b3f
00000540: 6a14 3571 24fe ac3f 3359 ab65 9e0a b53f
00000550: 7a56 94ff 5b07 a0bf 986f d717 813c acbf
00000560: a07d 30cc d2e5 603f 1875 31e0 52ee 8b3f
00000570: 2ead 20ba aadc b2bf 624a e695 6c9f a43f
00000580: 56e9 c144 7671 a83f b896 2998 cc01 a13f
00000590: 2a74 6fa6 0c49 aa3f 2be7 f99f 33bd a1bf
000005a0: c2e3 8952 6dbd ab3f 08f2 43ed ce3d 82bf
000005b0: 077e 3ad2 30d6 abbf eaab 389c f56e ab3f
000005c0: 0b6b ecfb 641d a7bf adee 96df 937a a7bf
000005d0: c8ce 8d72 6137 a0bf 18e6 7c94 113b 94bf
000005e0: 7aba ef10 bf9a a73f 0017 38f6 a23a a6bf
000005f0: 0ef6 9dbc 0150 afbf 9440 a0c6 4cd9 9dbf
00000600: 8556 2c3b 8d04 acbf 2b59 bde4 34c6 b23f
00000610: 24f4 9e38 d0ab 903f 27e7 8435 53e1 b43f
00000620: 5922 643d a67b b53f 483a a6d3 da2d b5bf
00000630: d207 c2fb bc43 a43f 301e e329 1e3a 843f
00000640: aaa9 2624 b297 b2bf 80cf e9c4 0a34 8f3f
00000650: 994b 7e86 5ea6 b3bf 5780 060c 6848 b43f
00000660: 8619 a6f3 9ef0 aabf f040 196a b0ae 93bf
00000670: e167 4590 b013 afbf 606f 79c7 5cee 7e3f
00000680: 8e0e 3b4e 0db4 a33f 2900 c283 3ad9 b23f
00000690: f877 3494 7bdd acbf cad9 7f68 cbdf ae3f
000006a0: f8c2 48e9 70dd 9e3f 4f11 05fc fbb9 b33f
000006b0: 300e c3a6 f4f2 873f 40c1 113e b400 8a3f
000006c0: 53c9 9818 5d71 b43f cafe 5820 8186 af3f
000006d0: d0d2 82a0 9eb9 97bf 4049 dff5 9b7a 77bf
000006e0: 8ad1 5878 2d75 a3bf cd5a 48b0 e539 a1bf
000006f0: b882 fecf e391 903f 08db a62f 6bb4 b4bf
00000700: d45e 311c 0f77 9f3f ba53 aef7 de35 b1bf
00000710: 7e6c c76b 3373 9abf 1324 d83e a020 b23f
00000720: 3cbd b88f 96f2 a33f e874 3605 957c 8fbf
00000730: 28a0 e2f7 0974 a33f de7e bfcc e6ad b0bf
00000740: 9899 ab72 d084 923f ce57 1683 820f aa3f
00000750: 9e8d c606 9807 adbf 8965 9d76 0337 b33f
00000760: 1045 8eda a2bb 7cbf 40d1 9f36 a7b1 6c3f
00000770: a563 0776 d14c b3bf 40b4 17c8 ab51 553f
00000780: 7644 5534 943a a23f 36fc 487e 79e4 a6bf
00000790: 2070 303b 5d0e 833f 2c0a 26e8 f615 903f
000007a0: 5a2c e4c2 1224 ac3f dc5c 7d77 7bb8 943f
000007b0: 364f 0961 ff2d a43f 0815 683b 3d6b 913f
000007c0: e176 7806 00cf b23f 786d 6c87 3fd2 8e3f
000007d0: abea 45ef 2d5d b43f 30ef 72cc cf10 71bf
000007e0: a83a 4a83 11d3 8bbf 400f 325a 19fe 6c3f
000007f0: 3aa8 0852 d5d4 aabf 5ce3 fe22 364e b1bf
0.037777830443353075 -0.08344642664667486 -0.02896837310984022 -0.0754923405286206 -0.02901277474583528 0.0013190638972737645 0.07542508835460802 0.08032837700464827
0.06490226131080996 -0.07705623727185107 0.02071636081159478 0.06685199843220115 -0.060195646367442096 -0.07840509659750344 0.058592849613785844 -0.06001982500445104
0.05986642963142018 0.0005596943293524892 0.021545961208941034 0.0037214569808872305 -0.07101462534622302 0.006810083724159588 -0.011244377977588108 -0.009913954297453745
0.041476737682270684 -0.008682706143192387 -0.023190200886181553 -0.06457964186128996 0.06381898918692695 0.07563160237740667 -0.04313512351851358 -0.05859018735025546
-0.06325197038630272 -0.02703242628331695 0.01765183313559178 0.04276506026300976 -0.03504853075504097 0.02269792259071235 0.0809558301790309 -0.03263155284440885
0.054302371701297744 -0.07421259553661144 -0.07408724887379377 -0.07317959156595184 -0.06415991374103944 -0.05751896964138581 0.03027713000151261 -0.007440156678415952
0.05037461367611469 0.0851977394827196 -0.0036191873639760674 -0.04443245971582377 -0.04926572570732412 0.0004183986709438148 -0.016017730623443152 -0.0728243186827795
0.07536090916971543 0.056717308279001385 0.023830999524322646 -0.03577870458314044 0.06576295400545325 -0.056104043334263665 -0.02800012235188889 -0.02675640001519302
0.08581237215387859 -0.054753714434642206 0.0733052904298387 -0.02511947963897533 -0.062003754876733916 0.049217673253242236 0.0727212829873216 -0.04200309223782089
-0.05497668943092268 0.01393374830267577 -0.03176292069965742 0.08040601705482257 -0.003859344884095839 -0.043467215850563755 0.03786201836700623 -0.029543669948837704
0.022609217871176215 0.06092073390518547 -0.040129252271983634 -0.032276678124440294 0.03253604830408424 0.01657622472677918 0.01587838267003286 0.05959271047082111
0.0030072700313015233 -0.07024258813882359 -0.022469976983778117 0.018875397766947438 -0.011470018707418289 0.03262895142819759 -0.07404297615042464 0.023172772803684974
0.021390363083577987 0.025408291434256977 0.006847188473905766 -0.04341747920264782 0.03153946375909339 0.0635502416023866 0.02118469578799341 -0.02302298845309124
0.052513975938380406 0.04555458214513121 -0.08229657644097314 0.05551390896527457 -0.0036220719927634176 -0.02851303713266346 -0.026328369607844 -0.003707129479173177
-0.05166780545589658 0.06167366088627903 0.07766332723069351 -0.0179807211818373 0.07193518306050097 -0.04893972582561925 -0.0656494750770851 0.06738723971299383
0.03263707645851316 0.007843006291116214 -0.058773085427501266 -0.0386359184559152 0.08075202643862016 -0.017042834721370914 -0.04289533758129063 -0.008338554074059076
0.08031615024890863 -0.04059707028990419 0.03457716575613522 0.054064070296689457 0.06535271211173908 0.04398598077765899 0.00907098230896243 -0.06582220770047176
0.08128693815362907 -0.02044152877187677 0.03709457679373547 -0.056383100339146466 -0.06938267242610242 0.08141781634910474 -0.07158112988057982 -0.0396503689650531
0.028079479023390516 -0.01612121054103194 -0.02878793635424253 -0.07377446009823851 -0.004256034582656484 -0.08182521377482992 -0.06372265399468235 0.05977181832554919
0.006485299297043792 -0.04631336666488209 0.06241814802053229 -0.08521578629633085 -0.0724306361973209 -0.038615455203122304 0.02191308001971437 0.07721200107027563
0.06879090683193952 -0.045916393588421624 -0.007079227260227583 0.059668178679199366 -0.038721744626362735 0.053498608014795127 -0.012661318947939343 0.0033179397076079226
0.056626452273612696 0.08219327909623501 -0.03130614752641932 -0.055149110946984325 0.0020627133503833966 0.013638160197099 -0.07367960971958062 0.040278809831893594
0.04774064626049561 0.03321685178233963 0.05133857280427663 -0.03464661910852692 0.054179588628307865 -0.008906952491536849 -0.05436852041497891 0.05358092815398392
-0.04514613700140132 -0.045857068103456335 -0.03167252086032374 -0.019756579101544686 0.046102495973049565 -0.043416111522715184 -0.061157278322735306 -0.029149245856445363
-0.054722226594248226 0.07333689293350136 0.016280415969721088 0.08156318718547749 0.08391798971946098 -0.08273093859882252 0.03957930157868329 0.0098764759571984
-0.07262719519227426 0.01523598111564417 -0.07675734313515505 0.07922983449543729 -0.05261704181889386 -0.019221073604342942 -0.06069709550020242 0.00755153886674606
0.03848306255306709 0.07362714497321633 -0.056377279130387536 0.06030116701724671 0.0301416056046859 0.07705664542033229 0.011693869914217364 0.012696655410963431
0.0798547921229205 0.061573062132536174 -0.023169020220580816 -0.005732163639509402 -0.0380033692748923 -0.03364484574210778 0.016181525773961453 -0.0808779708230355
0.030727611633067323 -0.06722825571917115 -0.0258300814183312 0.07081033262524299 0.038960175556321336 -0.01537434026868785 0.037994681844168376 -0.06515352724772636
0.01808477115528148 0.050899580480446724 -0.05669856150350515 0.07505818982953917 -0.00701488127460094 0.003502680386185869 -0.07539090282024448 0.0013012101702501028
0.03560317171889775 -0.04471187273565429 0.009304741257487648 0.015708787841058378 0.05496271733326159 0.020234994094917677 0.03941343364263476 0.017010647536172235
0.07347107084248307 0.015049454040812135 0.07954680530194007 -0.004166423524278248 -0.01358617479243425 0.0035391326105712884 -0.05240503908528678 -0.06759966234575415

bias f8 [1, 30]
00000000: 0000 0000 0000 0000 0000 0000 0000 0000
00000010: 0000 0000 0000 0000 0000 0000 0000 0000
00000020: 0000 0000 0000 0000 0000 0000 0000 0000
00000030: 0000 0000 0000 0000 0000 0000 0000 0000
00000040: 0000 0000 0000 0000 0000 0000 0000 0000
00000050: 0000 0000 0000 0000 0000 0000 0000 0000
00000060: 0000 0000 0000 0000 0000 0000 0000 0000
00000070: 0000 0000 0000 0000 0000 0000 0000 0000
00000080: 0000 0000 0000 0000 0000 0000 0000 0000
00000090: 0000 0000 0000 0000 0000 0000 0000 0000
000000a0: 0000 0000 0000 0000 0000 0000 0000 0000
000000b0: 0000 0000 0000 0000 0000 0000 0000 0000
000000c0: 0000 0000 0000 0000 0000 0000 0000 0000
000000d0: 0000 0000 0000 0000 0000 0000 0000 0000
000000e0: 0000 0000 0000 0000 0000 0000 0000 0000
0.0 0.0 0.0 0.0 0.0 0.0 0.0 0.0
0.0 0.0 0.0 0.0 0.0 0.0 0.0 0.0
0.0 0.0 0.0 0.0 0.0 0.0 0.0 0.0
0.0 0.0 0.0 0.0 0.0 0.0
