A-Basic Course 基础教程/A2-Neural Network Basic 神经网络基本原理/SourceCode/ch14-DnnBasic/chinabank_relu/w_8_3_MSRA_init.npz (npz, 684 bytes, 2 tensors)

weights f8 [8, 3]
000000 83 2f 22 6d 7c ff d7 3f e6 40 a7 71 f0 d9 94 3f
       0.3749686303860857 0.020362622200821877
000010 9c 85 4d 71 6c f7 ef 3f a3 ca a9 78 b1 cb b8 3f
       0.9989530766435339 0.0968581122959145
000020 66 ea 90 4a 4b 72 e4 bf 61 83 97 de ab 80 f2 bf
       -0.6389519173020062 -1.156413907527359
000030 6b 76 49 b8 2f ee f0 bf 87 44 b4 1d be 44 91 3f
       -1.058150977965307 0.016863794863699624
000040 52 32 37 0a 3a 76 da 3f 7f 50 23 64 63 15 c7 bf
       0.41346598622911757 -0.18034021749065585
000050 a9 ec f8 0d 53 fd eb bf 6d 6c 14 14 4a a3 c8 3f
       -0.8746733925721816 0.1924831960721777
000060 9b 91 9e 0c fd 7e d4 bf f8 62 51 52 df 7c e7 3f
       -0.3202507613407534 0.733993206765347
000070 00 36 63 04 77 22 c4 3f de 47 30 e8 0d ab eb bf
       0.15730178560481534 -0.8646306548055198
000080 4c 99 21 60 3f 7c e2 bf 2d 7c 07 3e 1e b5 e7 bf
       -0.5776669385493647 -0.7408591472157063
000090 44 67 37 30 8f 44 f1 bf bd ce 7e 0b e5 85 a2 3f
       -1.0792381175474057 0.03617778554271698
0000a0 2c 4e ee e3 7b 9c eb bf db 8a 75 9d 3d aa ba bf
       -0.8628520442748076 -0.10416016668527155
0000b0 ff 2a dc 99 52 a8 c1 bf a0 7f 84 86 b9 36 d1 bf
       -0.1379492999334033 -0.26896513115388565

bias f8 [1, 3]
000000 00 00 00 00 00 00 00 00 00 00 00 00 00 00 00 00
       0.0 0.0
000010 00 00 00 00 00 00 00 00
       0.0
