A-基础教程/A2-神经网络基本原理简明教程/SourceCode/ch16-DnnRegularization/augmentation/w_784_30_Xavier_init.npz (npz, 188868 bytes, 2 tensors)

weights f8 [784, 30]
0	0xbfa6aade9ef12c8f	-0.04427238168917668
1	0xbf8f6c54c6fc7040	-0.015343344042371254
2	0xbfb28af064daeee5	-0.07243254148755403
3	0xbf8262e909b991c8	-0.008977718934325987
4	0x3face295ec13f29e	0.05641621119318539
5	0x3fb20c14b872dc59	0.07049684050694917
6	0x3fa121eab00b5398	0.033461889257217325
7	0x3fae42756dd1f516	0.059100789695529496
8	0x3fa014601f7f7f66	0.031405452580428414
9	0x3f4a6442eab66400	0.0008054091207895242
10	0x3fb1d3305f931c81	0.06962873776784485
11	0x3f4cbd9f4d4c0e00	0.0008770969239723647
12	0xbfae97d09465b3f2	-0.05975200473299215
13	0xbf747056e45b2390	-0.004989947721420487
14	0xbfa153b602d5976a	-0.033841789098729105
15	0xbfa5a511c9966838	-0.04227500520501376
16	0x3fb5dd0b9313c55d	0.08540413227799122
17	0xbfb07caf941a223f	-0.06440255513928948
18	0x3fb2991d9abf9cf3	0.07264885929145119
19	0xbfa3b77b5f3b0639	-0.03850923097116916
20	0x3f9f5a23a80545d0	0.030617291574633942
21	0x3fa8ffd1f0a24dee	0.04882675230433252
22	0xbf5e1a256bc35640	-0.0018372884215315383
23	0xbfb52959d8684824	-0.08266221555121028
24	0xbf94c03f458bb24c	-0.020264614696247116
25	0x3fb0358a92507c17	0.06331697532776591
26	0xbf96be479c6af658	-0.022210234567629022
27	0x3fb3d917124c15ed	0.07753128239354341
28	0x3f96d0b5fe10c484	0.022280543929984478
29	0xbfb29c615bae3dd3	-0.07269867409035351
30	0xbfaedf8dd10e3c84	-0.06029933144520164
31	0x3faa41e1d7b83f96	0.05128389128014914
32	0x3fb5cb5a858efae9	0.08513417969423255
33	0xbf5f8c30cfd3d240	-0.001925513904379575
34	0x3fb5d59bc886dec3	0.08529065747904511
35	0x3fb300bb4d57efb1	0.07422991407651015
36	0x3fa4bf44f274605e	0.04052176913882087
37	0x3f832726b6213ee8	0.009352018769419115
38	0x3f9db4cf2d9d8c60	0.029010045203346713
39	0x3fb42adf45840fcb	0.07877917716183373
40	0xbfa1e435ae8e37c5	-0.034944226797150736
41	0xbf9699ce92af3178	-0.02207110185899938
42	0xbf61a0c3a44273c0	-0.0021518536687623324
43	0xbf98443eaa9b9e8c	-0.02369783321674261
44	0xbfb4bc98dfebd605	-0.081002764385481
45	0xbfa69bd510b9a571	-0.04415765599407962
46	0x3fb238b5dc696cd1	0.07117783194682949
47	0x3fab9560239e5566	0.05387401995464351
48	0x3fb14744eb6326a7	0.06749373194466078
49	0xbfb13c4426cffe1c	-0.06732583949632737
50	0x3f9a6f3162330ae8	0.025814792269339387
51	0xbfa52aaafd238b77	-0.04134115543435873
52	0xbf92ac1d8e95b14c	-0.01823469336288612
53	0x3fa1e8b7cd1e17b6	0.03497862223507246
54	0xbfa1a4e66b3e86c9	-0.03446121272214737
55	0x3fa6268c71e7d426	0.04326285257767663
56	0x3fa2ed58aadbe10e	0.036967058998870525
57	0x3fb2915101b38b43	0.07252985278641426
58	0x3f8421a65214cda8	0.009829806690141066
59	0x3fae1cd6cc85bcce	0.0588137745534084
60	0xbf8fc8db9bd1e460	-0.015519824688668915
61	0x3fb4a2d32964b355	0.08060951004581558
62	0x3faec5d06627642a	0.06010295149798879
63	0xbfb437aaa9535cbd	-0.07897440561224563
64	0x3faf371a7a4eca22	0.060967280798099446
65	0x3fac1716107b87d6	0.054863633644131646
66	0xbf978c7d06e35a44	-0.022996858163276693
67	0xbfb18ce769d9b4c6	-0.06855627378691329
68	0x3fa49ae325f1020e	0.040244196301959176
69	0xbf9e48a46cb74bd0	-0.029573983321664887
70	0xbfad1f1efa006110	-0.056878059404143255
71	0xbf9b136c96d43504	-0.026441284852855254
72	0x3f9dcafddac2a51c	0.029094664074965512
73	0x3fb56d31e574688d	0.08369743205949672
74	0xbf9a04fd745b5ee6	-0.0254096605557085
75	0x3faa49f10cfc7e46	0.051345379672281186
76	0x3fb0a100c2ae5ab3	0.06495671036678168
77	0x3f54942685cf5140	0.0012560249517622052
78	0xbf8e218d48f23f18	-0.014712432659763006
79	0xbfa5e951d7800f96	-0.04279571300142419
80	0x3f9b78f49f37ef98	0.026828596322942738
81	0xbfb35d6c9ea07356	-0.07564429161761885
82	0xbfaed3ad5c11dde0	-0.060208718766201264
83	0xbf60937e24ae8260	-0.0020234550224389886
84	0x3fafd87adef15226	0.06219848605602278
85	0xbf982db30a48ad9e	-0.02361182928340854
86	0x3f80dab6cc08d3e8	0.008229663945806778
87	0x3fb5e89e42e1669b	0.08558072216819783
88	0x3fb3c932c62064ab	0.07728879296373019
89	0xbfa93fdbddef6062	-0.049315329400713606
90	0x3f91be679351b6b8	0.017327898375177425
91	0xbf9e0c475699c38e	-0.02934371439045296
92	0xbf6f8243b3968b20	-0.00384629462196652
93	0x3f872aaaca325508	0.011311849875975458
94	0xbf7261e896e05110	-0.004487904121578859
95	0x3f544203c5b6ed40	0.0012364422644697975
96	0xbf6f3f5e59320800	-0.003814396166093026
97	0xbf9c87860cdd4588	-0.02786073163526262
98	0x3f83b42979a5f030	0.009620975518139202
99	0xbfaefd51ec4aee34	-0.06052642831261004
100	0xbfb18c5eecf8720f	-0.06854813847935069
101	0x3f853f996776bb58	0.010375212163891298
102	0x3fa526fa39b218c2	0.041312999289446775
103	0x3fac0b912d319a26	0.05477574993783589
104	0xbfa383e18a9298d0	-0.038115547338109956
105	0x3f86d2e6e8b44620	0.011144451119011356
106	0xbfb24802a1c16634	-0.07141128968341875
107	0xbf981a7db6f219e6	-0.0235385554228972
108	0xbfae27470daeca24	-0.05889341394449257
109	0xbf9ed6c38f77c5e8	-0.030116134292205304
110	0xbfb24a62a9a2de74	-0.07144753114232022
111	0xbf990e79755d6ae2	-0.024469278133760215
112	0x3f90c8e8ec2eb7e8	0.01639141027015248
113	0x3fa248d4f7e98e3c	0.035711913359389474
114	0x3fb260a81057f7fd	0.07178736113561963
115	0x3faa1bd5258d7fb2	0.050993595918725446
116	0x3fa41776fc6dd036	0.03924152213485892
117	0xbfa6eef9ac7ad28d	-0.04479198675600058
118	0x3fb5a665951be4d7	0.08457026377063258
119	0x3fb0aa9bfc3ac65d	0.06510329158734281
120	0x3fa0318f7c39e914	0.031628116525967226
121	0x3fb493132574d2c9	0.08036918320142229
122	0x3fa5fd83f919fcea	0.04294979491987212
123	0xbf9f0640e425e356	-0.030297292637871585
124	0x3f981d77d3166db8	0.023549911745801316
125	0xbf9c1cc4d2d7d22e	-0.027453494423712303
126	0x3fb21c535039dd97	0.07074471195834629
127	0xbf84ffbffda6f518	-0.010253429344511164
128	0x3fa8e8c5b9ba8742	0.04865091221041819
129	0xbf79667772a46ae0	-0.006201235383083342
130	0x3facee6888c38c3e	0.05650641126137444
131	0x3fa1fce6371c3c72	0.03513259337170717
132	0x3fb014f1dda165b5	0.0628195921030031
133	0xbf8c9cb190791500	-0.013970744344201425
134	0x3fb2601f48eea283	0.07177920847483148
135	0x3f7237ca9716c4b0	0.004447738044676061
136	0xbf74b5a1ff933720	-0.00505603104211419
137	0x3fb1e205b5bd5403	0.06985507666588835
138	0xbfabdfcb0ac09e1a	-0.05444178110365901
139	0x3f73701229de8b20	0.004745551062941528
140	0xbfa594a0d3384dbe	-0.042149568351443886
141	0xbf830d2008a63c20	-0.009302377952535024
142	0xbfb45e4d0dc18c51	-0.07956391893235205
143	0x3f7cdf676d715d90	0.007048992170062177
144	0x3f9fda1b4c7aac60	0.0311054482869334
145	0x3fb05f8c26af3397	0.06395793861811537
146	0xbfa6f10dcf6b9065	-0.04480784565910837
147	0xbfa13cc275ff4a74	-0.033666684059103696
148	0xbfa73b05adae6e0b	-0.04537217850812788
149	0xbfb23a7c8243e3df	-0.07120493107130653
150	0xbfb2ed34b90f2aa4	-0.0739319755368038
151	0x3faeb369cda5807a	0.059962564805346966
152	0x3faf57df70aaf67e	0.06121729135837216
153	0x3fb2734392939cd1	0.07207128838091427
154	0x3f9b0b9dc0566110	0.02641149984774055
155	0xbfb198b202aa2961	-0.06873619618469241
156	0xbfa5e78a735c5bdb	-0.042782141286970186
157	0x3f7e2ddaf410ffa0	0.0073679497591569165
158	0xbfb2d9d1f9085923	-0.07363617257974346
159	0xbfa4b9eec13c79ec	-0.04048105343666805
160	0x3f87b32cc1a53d80	0.01157221761664462
161	0x3f6d00ca85887fc0	0.003540416288402043
162	0x3fb5893e02a3faed	0.08412540020433897
163	0x3fa8e205c7c12166	0.04859941543014905
164	0x3f6663ae4f054e80	0.002733078428869551
165	0x3fb168f17e9599f1	0.06800755825461359
166	0xbfa047b62f110dbc	-0.03179711651366854
167	0xbfb1a48f06026854	-0.06891721626962638
168	0x3fa9a1dd37c87d9a	0.050063050326794215
169	0xbf988c6c0a572a76	-0.023973167544492267
170	0xbfa7c3ae6a4383f8	-0.04641480490841582
171	0xbfb28b6d27f108ae	-0.07243997788558218
172	0x3f77775e70da4250	0.005729073438161494
173	0xbfa8185568f9b7e0	-0.04706065088690514
174	0x3fa9b3064d6c3a7e	0.050193974448224474
175	0x3f9d6c90bcafcc64	0.028734456554911594
176	0xbfa41f37996b88cd	-0.039300668218645286
177	0xbfb438c809ba93e9	-0.07899141538162237
178	0x3fa2d0aec212f776	0.036748372259792925
179	0x3f9e1ddbe28e1520	0.02941077776224177
180	0xbfa0be07781142a1	-0.032699807554881895
181	0x3facce579aeb9e6a	0.05626176611059182
182	0xbf9fda828dff92d6	-0.031106986920252343
183	0x3fa45a2d336f6baa	0.039750492600169565
184	0xbfb2fc9047127e72	-0.07416631446039348
185	0xbfadb2972dd52170	-0.05800316271285311
186	0x3fab385ea168afb2	0.05316444130252708
187	0x3fb23946a5b8cf21	0.07118646188683588
188	0xbf8a5e7ebce7b630	-0.01287554754250228
189	0xbf927d7cad37b3ac	-0.018056819984781633
190	0x3f92de57b5811658	0.01842629475893029
191	0xbfb4ea63b84b3889	-0.08170150040970915
192	0xbf9b35d4a23c749a	-0.026572534944638272
193	0x3f83ce05c2f77968	0.009670300495540032
194	0xbfb3020e476ec480	-0.07425011867487008
195	0x3fb24dc6a717abc1	0.07149926738172409
196	0xbfab161a1cb5497f	-0.05290299988213842
197	0x3fb496c4b2055b49	0.08042554231847733
198	0xbfa07fd4e8a36bef	-0.03222527828048515
199	0xbfa15122fed19be0	-0.03382214890080326
200	0xbfb2789fd1e9d50e	-0.072153080700293
201	0x3fa94674f57b396e	0.04936566826437426
202	0xbfa291e0c463bac7	-0.03626921079000094
203	0xbf9d599a7bed2f58	-0.02866212254893638
204	0x3facdd28ea7978e6	0.056374815580726254
205	0xbf9a3153adb1d3f4	-0.025578792072753445
206	0x3f9fe82916e3cc70	0.03115905954559789
207	0x3f9347d059f59a98	0.018828635683713374
208	0xbf912a016e78c0c4	-0.016761801116616196
209	0xbfb3ca35a447bbf5	-0.07730422268626554
210	0x3f92f8562483f844	0.01852545354721992
211	0xbfb4a6220e518974	-0.08065998887608378
212	0xbf91205d9b50b9d4	-0.016725027661033412
213	0x3f52a43a7e23bf40	0.00113778793507531
214	0xbfa522af861df841	-0.04128025543376213
215	0x3f93312494f08410	0.018742152777239396
216	0xbf81269427c0cb38	-0.008374364340942728
217	0x3fa3fee8087b6136	0.039054156337160625
218	0x3f87a1ad16876ca0	0.011538841486006313
219	0xbfb19ef61f485f55	-0.068831808698062
220	0xbf91fcc4373979e0	-0.01756579005302139
221	0x3f9c9e3f67c2563c	0.02794741698070012
222	0x3faf8005223c261a	0.061523590497085404
223	0xbfb28f5fd05aea2c	-0.07250021778865151
224	0xbf7dc4cdcea56ce0	-0.007267764982624686
225	0xbfb05dd2ae75efa1	-0.06393162497800954
226	0xbf9395ea8df20b98	-0.0191265725266124
227	0xbf70a582f5ca2190	-0.004064094126654885
228	0x3fa4dd69c7a27086	0.040751748675774954
229	0x3f8fd371879c0458	0.015540015173885077
230	0xbfb0368ba7b4ce1c	-0.06333229870215756
231	0x3fb0d88a872787b9	0.06580415534656837
232	0x3fb35e99c792ca73	0.07566224214932919
233	0x3f70afdff89b0eb0	0.004073977362796619
234	0x3fb2a25f20ff400d	0.07279009395210796
235	0xbfa34831b9bc51bf	-0.03766017334251925
236	0x3fb46757b0b9f5e9	0.07970188202485641
237	0xbfb0781116731f47	-0.06433207319343835
238	0x3fa3b3fa336e68a0	0.03848249318908015
239	0x3fa38d6e5dfb3e0c	0.03818840882524563
240	0x3f9edbca3b3ffdfc	0.03013530718453515
241	0x3f9ae09438b9d550	0.02624732586123929
242	0xbfb447eeb793ccac	-0.0792226026713247
243	0x3f97e74318e87fa0	0.02334313239600727
244	0x3fb4836ed4bd919d	0.08013050741062107
245	0xbf9e206c3e3f7ce8	-0.029420558261219393
246	0xbf714133747261c0	-0.004212571139895649
247	0x3fb443299e408cc9	0.07914981950357282
248	0xbfa719a462310239	-0.04511750887514094
249	0xbf5b8118df770b00	-0.0016787283801568686
250	0x3f82d2ce45535a78	0.009191142550134077
251	0x3fa8d9ad03932182	0.04853573483120767
252	0xbfb1cf48af30fc3a	-0.0695691516602758
253	0x3fb3f5ae8286ac55	0.07796755491897163
254	0xbf9b8668488d60f0	-0.026879910877455282
255	0x3f96508d4bf62ed4	0.021791656266528417

bias f8 [1, 30]
0	0x0000000000000000	0.0
1	0x0000000000000000	0.0
2	0x0000000000000000	0.0
3	0x0000000000000000	0.0
4	0x0000000000000000	0.0
5	0x0000000000000000	0.0
6	0x0000000000000000	0.0
7	0x0000000000000000	0.0
8	0x0000000000000000	0.0
9	0x0000000000000000	0.0
10	0x0000000000000000	0.0
11	0x0000000000000000	0.0
12	0x0000000000000000	0.0
13	0x0000000000000000	0.0
14	0x0000000000000000	0.0
15	0x0000000000000000	0.0
16	0x0000000000000000	0.0
17	0x0000000000000000	0.0
18	0x0000000000000000	0.0
19	0x0000000000000000	0.0
20	0x0000000000000000	0.0
21	0x0000000000000000	0.0
22	0x0000000000000000	0.0
23	0x0000000000000000	0.0
24	0x0000000000000000	0.0
25	0x0000000000000000	0.0
26	0x0000000000000000	0.0
27	0x0000000000000000	0.0
28	0x0000000000000000	0.0
29	0x0000000000000000	0.0
