A-Basic Course 基础教程/A2-Neural Network Basic 神经网络基本原理/SourceCode/ch15-DnnOptimization/Mnist/w_16_10_MSRA_init.npz (npz, 1828 bytes, 2 tensors)

weights f8 [16, 10]
000000 3d 8f 3e 4f f2 50 d3 3f 87 e8 04 07 ac c1 d5 bf
       0.3018155835982162 -0.3399457996889698
000010 ad 0d 7a 7f 7c 12 f1 bf ea 5f c2 dd 46 44 6f bf
       -1.0670132617532133 -0.0038167366129293516
000020 39 08 97 de df 2a 8e 3f ee 81 93 8f 88 5d bd 3f
       0.014730214100271964 0.11470845704344132
000030 b6 ee 12 a1 d3 1c 77 3f 43 5c 7f 20 38 eb bf 3f
       0.005642725636046888 0.12468291085620913
000040 77 c8 fb 94 b8 4c d3 bf 8c 7f 04 8b c7 2e c1 3f
       -0.3015576796452772 0.13424009597747177
000050 5f 58 f4 90 c4 03 c1 bf b6 ee 16 f8 7f e8 de 3f
       -0.13292748525481365 0.4829406664609722
000060 ad 7d 39 05 00 41 d1 3f e1 23 a0 96 68 dd e2 bf
       0.2695922900220136 -0.5895274106888985
000070 f4 d5 39 42 b3 19 85 3f a1 bc 5d 8e ff c1 e0 3f
       0.010302925547175136 0.5236814289654782
000080 09 9c ab e7 3b fb f0 3f 71 81 54 68 b8 e3 73 bf
       1.061336426698974 -0.0048558429164419084
000090 1a 30 5d 26 69 54 95 bf e7 3d 4d ce 9b ee ee 3f
       -0.020829813925317443 0.9666270284014303
0000a0 a0 cc ed 44 d4 e2 de bf 74 8b eb 14 3f 37 d5 3f
       -0.4825945542463135 0.33149697344759166
0000b0 3a 2c 92 34 9a 85 c5 3f 44 f9 5d 69 89 ff df 3f
       0.16813972060148946 0.49997172631983156
0000c0 4f af 7d 06 25 ab cd bf 90 1b 7d ff 9a a0 dd bf
       -0.23178541962567542 -0.4629275794035772
0000d0 b1 83 f2 5b 4e ac de bf e5 62 a7 f6 87 c2 f1 3f
       -0.47926672915678653 1.1099929461399196
0000e0 c4 99 f1 f0 e4 e3 dc bf 82 d3 53 2e 67 bd de bf
       -0.4514095643011411 -0.48031024479069384
0000f0 3c 3e 44 c1 63 b5 e0 bf 46 15 96 73 d3 6f dd bf
       -0.5221422934282098 -0.45995031631203565
000100 2d b9 a9 8a 01 81 dd bf 21 81 a1 04 62 fd c5 bf
       -0.4609989027147943 -0.17179513193242094
000110 03 b6 ca a0 7c d8 e5 bf 7c 93 dd 77 a8 7d a6 3f
       -0.6826766148057576 0.04392744506075183
000120 85 e2 e8 01 29 13 ba 3f 31 f6 c2 45 8f 1f e7 bf
       0.10185486122726146 -0.7226024973421713
000130 52 77 c9 c3 2d 8a ec 3f 14 d9 2f 55 fe 06 b6 bf
       0.891867525478782 -0.08604421214827013
000140 3e 67 d8 7f 44 8e ca bf da ae 0f ce 8a 73 d8 3f
       -0.20746666185805823 0.38205213664217086
000150 fb a4 ce 28 b2 2a c3 3f 55 07 3b 32 dd 70 da 3f
       0.1497404765371256 0.4131386747868551
000160 c7 ce 8f d7 f2 a3 ad 3f 42 62 f0 45 d7 cf d4 3f
       0.05789145356530195 0.3251856024740257
000170 35 89 ef bb d7 17 ac bf 97 33 fb 28 95 5f c5 3f
       -0.05486940545212563 0.16697945118940247
000180 4c 24 48 9b a3 aa cb bf 1e 01 24 be c2 23 db bf
       -0.21614499170417145 -0.424057660755368
000190 68 14 40 96 c7 c5 c7 bf e9 cd 83 38 dd 1d be 3f
       -0.18572325550499902 0.11764319066769925
0001a0 7b 41 52 0e 05 57 b7 3f 8c c6 97 be fe e4 c4 3f
       0.09117156600610159 0.16323837572376865
0001b0 ef 30 d0 99 5e ec 94 3f f9 50 bd fd d4 3d ae bf
       0.020432928216949028 -0.05906549069791995
0001c0 39 7e 43 61 d2 2e ce bf 3f 15 ea 05 f6 b9 f1 bf
       -0.2358038878364697 -1.1079006415396433
0001d0 63 fc 79 90 55 25 d9 3f 76 85 83 b7 5c 53 df 3f
       0.39290370091470644 0.4894630233885303
0001e0 00 9c be 47 b5 a2 cc 3f a3 eb 43 fe d8 3c d1 3f
       0.22371545794632652 0.26933884459111307
0001f0 b6 e9 a8 49 52 98 ea 3f 94 3f 39 a2 59 17 cd 3f
       0.8310939253490719 0.2272750894649077
000200 20 a4 82 e5 83 6a d6 3f 57 2c 2b d6 5e 1f 81 bf
       0.3502511731445015 -0.008360615645321241
000210 96 00 2e d3 97 02 d0 3f 6c fe 7d 07 e9 00 d3 bf
       0.25015826819436293 -0.2969305585065516
000220 7d 29 93 18 d1 4a ee bf 69 e4 86 ee 41 bf bb 3f
       -0.946632907865293 0.10838710854922486
000230 ad ba 1e a7 ce af cc bf ae 16 45 93 84 19 c1 bf
       -0.22411521110685353 -0.13359124365722636
000240 2e 2a 74 20 cb 18 dd bf 79 e8 3e 0f 1a ff e1 3f
       -0.45463827294648496 0.5623903558510072
000250 1b 95 0a 39 fe 77 de 3f f4 a5 28 1f 08 79 bf 3f
       0.47607379503672725 0.12294054756844003
000260 2f ab f0 78 36 f0 be 3f 15 b3 ec 29 87 0e dc bf
       0.120852856184382 -0.4383867177410122
000270 9d 22 35 23 bb 88 d7 3f 01 32 a9 d9 2f d4 c8 3f
       0.36772039831388686 0.19397543075537274
000280 48 7b b8 00 17 7c cc bf f1 84 96 bf 42 46 c6 bf
       -0.22253692183672968 -0.17401918749695924
000290 ba 5d a7 02 ed 52 ba bf be 14 32 76 9d 29 d2 bf
       -0.10282784762181665 -0.28378998320142645
0002a0 6a 29 ec 96 e1 54 de bf a4 b9 90 2d 62 e0 e0 3f
       -0.47393073786283557 0.5273905649135497
0002b0 64 e6 90 43 10 09 da 3f 2c 7c 41 02 cc 22 df 3f
       0.4068031940292711 0.4864988348035151
0002c0 09 30 52 88 42 d1 cf 3f 4b 96 f9 ba 4e 47 e4 3f
       0.24857360512066887 0.6337045337538226
0002d0 ca 29 a6 39 87 e3 b6 3f 5c db e0 7e b3 03 dd bf
       0.08940930516670345 -0.4533509005590781
0002e0 96 59 aa ba e4 5c cb 3f f3 f4 b9 22 69 39 e0 bf
       0.21377238382838176 -0.5070081403970604
0002f0 dc 46 67 7b 6f b4 ad bf 22 a2 dc d0 c1 ca a5 3f
       -0.05801723843945947 0.04256253885825269
000300 14 ab bf 8b e8 b6 ae 3f 1a ed 3f 57 2f 0d db 3f
       0.05998923021237182 0.42267974396209385
000310 8a 07 38 1f 8e 09 c6 3f 27 87 83 34 09 36 c1 bf
       0.1721666004596581 -0.13446154655599082
000320 5d ed 1d 09 df e1 cd 3f f4 97 69 b8 d9 5f dd 3f
       0.23345554299508367 0.4589752484229159
000330 fa b4 3d 85 79 7e d1 3f 7f 03 45 c1 05 91 d0 3f
       0.27334440242596225 0.25885146974547263
000340 ff de 84 84 cf 51 d8 3f 43 d2 ea 6d cb d0 ec bf
       0.37999332372008604 -0.9004876276799866
000350 a1 c4 77 0a 98 e5 d0 bf 37 1a 76 b8 94 53 e7 3f
       -0.2640133001542129 0.7289527514229296
000360 3d 3e e2 80 51 35 cb bf 9b e7 cc 7a 10 e1 d0 3f
       -0.21256464760925722 0.2637368392203087
000370 79 40 44 b0 da b0 bf bf 7b 4b 39 93 64 03 cb 3f
       -0.12379233172782901 0.21104104221975803
000380 6e 2c c9 c2 38 ea dd 3f 7f 15 9f 3f c5 20 d9 bf
       0.4674207594113743 -0.3926251527121493
000390 09 24 4a a0 80 d0 ab bf 53 32 87 bd d8 47 d7 bf
       -0.05432512241993243 -0.36376017101864483
0003a0 fa f8 95 ae 3d 9c 90 3f c1 9e cb 8a 06 77 e5 3f
       0.016221011906503137 0.6707794867370113
0003b0 73 9a 30 9c b7 c1 a4 3f 64 3b c5 86 76 39 a2 3f
       0.04054044515242063 0.03559465785166685
0003c0 86 0f 90 16 6d 45 d7 3f 00 01 e4 a5 cb be c0 bf
       0.36361243441955826 -0.1308226165783779
0003d0 5e 7c b2 67 f4 e9 d2 3f 8e 51 75 2d f3 32 d2 bf
       0.29552946211510356 -0.28435973586354
0003e0 2a f7 92 90 bb 39 e2 3f 0e 06 1b 90 c0 4a d3 3f
       0.5695474456513001 0.3014375121384497
0003f0 63 cf e3 37 42 5e e9 3f 63 a1 0d f0 2c 2f 9d 3f
       0.7927561847304613 0.02850027289551472
000400 00 f3 f9 2d 37 52 c4 3f 2b c0 67 c5 5a e3 ab bf
       0.1587590193265882 -0.05446895274860738
000410 7f cd 38 54 28 ba ba 3f 6f ce 71 61 83 48 e1 3f
       0.10440303856085185 0.5401017096723545
000420 65 2f 2b 28 9a 2d bb bf c6 87 e5 7e cd 15 d3 3f
       -0.10616458397561031 0.2982057322716368
000430 ba 48 f6 88 b7 5a df bf 61 c0 c4 c4 ed 0f bd bf
       -0.489911922218322 -0.11352430395049985
000440 a4 cd bc 4f 36 b6 cb 3f 0f 02 3f 4a da 6c d8 3f
       0.2164981736510586 0.3816438412723366
000450 91 b4 5d 17 2b 2e f1 bf 31 05 29 d2 14 71 d6 bf
       -1.0737715637908745 -0.3506519367548036
000460 50 6f 48 4b 12 9e e8 bf eb a4 c2 ea ca af b0 3f
       -0.7692958326692665 0.06518238288358062
000470 b5 9d b4 2e ef ef eb bf f4 0c 58 43 7d 50 df 3f
       -0.8730388557641421 0.4892876775413264
000480 53 68 3b 28 b7 48 ca bf 41 aa 75 c7 e9 bc ea 3f
       -0.20534409965950093 0.835560693330372
000490 ff 30 56 b9 5e 3f d1 3f 4e 30 b4 57 43 b1 b9 bf
       0.2694927987984243 -0.10036106959540911
0004a0 3e db 41 70 7e e2 e0 bf 75 8f 1b f6 b0 93 c7 bf
       -0.5276481812023588 -0.18419467942214465
0004b0 1a c1 76 40 93 0d c2 3f 14 75 88 ad b3 f0 e8 3f
       0.14103928229952417 0.779382552081787
0004c0 bc 4e 6c 9a af 69 da bf 2d e0 96 8f 47 0a e0 bf
       -0.41270055847528986 -0.5012548260192539
0004d0 69 7d 22 dd d2 44 d0 3f 95 4b 20 33 3a ac cf bf
       0.2542006644743738 -0.2474434613837643
0004e0 7b 3d d7 6d 58 fe c0 3f e3 4c 75 d3 71 34 d2 bf
       0.13276200640983035 -0.28445096636023787
0004f0 34 6f da 8c c8 ba e0 3f 8f d3 09 31 e5 8b dc 3f
       0.5228007079162809 0.44603853024391865

bias f8 [1, 10]
000000 00 00 00 00 00 00 00 00 00 00 00 00 00 00 00 00
       0.0 0.0
000010 00 00 00 00 00 00 00 00 00 00 00 00 00 00 00 00
       0.0 0.0
000020 00 00 00 00 00 00 00 00 00 00 00 00 00 00 00 00
       0.0 0.0
000030 00 00 00 00 00 00 00 00 00 00 00 00 00 00 00 00
       0.0 0.0
000040 00 00 00 00 00 00 00 00 00 00 00 00 00 00 00 00
       0.0 0.0
