B-教学案例与实践/B6-神经网络基本原理简明教程/SourceCode/ch16-DnnGeneralization/overfitting/w_64_1_MSRA_init.npz (npz, 988 bytes, 2 tensors)

weights f8 [64, 1]
000000 7e be d3 ae c0 5d ee bf 72 58 ff 6e af a0 de bf
       -0.9489444174377721 -0.47855745162576746
000010 58 31 8e c1 82 31 fb 3f 78 a4 3d 25 98 41 d7 bf
       1.6995875893363372 -0.36337855946346265
000020 45 d4 dd 83 27 35 d1 3f be 55 1e 64 44 d6 e8 bf
       0.2688692844161021 -0.7761556582869884
000030 d2 bb f2 18 ce 9b e9 bf 1d f0 15 5d b6 ad a8 3f
       -0.8002691733616933 0.04820032011318196
000040 90 4f 07 60 4d 9b 01 c0 62 7b b5 71 23 86 f3 3f
       -2.200831175063236 1.220248645949788
000050 9a 0d ec ce a7 53 03 40 a8 24 72 db 2b 0a ed 3f
       2.415847412661333 0.9074916158725914
000060 02 0b 48 92 aa e9 f7 bf d0 a0 ce 2f e8 fd 04 40
       -1.4945474351995363 2.623978017323772
000070 ba 9d 84 33 06 50 c0 bf 95 5a 55 9c b7 f7 ed 3f
       -0.12744214549569027 0.9364889195811253
000080 f4 4d 18 4f 75 a6 c1 3f d5 cc 3d bc 3a 98 05 40
       0.13789240228707877 2.6993307787284757
000090 5b e4 af 2e 94 0f 01 c0 ad f3 f3 00 a1 56 d5 bf
       -2.132606854193495 -0.33341240971622704
0000a0 20 78 72 f2 a8 b4 f1 bf 0a 84 f2 37 e5 23 e0 3f
       -1.1066064329711551 0.5043817608567462
0000b0 c9 5e 32 6c bb b9 e8 3f 3c e1 18 5d 1c 8f 00 c0
       0.7726723778932519 -2.0698783181398124
0000c0 41 0e 7a ff 64 55 a1 bf f9 17 58 7c 99 ae d5 bf
       -0.03385463350880658 -0.3387817110345846
0000d0 09 4d 43 d1 15 e8 e5 bf fd bd 29 b4 f6 47 f6 bf
       -0.6845807158628371 -1.3925692594165178
0000e0 88 ce b4 67 02 e5 ef bf d0 7a d3 71 02 d6 f9 bf
       -0.9967052484048091 -1.6147484251338717
0000f0 95 c6 eb 68 e3 26 f2 3f 40 6d 61 24 30 4f af 3f
       1.1344942186810034 0.061151031914699505
000100 43 4c ff f8 56 26 0c c0 92 5e a6 4c 08 ff f3 bf
       -3.5187205746565566 -1.2497637743125876
000110 26 2b 12 7e f4 49 f2 bf 58 d8 fa c5 f3 b3 06 c0
       -1.143055431809168 -2.837867304532704
000120 d9 81 1c 38 43 80 ee 3f 47 37 f5 fd b5 38 f1 3f
       0.9531570526051453 1.0763454361180764
000130 92 b1 b2 fc c1 93 f6 3f 22 93 33 02 90 fc f0 3f
       1.4110736723915562 1.0616607748026543
000140 58 99 26 9e d5 42 e2 bf a3 08 4d 82 51 58 f4 3f
       -0.5706585015184755 1.2715621080283561
000150 e6 6c 43 32 6e c1 ee 3f 5e 14 8f 9e 76 b2 f8 3f
       0.961112116022744 1.5435701554972847
000160 9a 74 cb a9 7b 49 f8 bf 60 5c 64 3d dd 1a e0 3f
       -1.5179402001006452 0.5032793234885382
000170 3c d9 20 aa 05 da f1 3f 37 3b 3d 7a 23 0d dc bf
       1.1157280583989424 -0.43830191552563086
000180 04 b3 54 91 b7 a5 e7 bf 76 26 2d f5 15 bc b3 3f
       -0.7389791334622662 0.07708871112586188
000190 f6 9d c9 d3 1f 85 d1 3f ee 7d 74 17 e8 bc de bf
       0.2737502639997439 -0.4802799443295659
0001a0 ad 90 04 a2 65 b3 e5 bf 0c ac 4b fc a2 80 f3 bf
       -0.6781490482722085 -1.2189054351135864
0001b0 a3 d7 29 9c 78 76 f9 bf 26 9e a8 21 c0 f3 01 40
       -1.5914236164221414 2.2440188054640826
0001c0 87 b5 0b 34 ac 2d e4 bf f0 35 42 b2 3d c3 ff 3f
       -0.6305752769964535 1.9851662600734663
0001d0 e9 31 11 64 08 83 e2 3f ad 3b 8d 2e 59 c1 e0 3f
       0.5784952120243904 0.523602095528863
0001e0 2e cc da e2 c6 4c a6 bf ea 62 53 d0 3b 57 dc 3f
       -0.043554511253568115 0.4428243193083704
0001f0 13 31 35 a9 ff 3f f2 bf d0 e4 0c 19 41 2d da 3f
       -1.140624676673785 0.40901210256886333

bias f8 [1, 1]
000000 00 00 00 00 00 00 00 00
       0.0
