A-基础教程/A2-神经网络基本原理简明教程/SourceCode/ch11-NonLinearMultipleClassification/Bank_2N3/w_32_3_Xavier_init.npz (npz, 1260 bytes, 2 tensors)

weights f8 [32, 3]
0.35172618568594516 -0.22423960777403365 -0.3543215185625646 -0.18768187225487892 0.15402518445938462 -0.26990673252569053 0.19028584193138054 0.3092948287781767
0.12943502828627085 -0.13501778439675466 -0.1619041367663841 0.11033051239838043 -0.3153763067845493 0.31355513591587914 0.2835100749702104 -0.052725866865688864
-0.3796153367857767 0.17406586388032685 -0.07077799959838033 0.03325860009685122 -0.2625485797150687 -0.18956556533818497 0.05226945762907109 -0.3939881044927835
0.05540702101048567 0.26188893855401085 -0.31518255481578145 0.11002777196881097 0.12016152581863648 0.3325739533653701 0.3590291179864995 -0.13377040178212052
-0.2372533717648227 -0.059624504115482535 0.14733506958746323 -0.11764327570426208 0.2636304126004658 0.29940906579889925 -0.017989157832524805 0.0601559158728453
-0.34614968738236346 -0.17893792995865432 0.09122462927374186 -0.31719370720333545 0.3665494991456145 -0.14921477208502448 0.018917556285695136 -0.07804205510296686
0.220366091940985 0.1631828022496309 0.26828732280281486 -0.2895136839869411 -0.11927654470945559 -0.05221948574437285 0.022804840840475404 0.15606857032682298
0.3320434485941285 0.0408100083119457 -0.38346609031664886 -0.32086840019775464 0.3485439215702766 0.2523373955601459 -0.13085775225130286 -0.20558296661891348
0.06236059629798385 0.18600979381820548 0.020829848790956285 0.12348376082179346 0.005797104169630751 0.17953186703506796 -0.2702651694194842 0.29249475129208613
-0.02072087381044191 0.37696777412401106 -0.1722109103743488 -0.2112630272813567 -0.2252964017435208 0.17742839463695903 -0.3016913578003457 -0.08030075149328253
-0.34705138576398886 0.279536921579998 -0.21627737216307844 0.32520046759495735 0.04526361158188469 0.25596362868363653 -0.2091811192377926 0.17861584164138855
-0.10389290763025044 0.032490256032732034 0.026244018209501507 0.32876033188139686 -0.1306805531871717 0.07667742711959585 -0.1914175309063313 -0.013663252758310818
00000000: d2bf 2a8c ae82 d63f 61bd ed2a e2b3 ccbf
00000010: 89b2 9f29 34ad d6bf 2e81 b1a7 f505 c8bf
00000020: e4b7 01e5 18b7 c33f 80c1 4ae3 2646 d1bf
00000030: 7459 fe55 495b c83f e825 9b89 7ccb d33f
00000040: 9822 b9b6 5391 c03f 7264 2e44 4348 c1bf
00000050: 6ad6 3f56 46b9 c4bf e080 80d6 9e3e bc3f
00000060: 6eaa e41a 202f d4bf 2a19 908f 4911 d43f
00000070: 1459 0571 0725 d23f d8c9 ae83 e2fe aabf
00000080: 1584 2320 9e4b d8bf 9ca5 5b4c ca47 c63f
00000090: ec24 8dc9 811e b2bf 7014 746f 4507 a13f
000000a0: b132 df8e 98cd d0bf faa1 c937 af43 c8bf
000000b0: d06a 31f6 0fc3 aa3f 6fcf f3e1 1937 d9bf
000000c0: 90ea 6a1e 4f5e ac3f 2883 91d2 c9c2 d03f
000000d0: 4906 4d73 f32b d4bf 70fe 41b2 c72a bc3f
000000e0: 98e5 a0df e7c2 be3f 162a 4d43 e448 d53f
000000f0: 5414 0444 55fa d63f bcda 6976 631f c1bf
00000100: 0a3e 4c88 515e cebf b8b3 6e5e 1a87 aebf
00000110: 0c4d b724 e0db c23f 747e bea5 de1d bebf
00000120: 3066 1618 52df d03f 1cdc 6ea4 8429 d33f
00000130: f008 4bf2 bf6b 92bf a06a ab96 c1cc ae3f
00000140: e7fb b404 5127 d6bf 9cda 9726 70e7 c6bf
00000150: b808 524f 7f5a b73f 5fdc bbd5 e64c d4bf
00000160: 9e84 cc07 8c75 d73f 0eb7 173b 7819 c3bf
00000170: 40ea 44b6 1f5f 933f 543f 616a 90fa b3bf
00000180: 8455 04c3 f434 cc3f 3845 778f 2ce3 c43f
00000190: a4a5 5797 9e2b d13f 1efa 1d67 6487 d2bf
000001a0: 88fd b45a e888 bebf 90d7 f82e 83bc aabf
000001b0: 20bc 66f6 265a 973f f05b be0e 0efa c33f
000001c0: 8e05 242a 3340 d53f 303d 19a6 0ce5 a43f
000001d0: 433d 425b b58a d8bf 1cd4 4a9d 1b89 d4bf
000001e0: 944a 172a 8b4e d63f ea45 5fbf 4b26 d03f
000001f0: 2278 2c63 f2bf c0bf 1f17 1feb 8a50 cabf
00000200: 405b 5163 baed af3f a8aa 973e 2bcf c73f
00000210: a0e3 597d 6b54 953f 8812 51ba a19c bf3f
00000220: 0001 1f4d b4be 773f 2cb2 c074 e6fa c63f
00000230: b4e4 f947 064c d1bf 4446 c3e7 3bb8 d23f
00000240: 500a 714d da37 95bf f68b 6071 3d20 d83f
00000250: 593e 09d2 010b c6bf 4881 83b8 aa0a cbbf
00000260: 0f8c b232 83d6 ccbf 907b 2c40 f9b5 c63f
00000270: a040 cf44 e94e d3bf e003 820d 978e b4bf
00000280: ead1 f803 1736 d6bf 9a7a 0dd4 eee3 d13f
00000290: 3112 2718 faae cbbf 44b6 3d9f 15d0 d43f
000002a0: 58d6 e2c6 ca2c a73f 6659 8a45 b561 d03f
000002b0: 5093 0869 72c6 cabf 08da 3247 e2dc c63f
000002c0: 14eb 8ec0 b998 babf 00d1 3216 90a2 a03f
000002d0: e0a5 b33f b6df 9a3f eec5 69c6 680a d53f
000002e0: 66bf 14ef 23ba c0bf 44f1 d1c1 21a1 b33f
000002f0: 70d7 8fa1 5e80 c8bf c00a 08be 7afb 8bbf

bias f8 [1, 3]
0.0 0.0 0.0
00000000: 0000 0000 0000 0000 0000 0000 0000 0000
00000010: 0000 0000 0000 0000
