A-基础教程/A2-神经网络基本原理简明教程/SourceCode/ch15-DnnOptimization/nonlinear_regression/w_1_16_MSRA_init.npz (npz, 724 bytes, 2 tensors)

weights f8 [1, 16]
000000 e5 69 ad a3 9b f7 d2 bf 83 cd 61 a1 f3 2f d2 3f
       -0.2963627909099656 0.28417673835721063
000010 08 aa 1f fb 21 43 c6 3f 69 0e 95 cb 55 fd b7 bf
       0.1739237285795101 -0.09370933742780498
000020 79 12 66 d1 20 f7 cd bf 63 fb 44 34 aa 80 c0 3f
       -0.23410425400301785 0.12892653991908806
000030 29 a3 cf 59 7a 45 c5 bf 3c 0d 06 5b 78 71 b4 bf
       -0.1661827982454949 -0.0798564169145281
000040 1e 2f 0f c0 16 26 d1 bf 3e e7 dc 33 77 ff da 3f
       -0.2679497600154138 0.4218423849557559
000050 16 a7 9a c7 95 d9 df 3f c6 de cb 0b 80 79 b9 3f
       0.49765533917035165 0.0995101956176497
000060 f9 af d6 1a e6 71 de bf 75 bb c7 8a 32 15 c9 3f
       -0.4757018339248585 0.19595939422967104
000070 da 51 d7 09 f2 37 de bf 05 6b 67 45 d1 65 bf bf
       -0.4721646400551244 -0.12264736122544313

bias f8 [1, 16]
000000 00 00 00 00 00 00 00 00 00 00 00 00 00 00 00 00
       0.0 0.0
000010 00 00 00 00 00 00 00 00 00 00 00 00 00 00 00 00
       0.0 0.0
000020 00 00 00 00 00 00 00 00 00 00 00 00 00 00 00 00
       0.0 0.0
000030 00 00 00 00 00 00 00 00 00 00 00 00 00 00 00 00
       0.0 0.0
000040 00 00 00 00 00 00 00 00 00 00 00 00 00 00 00 00
       0.0 0.0
000050 00 00 00 00 00 00 00 00 00 00 00 00 00 00 00 00
       0.0 0.0
000060 00 00 00 00 00 00 00 00 00 00 00 00 00 00 00 00
       0.0 0.0
000070 00 00 00 00 00 00 00 00 00 00 00 00 00 00 00 00
       0.0 0.0
