A-Basic Course 基础教程/A2-Neural Network Basic 神经网络基本原理/SourceCode/ch14-DnnBasic/HouseSingle/w_32_16_MSRA_init.npz (npz, 4692 bytes, 2 tensors)

weights f8 [32, 16]
0	0x3fce43351a10d478	0.23642600796452817
1	0xbfe59addda94c3fc	-0.6751546162760174
2	0x3fc71b5a9ada8c7b	0.18052227555481068
3	0x3fccec0d24d471cd	0.22595371530850486
4	0xbfd9198827da1134	-0.3921833409479121
5	0x3fd4af4b25d73a66	0.3231990689791132
6	0xbfb151df79bd5e14	-0.06765553209458403
7	0xbfd502bad9657506	-0.32829161863431044
8	0x3f9f9db4b6724b54	0.030875037799499808
9	0xbfc5fe366f78694f	-0.17182045405281562
10	0xbfd976c951b5aef9	-0.39787514666998863
11	0xbfce24f984699df1	-0.2355033775850042
12	0x3fe8f6772365a82b	0.7800861064290577
13	0x3fd2d90ae3ac79cf	0.2944972251297288
14	0x3fe18703af0dc441	0.547731248762041
15	0x3f9b15a29fb8fae9	0.026449719427769223
16	0xbfcd2f1992bcafa3	-0.2279998747338797
17	0x3fd80a7e637ed228	0.3756404849657735
18	0xbfb49d8372cb00d4	-0.08052846481860182
19	0x3fb4714f0ce0a8a1	0.07985395492929338
20	0x3fab1c4b24b49699	0.0529502374941277
21	0xbfb7833902d95c2a	-0.09184604949528877
22	0x3fc1cbfd16f5fa29	0.13903773900160957
23	0xbfe0af1a35edf4a5	-0.5213748029051614
24	0xbfdfc9b3873fe6eb	-0.49668586929293096
25	0x3fd8ad76004778be	0.38558721568359633
26	0x3fe15ea0cd6b4842	0.5428012859431492
27	0x3febf6cd308069a2	0.8738771388337236
28	0xbfa33e238637d200	-0.03758345616725833
29	0xbf9880816383883c	-0.02392770929225939
30	0x3fc69a924694b337	0.17659214445429836
31	0xbfb8497626a7ea51	-0.09487093394992853
32	0xbfd9e9424075e3ee	-0.4048619870659981
33	0x3fb3205b72fe3659	0.07471248204657267
34	0x3fd804544156fb91	0.37526422863805303
35	0xbfcf1079fe14e2d3	-0.2426903238899941
36	0xbfb71ef3e6fa6361	-0.0903160513793302
37	0xbf9eaa4571a9f138	-0.029946408331384705
38	0xbf83bf5578f7ea36	-0.00964228415886224
39	0x3fd81f1d52c8e3a5	0.37689908108182585
40	0xbfd6047511a5cd31	-0.3440220520344211
41	0xbfd580913ff514fb	-0.3359721302588949
42	0x3fbcc818628533af	0.1124282112625241
43	0xbfd28e81c14a2d3b	-0.2899479281993142
44	0x3fbc650f62779e96	0.11091705469118049
45	0xbfd3c7a0430e2b74	-0.30905920551656796
46	0xbfcc866a106b6bcf	-0.22285199929942087
47	0x3fb94756aa65c12e	0.09874478969664288
48	0xbfc080eec08c9706	-0.12893471147361185
49	0xbfc7e0be1ff0c163	-0.1865461021384461
50	0x3fe801eac3c53e16	0.7502340148584519
51	0x3fa61ea86859c643	0.0432026507741168
52	0x3fd9b981277c3259	0.40194729667635937
53	0xbfe5eb5f6a87e46b	-0.6849820213966614
54	0xbfb0e81f4290a85d	-0.0660419023048759
55	0xbfd9993beff3cff6	-0.3999776690754965
56	0x3fc46ae62687a610	0.1595122993597191
57	0xbfd44128cb0d0acd	-0.3164770110053439
58	0x3fd0361f2e332bfd	0.2533033324404526
59	0x3fd340aa30a3692d	0.30082182645641603
60	0xbfdd6ed27c9351cd	-0.4598890511090559
61	0x3fcc02f98ff14c46	0.21884078529783063
62	0x3fa79c782abfba23	0.04611564180219243
63	0xbfd1978470c4ff80	-0.2748728848709945
64	0xbfe5fa2bd870abea	-0.6867884852739483
65	0x3fa02520de9d177c	0.03153326718761115
66	0xbf9f4b88e308ba36	-0.030561579567967644
67	0x3fe2f986f2ed979a	0.5929598564805361
68	0x3fc2c91f35b48d4c	0.14676275369957137
69	0x3fe17a8761159b4d	0.5462071319751459
70	0xbf9a96db177331e1	-0.025966094309113678
71	0x3fd73e8409710861	0.36319065973305525
72	0xbfd8e3f76c1662c6	-0.38891397052206533
73	0x3fc3d94ec7a5ba17	0.15506920574576163
74	0x3fc641c5a94906e6	0.1738822056377593
75	0xbfd080c84ae87981	-0.2578602534794286
76	0x3fa5c6c0fde1bc0f	0.04253199671881457
77	0x3fe6530124a5cc4d	0.6976323810362232
78	0xbfd5103be318c6d0	-0.3291158406965282
79	0xbfd706a3837d35ac	-0.3597801956246609
80	0xbfd3acbae5fac2b9	-0.30741760691584435
81	0xbfcfcc17fba62055	-0.24841594493432476
82	0xbf8800c48c4b2d45	-0.011720214396879878
83	0x3fb231ebe1cd86a9	0.07107424032940436
84	0x3fb79ae22837c7fe	0.09220708352930271
85	0x3fcf37ff28a24866	0.24389638408735265
86	0x3fd147a2b3849186	0.2699972870925865
87	0xbfc03582bcc1f107	-0.12663301674536617
88	0xbfd097b6eae9806c	-0.259259919554103
89	0x3f92861ee13ee2bb	0.018089754579451816
90	0x3fe678912479c0b0	0.7022176468290322
91	0xbfd3dd3d7717f310	-0.3103784239790892
92	0xbfa9a50201d5b0ac	-0.050087034915891365
93	0x3fc923389231015c	0.19638735903027793
94	0xbfddf316e13f7f7f	-0.467961997956074
95	0x3fdcbf3e2ae51457	0.4491725367445886
96	0x3fdec5ef177a777e	0.480830929687606
97	0x3fd41d6f5d236d6a	0.31429657073541384
98	0x3fc25ba6f9395264	0.14342200440536879
99	0xbfaa2bfe49309e69	-0.051116892275157984
100	0xbfa2b82e2685d71f	-0.03656143398522559
101	0x3fc9b87988274704	0.2009422221004159
102	0xbfaed23c11cef780	-0.060197713064083835
103	0xbfdad9d108f08551	-0.4195444667148723
104	0xbfe41ae1678f1325	-0.6282813093790521
105	0x3fe7570d0ed643cc	0.7293763437065706
106	0xbfb246310fa97285	-0.07138353950854011
107	0xbf97d7e11573509d	-0.02328445142195844
108	0xbfba9bd35cdfc284	-0.1039402105086627
109	0x3fb7b226156b182e	0.09256208441647182
110	0xbfca392da8f07639	-0.20486994503964853
111	0xbfc85feb2aff230c	-0.19042720412678482
112	0x3fe2137e2aac0d97	0.5648794969023808
113	0xbfd1e6c611b3d6d3	-0.2797103093028969
114	0x3fe129891e2f7778	0.5363202657278938
115	0x3fd545ee5f8c6f75	0.3323932583896217
116	0x3fc3283fce3309bd	0.14966580932930454
117	0xbfc726a462ae3ea8	-0.18086676424399184
118	0x3fc5f6f0bf727312	0.17159852359773048
119	0x3fb64b4cd3f1be89	0.08708648847982138
120	0xbfbae67d1aef954e	-0.10507947833646833
121	0x3fe2073cb9f819dc	0.5633834488115173
122	0xbfe245b7b7e279d8	-0.5710104552743429
123	0x3fe1bc40ab19e5e2	0.5542300550288781
124	0xbfb28d75bb0a0ba3	-0.07247100654971787
125	0x3fd4ca514de28fc4	0.3248484860034717
126	0x3fdb88c63417130b	0.4302230366413801
127	0xbfadcd11ef8a1dab	-0.05820518540445659
128	0xbfe38f5713246a89	-0.6112475751754839
129	0xbfd19c8d02cbd5a7	-0.27518010399884435
130	0x3fb5804544632805	0.08398850364315542
131	0xbfd9504ee7156674	-0.39552662436253816
132	0xbfd5d0feed50a43c	-0.3408810918359142
133	0xbfbb404b65e92ca4	-0.10644980657632402
134	0x3fdc907a26b1071f	0.44631818560093167
135	0x3fdc58fceac8f718	0.44293139389252323
136	0x3f9a5452dc499c0b	0.02571229428795267
137	0x3fc1c1329114c933	0.1387084206012986
138	0xbfce64982f547ee7	-0.23744489966428903
139	0x3fd202f884bbe499	0.28143132173824764
140	0xbfe8116ab5d3b3cc	-0.7521260787303787
141	0x3fdc51ceddb29959	0.44249316835557334
142	0x3fe1206d1e9112b6	0.5352082821851443
143	0xbfd59f7e0a493e03	-0.33785964016439624
144	0xbfde451b75ea4514	-0.4729679728998957
145	0xbfd59134caa9bc84	-0.33698768416702074
146	0x3fbe979316c6e39e	0.11950034433438225
147	0x3fd46bc022d99a17	0.3190765705425362
148	0x3fd3610aa38f7d97	0.3027979466696364
149	0x3fe11aaf75cfa310	0.5345074940679257
150	0xbfc48382d3f59a33	-0.16026339864329628
151	0x3fac2f623b15e63f	0.055049009049025426
152	0x3fc98d6f9a33bf21	0.1996287825527299
153	0xbfd22ca36c33362d	-0.2839745098725384
154	0xbfd86fed60301613	-0.3818314971289009
155	0xbfb9584c9bddf524	-0.09900358968112194
156	0xbfdb0b3b476edcd2	-0.4225605199421355
157	0xbf67769de9c5cea8	-0.0028641781083765423
158	0xbfb9804d88de940c	-0.09961399642504903
159	0x3fd255a4401fed90	0.28647714864902074
160	0xbfe6e4543733ca0e	-0.7153721883935888
161	0xbfdc0a591575510b	-0.4381315908006093
162	0x3fddda140e8221ca	0.4664354459460155
163	0xbfd40d0a3903c6fd	-0.3132958943161695
164	0x3fb578368265804a	0.08386555369861629
165	0x3fd8061941674c30	0.3753722323137394
166	0xbfdb4d54c4095f2e	-0.42659491676521355
167	0xbf967d027c5ed339	-0.021961249199836195
168	0x3fc9965137ebd4d8	0.19989981871154927
169	0xbfdb7558c6b3acf4	-0.42903727917173673
170	0x3fde73b35e094951	0.4758118074725149
171	0x3fa10fce7fd8f91b	0.033323720079794415
172	0x3fd76260185aef16	0.36537935617865125
173	0x3fcf377b88bc88bb	0.24388069321236636
174	0xbfe047b0c8bdb2a0	-0.5087512894366064
175	0xbfce921a49a4dd08	-0.23883370014093708
176	0x3fd7373a01fb8ef8	0.36274576371782485
177	0x3fc0fe0b2ded11a7	0.1327527975319189
178	0x3fbc4f004834a919	0.11058046114763832
179	0x3fbfa01982fa724f	0.12353667686188284
180	0x3fddc07fd794b075	0.4648742299348279
181	0x3fa78be69f251929	0.045989233900899436
182	0xbfd0b4f14d9c3500	-0.2610438592826796
183	0x3fc612c67e78caa8	0.17244797873862194
184	0xbf97ad6d6beba7e1	-0.023122510635324892
185	0x3fd99f2a7806dd36	0.4003397152077527
186	0x3fe02e3b8cb4c05c	0.5056436298527944
187	0x3fb9a4c4a1e0951e	0.10017041160661619
188	0xbfc2d3612f3efe1d	-0.14707579428612486
189	0xbfe4bfc47cde28aa	-0.6484091223549246
190	0xbfdf3395d6da5e5c	-0.4875235174344874
191	0xbfa533189b5598e4	-0.04140545746013105
192	0x3fe0c949c6c55426	0.5245713121645437
193	0xbfbec7ee74945371	-0.12023821207215037
194	0xbfe0421756ee32ad	-0.5080677698002397
195	0xbfc180aebf2bd79d	-0.13673958143743628
196	0xbfc2af280a17d839	-0.14597034924344301
197	0xbfe102d9b94be36a	-0.531597959429843
198	0x3fdea0c433ee1f88	0.47856240340524225
199	0x3fe2a4b6f7304e19	0.5826067760376105
200	0xbfa81bbc339ac27f	-0.047086602496510636
201	0xbfda3a715b3f2ada	-0.4098170653420944
202	0x3fe5d99cad0f81df	0.682813966759621
203	0x3fdbbfe8fbeddc4b	0.4335882625813993
204	0xbf3109298b5162f1	-0.00025994552863077477
205	0x3fc7b4a8593a9230	0.1852007327735392
206	0xbfcc0c41001ac617	-0.21912395959002204
207	0xbfe88da443669e52	-0.7672902409003177
208	0xbfb971d189e878d8	-0.09939298264405083
209	0x3fd90c159059d8cd	0.3913625631024729
210	0xbfe93a1365eb2739	-0.7883393278691307
211	0xbfd8de52ce7142d4	-0.388569547275478
212	0xbfb97ddbd9edcb88	-0.09957670279054132
213	0xbfc32ee89d3f560c	-0.14986903837295562
214	0xbf8050be860693cc	-0.007966507401599453
215	0xbfcc23a82d6967be	-0.21983816354150848
216	0x3fbb814142005b15	0.10744102345811897
217	0xbfb795df5f51b514	-0.09213062359932095
218	0x3fb061353690bede	0.06398327428973569
219	0x3fe03db625bc0afa	0.5075331437113555
220	0xbfabe41ea3ca993c	-0.05447479009062525
221	0x3fd4ccf1a0ec0a4d	0.3250087806228848
222	0x3fd80ab5a42aac8f	0.37565365821746693
223	0x3fb7fdf04dd20994	0.09371854686654607
224	0x3fc1a8f83377bf25	0.13796904099535215
225	0x3fe719f3cb346cfb	0.7219180077403559
226	0xbfd8c11634d435ec	-0.3867850795657819
227	0x3f9a7fabeb0a68ce	0.02587765333246566
228	0xbf9c5e83713c6bf7	-0.02770429018628914
229	0x3fa4833ea910a7d6	0.04006381810934527
230	0x3fdb6050d1cc6052	0.4277536438762627
231	0x3fc72d781e14ecba	0.18107511013827154
232	0x3fe44ae91bcb0973	0.6341443579515683
233	0x3fe72412d642bdf8	0.723153513410522
234	0xbfc007bb2a49d5d1	-0.12523593487610055
235	0x3fd4cf6a39f6d9e7	0.3251596036965609
236	0x3fd1e5c6de48e847	0.279649464678759
237	0xbfdfaa37909e39d6	-0.4947642242704239
238	0x3fe52316289b5f52	0.660533026991269
239	0xbfded3b0ea85ea29	-0.48167059805533313
240	0xbfda743aad0ae9c4	-0.4133440675610951
241	0x3fd966a87db3effe	0.3968907573287196
242	0xbfcedcebc201967b	-0.2411169717117224
243	0x3fd922c4df2f7304	0.3927471332115575
244	0xbfc199ba7ae365e5	-0.1375039196052931
245	0x3fa4a1d9695e49f0	0.04029731188997576
246	0x3fc4acda948267d1	0.16152508021769887
247	0x3fc990fdb3a7c253	0.19973727485877876
248	0x3fa5be6ecc221f88	0.04246851198064322
249	0xbfd14881f132c0c6	-0.270050511880083
250	0x3fcdc41b9afc8f19	0.23254723613455822
251	0x3fc8a19d79399150	0.19243210238631514
252	0xbfc83db9a4774786	-0.18938370256961096
253	0xbfd5c7e41eb7ab90	-0.34032538413765057
254	0x3fb9167c2b28383f	0.09799934438362444
255	0xbfda341c42b65c1a	-0.40943056597592575

bias f8 [1, 16]
0	0x0000000000000000	0.0
1	0x0000000000000000	0.0
2	0x0000000000000000	0.0
3	0x0000000000000000	0.0
4	0x0000000000000000	0.0
5	0x0000000000000000	0.0
6	0x0000000000000000	0.0
7	0x0000000000000000	0.0
8	0x0000000000000000	0.0
9	0x0000000000000000	0.0
10	0x0000000000000000	0.0
11	0x0000000000000000	0.0
12	0x0000000000000000	0.0
13	0x0000000000000000	0.0
14	0x0000000000000000	0.0
15	0x0000000000000000	0.0
