A-基础教程/A2-神经网络基本原理简明教程/SourceCode/ch14-DnnBasic/MNIST/w_16_10_MSRA_init.npz (npz, 1828 bytes, 2 tensors)

weights f8 [16, 10]
0.6457857812433433 -0.4932283590521068 -0.6245368145490021 0.3438455484115282 0.26912704612772753 0.051352281171181575 -0.21732462438230524 -0.0680576722834898
0.3510408987693158 -0.6046159867420997 0.14175169349392686 -0.23778897487761638 -0.34677376842935553 0.008007482452484034 -0.18510807762674272 0.21533774283142942
0.5539779209064396 0.40541816878026826 0.371121728967705 -0.2569442180423268 0.7123738477537278 -0.09586193868298548 -0.29801325537261514 0.4418761833538365
0.07599305431218938 -0.5709842853208932 -0.5553521879548171 -0.8402895096610947 0.07738604678262055 0.18416886263667237 -0.006591518195616533 0.1958917032758864
-0.24561110703789438 0.07649539857921595 -0.7757335968563319 0.12741780031863612 -0.37404156954041046 -0.23188825984480346 0.8149417015162125 -0.6766662609275895
-0.17892208946134047 -0.2677134693485568 0.6072462290436573 0.7351570757465952 -0.7368099462084137 -0.16674666145655417 -0.5128087606846313 -0.13722292158561614
0.3695256034869727 -0.3333492213546817 0.16298142815571584 0.040710394036727576 0.24048258632608216 0.429915070020754 -0.16225068045520255 -0.1301372859941288
0.5272586578058742 0.47504577075302423 0.447236036641429 -0.3510718942833249 0.1389415920612113 -0.8258401470774971 -0.17575871335059698 0.17732776449292947
-1.0035070600209468 0.38412858579516046 -0.003699102833207638 0.23817991211105902 -0.24071719251501547 0.25422733440811757 -0.487851651116637 -0.026030760851253443
0.3427740147163794 -0.09135562771858881 0.24553754495037725 0.9401306670482943 -0.23256932695617902 -0.4307739853580078 0.14425922325463114 -0.5073285599163886
-0.4342566465528342 0.6072891339790516 0.4927511547298759 -0.5747795723043382 0.569246720751126 -0.46464984597198933 0.8895939510929259 -0.7686831615364951
-0.5135808506875771 -0.1893425091631269 -0.17445659044502404 -0.3682909162116662 0.6146341497769747 0.3040518803171189 0.20698368143311635 -0.49658711225003727
0.2608883834059711 0.13532802173227987 -0.5244424352667009 -0.8201729130617474 0.22718995913617465 0.30087782684377146 0.34034035624500997 -0.005140369504439709
-1.397999168471129 0.04608330314007128 -0.4250929410534735 -0.47635346388694305 -0.23411902273262045 -0.2233938095938725 -0.23358039774687955 -0.08536555584700634
0.059194246520805203 0.5997857732774147 -0.2272146036542324 -0.07035835597538727 -0.202858040547589 -0.5584222753687796 0.4521263252924522 -0.3616975026658169
0.335611216473296 -0.17866328770687614 -0.02402567602548537 -0.024965511013963323 -0.22245752050401124 0.5425886965411815 0.05006262741298849 0.13624398193124265
-0.7953584993158819 -0.8623256735422702 0.7014801026526204 -0.34091402648989655 -0.9670440533112367 -0.09549144945186079 -0.4431826962261581 0.039972081926247
0.626168337167979 -0.05192214342287962 -0.8837733149182426 -0.049906775620604575 0.07043096100817335 0.21985004807368885 -0.26296130590170463 0.18579641204579983
-0.3858368330947828 0.06375749896814702 -0.17667098650612856 0.10221260060105108 0.3194910299891804 0.7934692029461042 0.11608300140266943 0.042796392331846116
-1.0729415520870977 -0.32787445256107817 0.53947581892159 0.48589762232450834 0.6148071342408302 -0.36911185909135213 0.524385574580121 -0.500154853877356
00000000: db2e 55f1 46aa e43f b6aa e5ad 0d91 dfbf
00000010: f559 34a1 34fc e3bf 695f 53c2 9001 d63f
00000020: 709c 65a5 6039 d13f c912 69a0 d84a aa3f
00000030: b732 2b15 4bd1 cbbf c010 b344 3a6c b1bf
00000040: 3b73 f13e 7477 d63f 5a46 36a0 0359 e3bf
00000050: 8ec1 da63 eb24 c23f eb6f 397f de6f cebf
00000060: d1f1 a09a 8a31 d6bf 71bf 0d1a 3a66 803f
00000070: dbee d019 9fb1 c7bf ea18 87e9 2f90 cb3f
00000080: b7f9 9fe7 2fba e13f b463 070c 5ff2 d93f
00000090: ca14 305a 75c0 d73f 6ad6 5829 c671 d0bf
000000a0: 1e18 543d c4cb e63f ac17 9373 688a b8bf
000000b0: 6864 6630 a612 d3bf acb4 180b b347 dc3f
000000c0: 1f77 fee2 4774 b33f 1f76 ffd5 8045 e2bf
000000d0: 40e5 a0f3 71c5 e1bf 2652 65d3 a6e3 eabf
000000e0: db1b 196c 92cf b33f aea6 fb64 d892 c73f
000000f0: 7670 4c31 b5ff 7abf 6e57 90b5 fa12 c93f
00000100: e18c 214c 2f70 cfbf 2835 31d3 3395 b33f
00000110: 2e01 9d43 cfd2 e8bf 8ffd a5fa 394f c03f
00000120: 1051 210d 4cf0 d7bf 4d0d 2eb6 83ae cdbf
00000130: 4914 859e 0014 ea3f feb2 9f00 40a7 e5bf
00000140: 5c5c 6245 ebe6 c6bf 7c3f e3ac 3722 d1bf
00000150: 2494 cba4 8f6e e33f db25 b821 6886 e73f
00000160: 1ea5 ca73 f293 e7bf 9d27 d660 f457 c5bf
00000170: dfc4 07eb ed68 e0bf bd63 3c4c 8590 c1bf
00000180: b0b7 80b7 4ea6 d73f 1663 f7f8 9755 d5bf
00000190: c95f e44f 93dc c43f 0c73 fd25 fed7 a43f
000001a0: 2696 c325 22c8 ce3f f2fc 727f ba83 db3f
000001b0: 1d88 275b a1c4 c4bf b1e0 aaad 56a8 c0bf
000001c0: 06e4 798c 4ddf e03f c830 5f60 2667 de3f
000001d0: 15ed bde5 839f dc3f 3177 1f40 f677 d6bf
000001e0: 7581 fa8c d6c8 c13f 677e ed50 486d eabf
000001f0: 13f7 e9f2 427f c6bf 02c0 951a adb2 c63f
00000200: 6e85 416b 5d0e f0bf 81bb 5c10 9095 d83f
00000210: 216e 2eb6 944d 6ebf 3763 8aea ad7c ce3f
00000220: 3ded b72a d2cf cebf 430e c2b9 4245 d03f
00000230: 9e1d b621 f638 dfbf e03c 2fca cea7 9abf
00000240: bd07 c86b 02f0 d53f 255d 5b19 1563 b7bf
00000250: 8b41 c036 c66d cf3f 040d 9ee8 8c15 ee3f
00000260: b72d aaea d4c4 cdbf 6e22 c50c cd91 dbbf
00000270: 5033 0313 1677 c23f 845d a51a 093c e0bf
00000280: a5f6 c063 dcca dbbf 80ff 349f e96e e33f
00000290: 2b63 a823 3c89 df3f 8d97 2e21 9864 e2bf
000002a0: 1067 1fe6 4437 e23f e6a1 22b5 d2bc ddbf
000002b0: b93b d5bb 8d77 ec3f cc1f f96d 0d99 e8bf
000002c0: 95c2 b11b 416f e0bf 2892 4c16 603c c8bf
000002d0: cc3a 44f3 9754 c6bf 3ac0 2210 1492 d7bf
000002e0: fa7f 893c 15ab e33f 0df5 8f04 9675 d33f
000002f0: 22cc 47f7 707e ca3f caa7 ae4f 15c8 dfbf
00000300: 1aa3 a830 65b2 d03f 5048 c9b9 6d52 c13f
00000310: cb5c 8380 3bc8 e0bf c849 d543 db3e eabf
00000320: d316 3c82 8f14 cd3f d7ac 9812 9541 d33f
00000330: 2334 e5ea 22c8 d53f 5625 936e 110e 75bf
00000340: f8b2 4660 345e f6bf 54ab c10f 3b98 a73f
00000350: ae72 e505 b934 dbbf 67c4 2e3d 937c debf
00000360: f108 01b5 9cf7 cdbf fed1 2a19 2b98 ccbf
00000370: 589e a764 f6e5 cdbf 5058 915e 84da b5bf
00000380: f320 d651 b54e ae3f 63a4 1aef 7131 e33f
00000390: 002c ef3d 5e15 cdbf 2d24 ea55 0103 b2bf
000003a0: f6f6 f094 40f7 c9bf 5923 4264 98de e1bf
000003b0: deab 3241 a3ef dc3f d0a6 3f48 0d26 d7bf
000003c0: fb1b bb77 a77a d53f 1933 d948 70de c6bf
000003d0: 0bcd 2cd3 2f9a 98bf cfe3 5415 8f90 99bf
000003e0: 6c30 a8ef 7c79 ccbf 485b 5af8 e25c e13f
000003f0: 5e32 fb06 cfa1 a93f c8f3 555b 7170 c13f
00000400: 0509 e5aa 9373 e9bf e8af cb02 2c98 ebbf
00000410: dd01 7666 8672 e63f e664 a110 89d1 d5bf
00000420: d76a d85e 06f2 eebf 4d81 71ac 2072 b8bf
00000430: e571 9cf4 1a5d dcbf 9ea5 4081 3877 a43f
00000440: 63ab 3d2e 9209 e43f c304 e107 8a95 aabf
00000450: f3d7 94f9 de47 ecbf 3753 4782 618d a9bf
00000460: b7ec 2772 c307 b23f 1611 40df 0b24 cc3f
00000470: 8085 3da8 5bd4 d0bf 7ab5 b944 2dc8 c73f
00000480: d0fe eef8 8cb1 d8bf db64 f154 6952 b03f
00000490: 9412 99a6 279d c6bf 7014 d2e0 9a2a ba3f
000004a0: 03cf 4a81 8a72 d43f af2c a186 1964 e93f
000004b0: 6d5f a596 9db7 bd3f f774 e7a2 68e9 a53f
000004c0: afbc cbc2 c42a f1bf 2466 bc20 e5fb d4bf
000004d0: 9408 e8ca 6243 e13f 87a0 4557 f218 df3f
000004e0: db2d dd02 80ac e33f 523d d758 879f d7bf
000004f0: f11a aa41 c4c7 e03f 4bd8 8ac0 4401 e0bf

bias f8 [1, 10]
0.0 0.0 0.0 0.0 0.0 0.0 0.0 0.0
0.0 0.0
00000000: 0000 0000 0000 0000 0000 0000 0000 0000
00000010: 0000 0000 0000 0000 0000 0000 0000 0000
00000020: 0000 0000 0000 0000 0000 0000 0000 0000
00000030: 0000 0000 0000 0000 0000 0000 0000 0000
00000040: 0000 0000 0000 0000 0000 0000 0000 0000
