A-基础教程/A2-神经网络基本原理简明教程/SourceCode/ch14-DnnBasic/MNIST/w_32_16_MSRA_init.npz (npz, 4692 bytes, 2 tensors)

weights f8 [32, 16]
00000000: 0f91 9126 25b0 b13f 8ace 29e5 4350 d53f
00000010: fc9a 13ed c17f 603f fd01 c8c1 e2b8 dc3f
00000020: a93f 4da4 9222 c5bf c29d 0b02 890a cbbf
00000030: 2d6e 8b56 c828 d1bf 9d47 0a27 70c1 e63f
00000040: a9ca bc49 79e5 d53f cf92 2aa7 3024 aabf
00000050: 9c0c b768 1976 d7bf a530 770e b3d4 debf
00000060: d48e c983 00ae c93f a217 84ad c36a b83f
00000070: 2fa0 a7f4 5598 de3f 0166 1744 7df6 afbf
00000080: e52e 6fda 6eb4 e0bf 5f1b 9e58 644f d8bf
00000090: bd60 bc10 d7ef e2bf 6912 7747 f70d d6bf
000000a0: 779d c3f5 0668 d5bf 6f4b 774e 2022 d13f
000000b0: aba3 64bf 1701 88bf e17e 93c8 aa4e d23f
000000c0: f6ad 78e7 9b2f ce3f 3ea3 112a 7e3e b33f
000000d0: e910 fd42 e9bb dbbf 3d04 cbaa eb03 d13f
000000e0: 707d 8932 248d d43f ffda 1071 ac55 d93f
000000f0: 577b 3ec8 168c c13f 4375 b188 029e e0bf
00000100: 2b7b 28d9 5783 a63f 3070 4c0f 6776 d9bf
00000110: 418d 3ba1 0dc1 e1bf c7f0 8178 18e8 c03f
00000120: 7df2 cf96 a67f dfbf b192 7797 d090 b3bf
00000130: d1fb 5aac 2e7a cabf 948f 45e1 9cba a3bf
00000140: 3885 8fe1 5472 c93f 9345 c53d d5c0 e43f
00000150: f015 1546 9168 d03f 59e6 ef34 94c7 bc3f
00000160: 70ba 0668 85c3 703f 2a54 339f bf42 e93f
00000170: d377 363b e005 b9bf 2d0d 2415 5f1a d93f
00000180: 9c2e 397a 215a b23f 65bf 8373 03e7 cf3f
00000190: b74c 2bb9 11c8 d73f b639 f86f 810d dd3f
000001a0: 8427 b9f6 213a 933f 596a c18a 98c6 ccbf
000001b0: 0619 4d9d a830 cebf d1a1 0acf 8d2e d0bf
000001c0: cf9a 9747 7763 b43f aaca 9838 3653 c9bf
000001d0: 8147 7dad a8c2 c23f f3c9 a510 5f30 d43f
000001e0: e3ae 53dc d4aa d2bf a7d5 b91c bb03 d4bf
000001f0: 8d69 4be2 1e7a cdbf 7959 9790 1059 d5bf
00000200: 42b9 f639 3b09 cbbf 62f6 52d0 f638 da3f
00000210: 74b7 1683 f026 debf 4191 5b24 c72d ddbf
00000220: 6ce8 8d7f cf37 d9bf 4ad9 c63f 0348 e5bf
00000230: 163a a40e fcb9 863f febe 187b a4bf 9a3f
00000240: a184 71f6 4d97 dabf 4b37 ee78 eddd c9bf
00000250: 4740 21cd 70f3 de3f b9d0 3dff e9da d73f
00000260: 082e 0075 b3f4 b53f 6e3b e4c9 738a e3bf
00000270: 3d72 3747 8cf5 b23f e68b 65d3 c90d c63f
00000280: 087b 2b88 16b4 e4bf b33e 6d98 062d d0bf
00000290: 3341 37e7 9a03 dcbf 5b18 a63a c005 9abf
000002a0: 70a4 db6c 3bec d2bf 6a31 0f4c 251a d03f
000002b0: ba39 da94 92e4 9e3f b75d 5a03 6041 b9bf
000002c0: d8f9 7907 ce13 b4bf 6bd2 ebc9 92c6 d23f
000002d0: ebfc 90d1 525a 933f 22b2 a8a6 bcbe bcbf
000002e0: 494c 5606 860b 9e3f c799 843b 1e19 cf3f
000002f0: 47ea ca27 51ad cd3f 019c 445e c204 cdbf
00000300: 8097 5f6b 5b24 94bf 8bdc b470 88a3 c0bf
00000310: b918 5879 b4d6 bb3f ac55 357b 8699 debf
00000320: 59ab 605d e98e b8bf d541 5f51 924b babf
00000330: a320 3f56 98c8 c4bf b78d fa5c 9816 bb3f
00000340: d7af fac6 e873 cabf 9efb 9787 3f3f d83f
00000350: b8eb d4b5 95df bb3f 86fa a89a a684 a53f
00000360: e24d 1c37 39ff d2bf 09fc a8fa 23e6 b8bf
00000370: b249 65dd 06a9 b8bf d68f 894e 8c8e d63f
00000380: 7dbc 1f9a f80c e23f 09d1 8617 de15 923f
00000390: 0ce2 cc46 251a db3f b4a8 6053 1495 df3f
000003a0: e388 932a 90aa d63f 3262 6ad6 613c d13f
000003b0: 8f31 f85c 29b4 e13f cbf1 ed33 f2fe afbf
000003c0: af4f 6301 6ec9 ba3f f32e 1146 6d05 e6bf
000003d0: 5079 6789 1ac1 e63f d163 bfad 1899 e43f
000003e0: 164c 3951 00ae d0bf 2870 0850 de54 e63f
000003f0: fa5b 317a 32d0 e1bf 1f2f 0863 9b8f 9cbf
00000400: 105a 3385 f4f8 e0bf 219b 629b 7f11 823f
00000410: 9658 6e19 06de babf 8116 7b25 ed12 d8bf
00000420: d2a7 47b3 6d20 c93f f43b aab2 50be b2bf
00000430: 23f0 c930 3057 e63f a757 f134 a61c d53f
00000440: bce0 bfb3 161e b7bf 2c3e ff6d f8f7 be3f
00000450: eccf e16a e5b4 d23f 589b 2400 24c7 eb3f
00000460: 710b 03c3 84d3 ccbf 5463 5aa5 611b e5bf
00000470: 7a1f 4617 1b9a bd3f 4865 c4c0 6eee 98bf
00000480: 63f0 e46e 65b7 ac3f 589e b7f4 d894 e3bf
00000490: 670f 4167 1bc6 703f 4094 0ff3 c474 b1bf
000004a0: 375e da51 f482 a73f 0062 b311 8629 babf
000004b0: a0f2 9b1b 6aab dc3f bc6b 3b26 2683 d8bf
000004c0: 4642 2130 0da3 d53f a77a 9862 813e debf
000004d0: 8cfb d2ed e6fa c4bf 64b1 078e 896b c53f
000004e0: f054 53bb 6731 d0bf 3ac9 01c7 81c2 e33f
000004f0: 1587 8034 9847 db3f 1131 0548 8de4 e2bf
00000500: 0911 c16e 3290 e9bf 94d5 8ab6 5efa d43f
00000510: 8137 79f2 51b6 9fbf 8fc5 dec2 9d8f e4bf
00000520: 36f2 0029 ebdb d1bf d49f 137c 2ab4 afbf
00000530: 3e5e 2b90 db9b e0bf 197c 5a04 b6a6 b4bf
00000540: 1260 101d 0a5e c2bf 20d9 0856 9c2f d43f
00000550: 31a2 fe60 8b3c d9bf 285a fe7a ebec d63f
00000560: d8a9 1686 0c28 e7bf dd7b 5351 5b96 c73f
00000570: 07f9 8e7a b7f7 e23f 60b9 daab 7994 c4bf
00000580: a779 5843 2dad c5bf 25a3 e916 0abb e0bf
00000590: d72c 7dcf bd2b a5bf b10a 6141 af2f e23f
000005a0: d25c f556 d37a b4bf d6d4 9762 98c9 e13f
000005b0: 0246 a4ab 68b1 cebf 5643 520b 2dc5 a53f
000005c0: 6fa2 2c3a 337b bbbf 4e7a 4e45 1401 cf3f
000005d0: f984 7ac6 279d c0bf 3880 a6df eb34 9c3f
000005e0: 8025 8bf9 f1cc cdbf 1b21 fcb3 5216 d0bf
000005f0: 4415 13c4 b720 bebf 8341 2ffd 9631 91bf
00000600: 9c16 6b7c eb46 aebf 18ea fc47 0a82 c2bf
00000610: 201e 4628 de65 dd3f 26e8 4ccc 9d73 e73f
00000620: a110 3255 0b4c c33f a4b4 60d0 884d b73f
00000630: d294 8a48 054c 94bf 0a58 2533 ee8d ec3f
00000640: 2532 ef64 da03 a8bf 9942 c334 7dee e33f
00000650: 0521 aa61 4f0f e73f eadc 5fab ef87 d0bf
00000660: d756 6fc6 2d01 e6bf 6923 3066 4b83 d8bf
00000670: dfcb 7db4 5e60 d33f dfc1 ff75 7e4b cfbf
00000680: 7cbf f1d0 12eb e13f 8b7c d831 ec43 99bf
00000690: 80b9 d791 af69 debf 0cf1 b901 d7ab c2bf
000006a0: 2109 724f 65b5 56bf 7eef e9b1 e132 bbbf
000006b0: f314 3813 017a edbf bb4c 9642 3d03 d43f
000006c0: dc34 591a 2d60 e0bf ff8d 397a 920c e03f
000006d0: 59cb 9c80 0795 dc3f acc0 71c8 d7d1 dcbf
000006e0: 6b3b c074 92f9 dc3f edc3 fd83 81d7 ce3f
000006f0: 8d21 cb84 ee09 c0bf 03f0 581a 1847 c13f
00000700: cd63 cc83 1fee b9bf 54b0 4b68 af9b c5bf
00000710: 900d 24b3 f1bf d83f 56e3 b00d 9781 e03f
00000720: ca48 eddc 3c68 b6bf 7f31 86c3 a278 b53f
00000730: a952 ec47 36ca cabf 659f 6b59 9199 d5bf
00000740: 7414 a0fa 9252 ce3f 7dc0 f2d2 3389 dabf
00000750: 9883 30e4 7b04 e1bf 0e79 aa2c 3580 d2bf
00000760: 2a81 f7d4 d42a da3f 3a5c 0e21 709c d63f
00000770: 9388 f165 2fcf c1bf 02b4 722b 0eb9 a4bf
00000780: cb86 bd08 c71a d8bf f235 a171 51b0 a6bf
00000790: c8ef ca81 68e7 993f 7ab3 ff05 3ab0 ce3f
000007a0: 8a24 df8d b6e3 e6bf 9482 cb8c 74cd cebf
000007b0: 10b6 7d42 4c22 c1bf 5863 d24e d832 d83f
000007c0: a1d1 01f3 77b3 d0bf 2fc1 61b6 cd75 e5bf
000007d0: 2d58 b5a1 e37c c73f 5e72 4fee 5767 e03f
000007e0: f405 69b6 274a b53f b19d 2221 4d21 e6bf
000007f0: 45ea cdd2 f86d a6bf 44d3 c300 c818 d6bf
0.06909401122681323 0.3330239999697616 0.002014044534564772 0.44878453182175787 -0.16511757872149005 -0.21125900840637085 -0.2681141705668065 0.7111130487921745
0.3421309681026892 -0.05105735817531853 -0.3665832064254546 -0.481732143522786 0.20062261996201036 0.09537909494619481 0.47804783718175065 -0.06242743927186823
-0.522025515203009 -0.37984570173323634 -0.5917773558494656 -0.344602412977372 -0.33447431564714897 0.2677078977841835 -0.011720834282259526 0.28605146014704813
0.23582791139902753 0.0751723149020451 -0.43334418813561953 0.2658642928982465 0.32111458716641206 0.3958541015776262 0.1370876767877813 -0.519288317660234
0.043970818766175 -0.39785171979906675 -0.5548160695147218 0.13208299526366415 -0.49216618278277463 -0.0764284486572915 -0.20685370841780906 -0.038533117770185005
0.19880162252142397 0.6485391813713924 0.25638229221325926 0.11242033283624532 0.004092713469090556 0.7893980130562614 -0.09774590917228858 0.3922345835164432
0.0716877864262479 0.24923747196543924 0.3715862568180443 0.45394931730779875 0.01877644604090946 -0.22481066489383997 -0.23585994415970662 -0.2528414270296056
0.07964272973877516 -0.19785192264096924 0.14656551810417898 0.3154523527693122 -0.2916767264966735 -0.31272771649613634 -0.23028932618656164 -0.33356107826457265
-0.2112192185426896 0.4097268137373701 -0.4711266784823842 -0.45591906118922415 -0.3940314050338489 -0.6650406118049343 0.0110969249695048 0.02612168313333906
-0.41548489634267055 -0.20208519367991537 0.4836084368917039 0.37273645330357 0.08576509100401364 -0.6106509154504758 0.07405926455198482 0.1722957880220683
-0.6469834003035837 -0.25274815450118665 -0.43772003726646175 -0.02541256292308734 -0.2956684649530592 0.2515958063857143 0.03016881021044935 -0.09865379411564033
-0.07842719728976222 0.29336995810380156 0.018899244347491722 -0.11228541439840758 0.029340833794389707 0.24295404344702673 0.23185171549796932 -0.2267077408116336
-0.019669941357185916 -0.12999063018080323 0.10874488794806582 -0.47812044174255663 -0.09593065767027777 -0.10271563040374272 -0.16237167559871066 0.10581352491367722
-0.20666227069648244 0.37886036149569147 0.10888038338900585 0.04202767026844349 -0.2968276060284706 -0.09726166600829357 -0.09632914452712418 0.35245044393218217
0.5640833864434992 0.017661543069793093 0.423470801487867 0.4934740843042491 0.3541603484901669 0.269310435667225 0.5532423797426861 -0.06249195941834137
0.1046360734356415 -0.6881624573229302 0.7110722240138703 0.6436885255344525 -0.2606201928330746 0.6978599131721284 -0.5566646944597544 -0.027891567153388693
-0.53039003387204 0.008822438172797544 -0.10495031472086888 -0.3761551729224735 0.19630213979627215 -0.0732164798921387 0.6981430962473535 0.32987361116590325
-0.09030286682525718 0.12097122846102398 0.29229102552130715 0.8680591585915449 -0.225205035420085 -0.6595924596359546 0.1156327182599152 -0.024347048297476165
0.05608670214357472 -0.6119198588975889 0.004095179600032007 -0.0681880086336415 0.04592097758466845 -0.10219610149523106 0.4479623098011789 -0.38300470098118544
0.338076874734757 -0.4725650275085322 -0.1639069234133469 0.16734427866993962 -0.2530154542303782 0.6174935232977881 0.42624478461412824 -0.5903993994375317
-0.7988521731536206 0.32778137041472033 -0.030968933510215905 -0.6425312810953744 -0.27904776577250645 -0.0619214321575893 -0.5190255943115927 -0.0806688080433421
-0.1434948579706093 0.3154059257680206 -0.3943203398908138 0.3582104397877708 -0.7236387843052468 0.18427602263451962 0.5927388566704231 -0.16078110591247263
-0.1693474367938965 -0.5228319594872103 -0.04134934575866971 0.568320872968192 -0.07999916909226393 0.5558587957044903 -0.2397890890211301 0.04251995814514113
-0.10734863443634322 0.24222043403729504 -0.1297960013517139 0.02754562904885935 -0.23281693157904826 -0.2513624913849683 -0.117686734552156 -0.016790732577477662
-0.059134825647146644 -0.14459351077114557 0.45934251721380015 0.7328633299105192 0.1507581869119621 0.09102683150622909 -0.0198212457204548 0.8923254965727676
-0.04690439684018014 0.6228624372980277 0.7206189067374288 -0.2582968877390629 -0.6876438975984581 -0.3830135820322114 0.3027569544421435 -0.24449139367744885
0.5599454956954868 -0.024673166792237338 -0.47520055048416765 -0.14586913666051549 -0.001386021552918289 -0.1062451419219865 -0.9211430907604651 0.31269771101615235
-0.5117402567499556 0.5015346896365712 0.4465960269910077 -0.4503077943291014 0.4527326717515538 0.24095171875845214 -0.12530309185082125 0.13498212133879414
-0.10128972022756884 -0.16881363480149736 0.3867153405592143 0.5158190982248054 -0.08752804177973697 0.08387200616397726 -0.20929602157470598 -0.33749803287945773
0.23689496266902987 -0.41462417221465114 -0.5317973572565391 -0.28907517778306235 0.40886421964207165 0.35329821804174666 -0.13913528897962077 -0.04047436027881447
-0.3766343674998153 -0.04431395065385492 0.025296814844054244 0.23975301068221794 -0.7152970095568361 -0.24064499735597578 -0.13385918852456813 0.37810332963413407
-0.2609538910976657 -0.6706303178926073 0.1834988154975589 0.5126151709078604 0.08316276744246648 -0.691565098492836 -0.043807769520715335 -0.34526252817822844

bias f8 [1, 16]
00000000: 0000 0000 0000 0000 0000 0000 0000 0000
00000010: 0000 0000 0000 0000 0000 0000 0000 0000
00000020: 0000 0000 0000 0000 0000 0000 0000 0000
00000030: 0000 0000 0000 0000 0000 0000 0000 0000
00000040: 0000 0000 0000 0000 0000 0000 0000 0000
00000050: 0000 0000 0000 0000 0000 0000 0000 0000
00000060: 0000 0000 0000 0000 0000 0000 0000 0000
00000070: 0000 0000 0000 0000 0000 0000 0000 0000
0.0 0.0 0.0 0.0 0.0 0.0 0.0 0.0
0.0 0.0 0.0 0.0 0.0 0.0 0.0 0.0
